lab2_src/model_weights/FT80.56_drop0.8_lr0.001_epochs300.pth (torch, 66822 bytes, 14 tensors)

conv1.weight f4 [44, 1, 22, 2]
000000 e0 4c f6 3d 46 4f 64 3d 7e d9 b8 bc 98 82 02 3e
       0.120263815 0.055739664 -0.022564646 0.1274513
000010 91 62 8b 3d 2a 30 b9 3c 53 14 99 bd 32 8f 5f bd
       0.068059094 0.022605974 -0.0747458 -0.05457992
000020 fe 50 00 be 1c 27 b0 3c a8 84 13 be 12 1f 8e bd
       -0.12530896 0.021503024 -0.14406073 -0.0693952
000030 af 8a bd bd ed 31 52 bd 3a 5e 12 3d 3a 31 d4 bd
       -0.092549674 -0.051317144 0.035734393 -0.10360952
000040 c1 37 d8 3d 7d 00 88 bd 48 5e a9 3d 4f ce 2f 3d
       0.10557509 -0.06640718 0.08269936 0.04292136
000050 23 a5 40 bd 58 78 ed 3d fd a3 04 be cc 31 28 3d
       -0.047032487 0.115952194 -0.12953182 0.041063115
000060 27 58 19 3e 2f 8d ad 3d 48 91 bd bd a3 ea 10 be
       0.14975034 0.08474194 -0.09256226 -0.14152007
000070 02 dd 01 3d e2 ab ab 3d b5 0a 06 bc 42 ca ef 3d
       0.03170491 0.083823934 -0.008181264 0.117084995
000080 4e 40 03 3d 4c e5 ae bd 40 3c 90 bd 18 32 24 be
       0.032043748 -0.08539829 -0.07042742 -0.16034734
000090 89 d9 04 3e b3 3e d0 3b 52 95 bf bd 87 0e 7c bd
       0.12973608 0.0063551306 -0.093546525 -0.06153729
0000a0 03 b8 2c bd 06 8a e3 3d 55 62 7c 3d f4 3b bc 3c
       -0.042167675 0.1111031 0.061617214 0.022977807
0000b0 e0 96 fa bd 5e 1a 88 3d 34 38 d8 3d 54 2c af 3d
       -0.12235808 0.06645654 0.10557595 0.08553377
0000c0 08 38 67 bc bc fc 3e 3c fd 5f 02 be cd 93 6e bc
       -0.01411248 0.011656936 -0.12731929 -0.014561606
0000d0 74 23 2f bd e8 84 66 3d 1c c7 b0 3c 4f ee 1b 3d
       -0.04275842 0.056279093 0.021579318 0.038069066
0000e0 40 47 0b bd f8 11 ba bd 51 8e b2 3d 15 72 be bd
       -0.034003496 -0.090854585 0.08718551 -0.09299103
0000f0 c9 ae 9b 3d f7 ca 1a 3d 53 94 08 be 8a 75 05 3c
       0.07601697 0.03779122 -0.13337831 0.008145699
000100 db cf 09 3e b7 01 dc 3d b8 80 ef 3d 97 49 ff 3b
       0.13458197 0.107425146 0.11694473 0.007790755
000110 be b9 3d be e4 b8 31 be f7 ac 89 bd 85 f5 ae 3c
       -0.18527886 -0.17355686 -0.067224436 0.021357307
000120 5d a2 72 bd ca ad cc bb 2b 93 ad bd 2a f7 b3 bd
       -0.059236873 -0.006246303 -0.08475336 -0.08787377
000130 37 48 92 3d ff f6 98 bd f4 59 16 3e 27 49 42 bd
       0.0714268 -0.07468986 0.14682752 -0.047433045
000140 04 ef ec 3c 13 c2 0e 3e ee 6a c5 bc a8 f7 ff bd
       0.028922565 0.13941221 -0.02409884 -0.124984086
000150 1c 10 b7 3d 9b 81 f0 3d 9d 1f 89 3d a6 10 88 bd
       0.089386195 0.1174347 0.06695483 -0.066438004
000160 f0 a1 9c bc 8f 5a b3 3d b0 05 1b 3e 1b 4f cc bc
       -0.019120187 0.08757507 0.15138888 -0.024940064
000170 79 20 1b 3e c5 3c 93 bd 84 62 07 be 4e 0c 61 bd
       0.15149106 -0.07189325 -0.13221174 -0.054943375
000180 56 af 30 bd f9 b9 16 3e 86 89 f2 bd d2 5f ea bd
       -0.043135963 0.1471938 -0.11842637 -0.114440575
000190 49 70 10 be 0a b6 06 be 89 f8 a3 bd 34 81 87 bd
       -0.14105333 -0.1315538 -0.08006389 -0.066164404
0001a0 ea da b7 3d d7 02 c7 3d eb 7e 17 be ac 90 68 bd
       0.089773014 0.097173385 -0.14794509 -0.056778595
0001b0 41 8b c8 3d d1 29 e4 bc 25 3c d8 3d bc db 23 3c
       0.097921856 -0.02785197 0.10558347 0.010001119
0001c0 4e b6 cc bd 7f 3a db bd 60 e5 7c 3d 12 7f b5 3d
       -0.09995709 -0.107045166 0.061742187 0.08862127
0001d0 c5 d7 f9 3d 9c 90 12 3e 74 9b f2 3c b9 36 e8 3a
       0.12199358 0.14312977 0.029615141 0.0017716504
0001e0 70 3e 8c bb 12 4c b1 3b 63 d2 2a 3e f8 74 31 3d
       -0.004279904 0.0054106796 0.16681819 0.04332444
0001f0 18 28 f0 bd 91 24 f0 3c a1 22 92 bd 7e 97 cf 3d
       -0.11726397 0.029314311 -0.07135511 0.10136317
000200 8b ef da bd 5f c0 73 bd cb b6 a6 3d 17 7c 21 be
       -0.106902204 -0.05950963 0.08140334 -0.15769993
000210 4b cc 10 3d c7 d5 dc bd b6 38 dc 3c b8 51 66 3d
       0.03535108 -0.10782962 0.02688251 0.056230277
000220 13 e2 a5 bd b0 c4 03 be 84 40 67 bd f2 0c 3a 3c
       -0.08099761 -0.12867999 -0.05645801 0.011355625
000230 57 6e 12 3e 75 da 58 3d af ba d7 bd 0e 43 ad 3d
       0.14299904 0.05294271 -0.10533654 0.08460055
000240 bb 28 63 bd b5 a2 cf 3b 5c 17 e1 3b ab 42 b2 bc
       -0.055458765 0.006336535 0.0068692397 -0.021760305
000250 13 0d 0c 3e 1d 6d be bd e9 51 68 bd 5e 43 b7 3d
       0.13676862 -0.092981555 -0.05671874 0.08948396
000260 0c 56 3b bd 25 28 bd 3d 13 41 44 3b 33 11 c5 bd
       -0.045736358 0.092361726 0.0029946014 -0.09622421
000270 bd 24 6a bd 0c f4 80 bd a3 c4 e8 3d ed 61 ca bd
       -0.057163943 -0.06296548 0.113656305 -0.09881959
000280 29 7e 02 be 77 21 14 bd 8c e7 f4 3c cc 76 4f 3d
       -0.12743439 -0.036164727 0.029895566 0.050650403
000290 d2 18 14 be 85 df d2 3d 13 d5 15 be 20 c0 0d be
       -0.14462593 0.10296539 -0.14632063 -0.13842821
0002a0 42 25 1c 3c a6 44 c2 3d fe c5 96 bd eb e9 ee 3d
       0.009530367 0.0948575 -0.07361983 0.1166571
0002b0 9b df b2 bd a8 a8 36 bc 6d a2 c5 bd fa e1 6c 3d
       -0.087340556 -0.011148609 -0.09650121 0.057832696
0002c0 85 0b 06 3e e5 a4 d1 bd 99 2d ea bd 59 8f 30 3d
       0.13090332 -0.10236529 -0.11434478 0.043105457
0002d0 02 76 f5 bc 8a 66 fc 3d 26 27 87 bd c9 74 97 bd
       -0.029963497 0.12324245 -0.06599264 -0.07395322
0002e0 c3 54 4f bc 8a 35 7e 3d 25 f5 d5 3d 9b 22 f3 3d
       -0.012654486 0.062062778 0.10447148 0.11871835
0002f0 67 01 48 3d 97 7a af 3d 85 9d 96 bd 3f 72 f8 bd
       0.048829462 0.08568304 -0.07354263 -0.12131166
000300 37 72 4e 3d 4c 5f b5 3b d2 36 9c bd 74 29 ce 3d
       0.050401893 0.005535042 -0.07627644 0.100665
000310 76 63 f5 bd 34 84 28 bd b7 86 28 be e6 b6 b7 bd
       -0.11981861 -0.041141704 -0.1645764 -0.08970432
000320 d9 2f a2 bd 34 8f d6 3d 65 8f b3 3d fe ca e8 bd
       -0.079192825 0.104765326 0.08767585 -0.11366843
000330 88 ae ac bd 23 09 b3 bd b1 0f 2b 3e 22 a1 0b be
       -0.08431727 -0.08741977 0.16705205 -0.13635686
000340 e9 25 8b bc 51 d2 e6 3d 84 6f c7 3d c1 51 c9 bd
       -0.01698585 0.112705834 0.09738067 -0.098300464
000350 3c d6 23 be 9a 12 57 bd 7e 75 01 be bd 56 79 bd
       -0.15999693 -0.052507974 -0.12642476 -0.060873736
000360 5a 4f 68 3d 46 a0 d7 3d 22 8b 22 3d 37 93 32 3e
       0.0567163 0.105286166 0.03968347 0.1743897
000370 57 90 7c bc 41 c5 a7 bd e2 37 92 3d 96 93 c3 3d
       -0.015415273 -0.0819192 0.07139565 0.09549634
000380 69 7d 18 3d 5f ba 1c 3e 5c a6 ea 3d d4 bd 3b 3d
       0.037228975 0.1530547 0.11457512 0.04583533
000390 4e dc 2f 3d 1f 53 d3 bd 1e 45 2d be 8e 2c c0 bd
       0.04293471 -0.103185885 -0.16920897 -0.09383498
0003a0 80 a5 21 bd c7 1b 39 bd 14 ce c5 3d d5 c5 c9 bd
       -0.039464474 -0.045192506 0.09658447 -0.098521866
0003b0 a5 bb f5 bd c9 ac 8d bd e4 3b 83 3d e4 76 9e bd
       -0.11998681 -0.06917722 0.064079076 -0.0773752
0003c0 7b 68 ac bd cd 65 81 bd 2c 7d 4a 3c 63 0e e0 bc
       -0.084183656 -0.06318245 0.012358945 -0.02735061
0003d0 aa 16 59 3d 26 62 2d 3e 9c d3 c0 bd 93 0e 64 3c
       0.05300013 0.16931972 -0.09415361 0.01391949
0003e0 4e 42 ae bd b0 4b d3 bd 41 f4 e1 bd 99 bc 18 bd
       -0.0850874 -0.103171706 -0.11032916 -0.037289236
0003f0 b1 da d7 3c 15 f2 c9 bc 15 ca d9 3d 9c c1 e5 bd
       0.026349397 -0.024651567 0.10634247 -0.11218569

conv1.bias f4 [44]
000000 51 c7 92 b7 3a d4 5f b7 5b 5e 9e 36 aa 54 cc 35
       -1.749737e-05 -1.3341249e-05 4.7197514e-06 1.5223825e-06
000010 27 47 6a b3 df ad 18 b6 12 29 09 b2 4d 30 ab b5
       -5.4547083e-08 -2.2750971e-06 -7.983788e-09 -1.275455e-06
000020 c2 f5 da 35 e4 1c 3f 36 1f 85 fc b4 92 6d 03 36
       1.6313791e-06 2.8478034e-06 -4.7035516e-07 1.95843e-06
000030 67 0a 3f b5 11 67 35 b6 18 5f 80 36 4c 86 65 b4
       -7.116818e-07 -2.7031094e-06 3.8257676e-06 -2.1376144e-07
000040 41 5a 0c b6 b5 65 11 b6 65 36 01 b6 3d e1 3d b7
       -2.091416e-06 -2.1665885e-06 -1.925416e-06 -1.131772e-05
000050 cb 25 db b6 fc d1 c6 b6 63 e3 62 b6 1b 21 ef b7
       -6.5311083e-06 -5.9253052e-06 -3.380898e-06 -2.8506436e-05
000060 aa 42 bc b4 c8 d7 bb b5 ef 20 98 b6 e7 83 47 b6
       -3.5066233e-07 -1.3995386e-06 -4.533787e-06 -2.9730088e-06
000070 9d 23 a4 36 01 ed 3a 36 7e a4 48 36 2c 9a 01 37
       4.891727e-06 2.7854114e-06 2.989807e-06 7.724895e-06
000080 cf a6 b3 b7 48 34 3b b7 a6 0e 52 b7 6d 1b 8b b5
       -2.141614e-05 -1.1158241e-05 -1.2520386e-05 -1.0364289e-06
000090 bd 7c bb 36 10 4b 1a b4 06 7e 18 38 3b 45 26 35
       5.5875557e-06 -1.4369675e-07 3.6356992e-05 6.194056e-07
0000a0 ce 1f 33 b6 c0 cf ef 36 6b 6f ec 35 15 4a 58 b5
       -2.6691591e-06 7.1469403e-06 1.7615797e-06 -8.0574074e-07

bn1.weight f4 [44]
000000 88 9a 89 3f 56 e2 85 3f 7e 07 82 3f bd 87 62 3f
       1.0750284 1.0459697 1.0158536 0.8848837
000010 4a b1 70 3f fa 94 7c 3f 41 6b 68 3f e4 c5 6b 3f
       0.9402052 0.9866482 0.90788656 0.9209883
000020 33 00 79 3f 49 d5 8a 3f e9 5a 6a 3f da ee 6b 3f
       0.9726593 1.084634 0.9154497 0.92161334
000030 b1 e6 84 3f d5 fb 75 3f 8a 2d 7b 3f b1 7a 70 3f
       1.0382901 0.9608739 0.9811636 0.9393721
000040 92 b3 74 3f 0c 47 78 3f cd a3 7b 3f e6 e5 6c 3f
       0.955865 0.9698341 0.98296815 0.925383
000050 15 16 81 3f a9 a2 7c 3f e3 ea 6a 3f c2 1d 77 3f
       1.0084864 0.986857 0.9176466 0.9652978
000060 2b 1e 82 3f 09 5e 6b 3f 52 8b 75 3f 88 c0 74 3f
       1.0165457 0.9194036 0.9591571 0.9560628
000070 72 02 6c 3f d8 11 85 3f 07 6d 6a 3f 15 49 8c 3f
       0.9219123 1.039607 0.9157261 1.0959803
000080 23 66 8a 3f d8 5e 7b 3f bf c4 80 3f 33 ec 81 3f
       1.081242 0.98191595 1.0060042 1.0150207
000090 36 8d 8f 3f 6d 58 73 3f a1 58 85 3f 67 e2 70 3f
       1.1214969 0.950568 1.0417672 0.9409546
0000a0 55 72 7f 3f c9 0f 87 3f 93 89 6a 3f 86 51 67 3f
       0.9978383 1.0551692 0.9161617 0.9035877

bn1.bias f4 [44]
000000 28 97 db bc 7a b5 0f 3c 30 d5 f2 3a 10 7a 81 3b
       -0.026805475 0.008771295 0.001852667 0.0039513186
000010 49 a0 95 ba 24 15 4a bb 3c 7c 91 bb e0 db f6 3b
       -0.0011415567 -0.0030835355 -0.0044398587 0.0075335354
000020 9d d8 22 3c 1b 5a bd ba 0d 7d 2d 3c 28 f5 24 bc
       0.00993934 -0.0014446409 0.010588896 -0.010068215
000030 3d da ac 3c 8a 21 01 3c 03 c0 45 3c 92 ea 26 bc
       0.021100158 0.0078815315 0.012069705 -0.010187762
000040 69 48 16 bc 85 94 fe b7 35 6a db ba 91 92 59 bb
       -0.009172537 -3.034832e-05 -0.0016740026 -0.0033198933
000050 70 fb c2 3a 46 da 20 b9 5f 6a 05 3c a5 40 3b bc
       0.001487596 -0.00015340102 0.008143037 -0.011428987
000060 9b 0d ee 3b 87 32 20 3c d6 10 81 bc 6c b5 4d 3b
       0.0072648055 0.009777672 -0.015755098 0.0031388653
000070 da f7 91 bb 6c 10 70 ba 59 55 f9 3b 31 36 51 bb
       -0.004454595 -0.00091577205 0.007609051 -0.003192317
000080 f6 9e e2 3b fb 15 03 bc 87 27 83 3b 26 e7 5e bb
       0.0069159223 -0.008000846 0.0040025148 -0.0034012287
000090 cd c6 a7 bc 79 24 84 3a 6b 52 06 bc 06 6d 1a 3c
       -0.020480538 0.001008167 -0.008198361 0.009425407
0000a0 aa 28 39 bc a9 f2 39 3c 50 dd a9 bb 8e 95 a9 bc
       -0.011301199 0.011349359 -0.005183853 -0.020701196

bn1.running_mean f4 [44]
000000 9e 51 a1 b9 85 e2 6d b9 49 03 8e b9 12 c8 70 b9
       -0.00030769123 -0.00022686466 -0.00027086798 -0.00022962716
000010 73 34 d4 35 58 b7 d8 b8 b5 40 d8 38 70 69 17 ba
       1.5810496e-06 -0.00010333833 0.00010311735 -0.0005775904
000020 ad 60 59 b9 3d 7d 4d 38 e2 aa d8 b9 3a 82 75 38
       -0.00020730747 4.8992446e-05 -0.00041326048 5.8533835e-05
000030 fb 43 3a b8 9b e4 11 39 e0 da 40 b7 ff fe 54 ba
       -4.4409167e-05 0.0001391344 -1.1495053e-05 -0.00081251556
000040 a7 0b a9 b9 57 35 c1 b8 8d fa f3 b8 90 cd ad b8
       -0.00032242874 -9.2128925e-05 -0.00011633812 -8.287572e-05
000050 11 bf 09 39 a9 42 95 b9 70 69 82 b8 6c b8 f8 b8
       0.00013136516 -0.0002846916 -6.218522e-05 -0.00011859913
000060 00 f8 6e 39 35 4d fc 39 ca 4c 0e b9 6c 0d c9 b8
       0.00022789836 0.0004812271 -0.00013570781 -9.586927e-05
000070 6c a6 01 b9 a2 4c a1 39 bb e6 a2 39 6b 33 4d b8
       -0.00012364396 0.0003076541 0.00031070955 -4.8923695e-05
000080 31 1e 24 37 a5 71 dd 39 ee ce 82 b9 7d 36 40 39
       9.782191e-06 0.00042237077 -0.00024949707 0.00018330845
000090 1e 6a ad b8 8a f3 24 39 8d 7c 41 39 e6 af d4 38
       -8.269049e-05 0.00015730984 0.00018452313 0.000101417114
0000a0 b6 2c 6f 38 3c 3b fd b8 d7 df 14 3a d1 a4 4a b6
       5.702368e-05 -0.000120750134 0.00056791067 -3.0196281e-06

bn1.running_var f4 [44]
000000 84 22 51 3d 72 d4 01 3d f6 9a 18 3d 4e 3d 98 3e
       0.051058307 0.031696744 0.037257157 0.29734272
000010 b1 54 e0 3d c2 df e2 3d 7e ee de 3e a5 6d ad 3e
       0.109536536 0.11077835 0.4354133 0.33872715
000020 c5 ac 10 3d 9f da dc 3c 52 3e 9e 3e 36 14 2a 3e
       0.035321016 0.026959715 0.30906922 0.16609272
000030 72 e1 2f 3d 35 d4 63 3e 29 9e 5c 3d 5f 3d a9 3e
       0.04293961 0.2224892 0.05386177 0.33054635
000040 54 24 04 3e 80 14 6e 3d 12 92 14 3d 95 bf 4c 3d
       0.12904483 0.05812502 0.036272116 0.049987394
000050 65 4f b9 3c 0e b6 42 3d c4 6c c9 3d 06 8d c6 3c
       0.022620866 0.047536902 0.098351985 0.024237167
000060 93 f0 97 3d 73 f9 52 3e 50 8b 61 3e 32 df 97 3c
       0.07418933 0.2060297 0.220258 0.018539045
000070 2f 66 ae 3d f5 b7 6c 3d db 6b e7 3d 0e 7a ed 3c
       0.08515584 0.057792623 0.11299869 0.028988864
000080 bb 01 f0 3c f0 c9 cd 3d 06 21 48 3d f9 b4 81 3d
       0.0292977 0.10048282 0.04885962 0.06333346
000090 90 c2 b2 3c 29 ea e6 3d 82 c7 93 3c 3c 88 d6 3d
       0.02182129 0.11275131 0.018039469 0.104752034
0000a0 a5 9a 97 3d 14 22 6c 3d 3a cd 05 3f f0 43 06 3f
       0.07402543 0.057649687 0.52266276 0.52447414

conv2.weight f4 [20, 44, 1, 12]
000000 5a b0 3b bd f3 79 41 3c 7d ab 93 3c 16 83 72 3b
       -0.04582248 0.01180886 0.018026108 0.0037004403
000010 7f 86 e8 ba 92 45 8a bc 1d e8 ce 3b b8 09 42 3c
       -0.0017740278 -0.016878877 0.006314291 0.011843137
000020 99 12 04 bd 35 2e 0f 3c 4c 05 07 bd 44 14 28 3d
       -0.0322443 0.008739044 -0.032964036 0.04103495
000030 3d 3a ae 3c 8f aa ab 3c af 1d e0 3b 17 ba 06 3d
       0.021268005 0.020955352 0.006839476 0.032892313
000040 bb 11 30 3c fd e6 55 3b f8 57 57 3c a9 e0 70 bc
       0.010746415 0.00326389 0.013143532 -0.014702001
000050 64 cf 97 bc 8e 7b 2b bd 10 26 9b 3b 81 d5 13 3d
       -0.018531509 -0.041865878 0.004734762 0.036092285
000060 67 0b 28 3c 8b 35 07 bd 71 2a 04 bd f6 f4 f2 3b
       0.010256625 -0.033010047 -0.032267038 0.0074144555
000070 cf b0 5d bc 42 1f fe bb a6 23 82 3c 99 b5 e0 3b
       -0.013530924 -0.007755191 0.01588614 0.0068575856
000080 fe c5 c5 3b 68 de f8 3c 39 1e 24 3d 1a c8 04 bd
       0.0060355654 0.030379489 0.040067885 -0.032417394
000090 59 1d 13 bd b8 d6 7a bc d2 cb c7 bb 1c 3d 0e 3d
       -0.03591666 -0.015309982 -0.0060972953 0.034726247
0000a0 9d f0 5d bc 15 73 c6 3b 9c 6f 52 bb 9a 54 f7 bb
       -0.013546136 0.0060561993 -0.0032109981 -0.007547927
0000b0 23 79 d8 3c d8 37 3b 3d fb b7 b3 3c f4 4f 2d bd
       0.02642495 0.045707554 0.021938315 -0.042312577
0000c0 7c 3a 90 3c 17 f9 11 3d 25 59 f2 3b db 98 db 3c
       0.017606013 0.03563794 0.0073958808 0.026806286
0000d0 38 ee 21 bd e7 2b 87 bc 3d e9 21 3c b8 11 0e 3d
       -0.039533824 -0.016500426 0.0098822685 0.034684867
0000e0 d8 71 10 3d c8 b8 5d bc cd ae ff bc eb e1 1d bd
       0.03526482 -0.013532825 -0.031211281 -0.03854553
0000f0 4a 7f 59 3d ab 50 35 3d b4 a7 e3 3b 24 ec da bc
       0.053099908 0.044266384 0.006947482 -0.026723929
000100 c2 66 3d 3b 8b 59 36 3c d9 4a 83 3d c1 95 df 3c
       0.002890036 0.011129747 0.064107604 0.027293088
000110 25 eb c6 bc 4c 2e c7 bc ba 98 33 3d af 0b a5 3d
       -0.024282048 -0.024314068 0.043846823 0.08058869
000120 c6 83 27 bd 67 34 bb bc 0c af 4e bc 4d 99 12 3b
       -0.040897153 -0.022852136 -0.012614977 0.0022369206
000130 c1 c1 44 bc aa a2 9a 3c 47 01 7e bc c5 e5 7f bb
       -0.012009085 0.018876392 -0.015503234 -0.0039046865
000140 4e 17 1d bd cc 0d df 3a 00 3c f5 3c 68 40 3e 3c
       -0.038352303 0.0017017662 0.029935837 0.011612035
000150 a7 d3 0f b9 29 72 94 3c a1 cd 3e 3d 75 cb 23 bd
       -0.0001371639 0.018120842 0.04658282 -0.039988954
000160 22 5f d2 bc fb 90 8b b8 cc 66 94 3c 6d ce fa bc
       -0.025680128 -6.655041e-05 0.018115424 -0.03061601
000170 1a d9 51 bd 4c 23 2f ba 11 41 b7 bc 5c 99 34 3d
       -0.051232435 -0.000668098 -0.022369893 0.044091567
000180 85 b3 4b bd 8f 8d f4 bc 1e a2 6a 3d fe 11 02 3d
       -0.04973175 -0.029852657 0.057283513 0.03175544
000190 ab 7f ba 3c 87 92 89 bd 1c 33 55 3c d6 04 1e 3c
       0.022765955 -0.06717401 0.013012674 0.009644708
0001a0 3f 3f 3e 3d e3 3d 07 3d 5b 03 2a bd 73 71 54 bc
       0.046447035 0.033018004 -0.041507106 -0.0129665015
0001b0 6a f6 57 bd a2 2a 14 bd c4 20 42 3d 64 fd 81 3c
       -0.052725233 -0.03617347 0.04739453 0.015867896
0001c0 e9 98 be b9 fb c5 f2 bc e8 2e 2f bd 3c f4 15 bd
       -0.0003635355 -0.02963542 -0.042769343 -0.036609873
0001d0 09 19 d8 ba d1 b6 b5 3c 3a f1 9b 3c 18 68 37 bc
       -0.0016486953 0.0221819 0.019035924 -0.0111942515
0001e0 63 5e 00 3a 6b 46 46 3d ad 97 a8 bb 94 68 bc bc
       0.0004896877 0.048407 -0.0051450343 -0.022999085
0001f0 bd 95 41 bc 50 dd 00 bd cd a6 82 bc f7 aa ae 3c
       -0.011815486 -0.03146106 -0.015948677 0.021321757
000200 09 e8 58 bc af bf da 3c 02 cf 17 bd 67 13 3a bd
       -0.013238915 0.02670273 -0.037062652 -0.04542866
000210 a9 bc e3 bc 82 43 71 3c 63 28 b7 3c 85 a6 34 bc
       -0.027799921 0.014725568 0.022358125 -0.0110260295
000220 42 dc d5 3c 73 bf 82 3a aa 8f 18 3d fa 0f 08 3d
       0.026106004 0.0009975269 0.037246384 0.03321836
000230 58 2d 98 bc f5 35 19 bd f2 39 b6 bc cb 1b 15 bd
       -0.01857631 -0.037404973 -0.022244427 -0.03640346
000240 ec 9f ea bb 0a c8 c3 bc 5b 4f 4d bd 1b e3 81 bc
       -0.0071601775 -0.023899097 -0.050124507 -0.015855363
000250 48 d5 24 3d 2c 0f 01 3c ca 8d 7a 3c b0 f2 41 3a
       0.040242463 0.007877152 0.015292594 0.0007398529
000260 b3 bd 8a 3c bd 47 85 bc c8 e8 98 bb 23 6a 70 3d
       0.016936159 -0.016269559 -0.0046664216 0.05869497
000270 df 42 dc bc 24 50 d0 3b ab bc a9 3c 48 e8 c1 3b
       -0.026887355 0.0063572098 0.020719847 0.0059175827
000280 6a 79 c1 3c 71 62 41 3c ca c5 67 3c b8 82 16 bd
       0.023617465 0.011803255 0.014146278 -0.036745757
000290 2d 15 3a 3c d2 cc e7 bc c2 d6 8e bc 95 8c 45 3c
       0.011357588 -0.028295908 -0.017436389 0.012057443
0002a0 60 1e d7 3d 53 1f 87 3d 97 5e 2f bd 6e e7 65 bd
       0.105038404 0.065977715 -0.042814817 -0.05612891
0002b0 60 1c 11 bd c2 80 ba 3c 97 bb 57 3d 68 e7 09 3c
       -0.03542745 0.022766475 0.052669134 0.008416988
0002c0 c0 ba d1 3c 59 4f 56 bd 9a 15 06 3c 6d 1f 88 3d
       0.025601745 -0.052321766 0.008183861 0.06646619
0002d0 39 ba 33 3a aa 0a 54 3c f4 35 1b bc 92 24 41 bc
       0.00068560574 0.012941996 -0.009473313 -0.011788504
0002e0 05 8f 3a bc 79 4a 27 3d 81 a4 12 bc 6c 00 1d 3d
       -0.011386638 0.040842507 -0.008950354 0.03833048
0002f0 20 2e 51 3c 8f b2 da b9 8f bf d0 3c a6 74 dc 3c
       0.012767345 -0.00041713237 0.025481967 0.026911091
000300 73 4f 5b bd 3e 21 f1 3c 89 d5 2d 3b 45 e1 7b bc
       -0.053542566 0.029434796 0.0026524982 -0.015373533
000310 fb 63 07 bd d5 34 83 3c c4 ae b4 bc c1 ea 41 3d
       -0.033054333 0.016016403 -0.022055991 0.04734302
000320 54 1d 73 3c 22 20 c3 bc 7a 4d 82 bc 96 df 51 bd
       0.014838535 -0.023819033 -0.015906084 -0.05123862
000330 b1 ca 8d bc 11 2c a3 3c 06 cb b1 3c d9 5c ad 3c
       -0.017308565 0.019918473 0.021703254 0.021162437
000340 1e 65 a2 3c 10 b7 db bb f0 fa 31 b9 c3 f4 d8 bc
       0.019823607 -0.0067051724 -0.00016973517 -0.026483899
000350 e6 5f 81 3d 6e eb 4b 3d af 9f 1b 3d d1 3b ab bc
       0.06317119 0.04978507 0.037994083 -0.020902546
000360 d1 5f 26 bd c3 55 83 b9 55 ae 3a 3d d6 f5 b5 3d
       -0.04061872 -0.00025050165 0.045576412 0.0888478
000370 94 dd 4a 3c 63 7d 5b bd c9 23 8f bd ab 42 08 bd
       0.01238193 -0.053586375 -0.06989247 -0.033266705
000380 00 49 3f 3d 28 c1 3c 3d ac 7d 35 3d d2 ff 07 bc
       0.046700478 0.046082646 0.044309303 -0.008300738
000390 9b db ba bc 01 4d 1e bd a5 bf 47 3c 07 22 22 bc
       -0.022809794 -0.038647655 0.012191688 -0.009895808
0003a0 40 4c e6 bb 04 01 a7 3c 62 3c 86 3c 11 c5 0a bd
       -0.0070281327 0.020386226 0.016386215 -0.033879343
0003b0 e6 db 20 bc 33 bf 8d bc f7 be d2 3c 33 41 60 3d
       -0.009818053 -0.017303085 0.025725825 0.05474968
0003c0 79 fa 1b 3c 1b 0f 38 bd 18 46 46 bd af fd 7a 39
       0.009520167 -0.04493628 -0.04840669 0.00023936362
0003d0 a8 3d 1f 3d 9d 26 38 3b ef c2 09 bd ca 42 9c 3b
       0.03887716 0.0028099187 -0.03363317 0.004768704
0003e0 92 42 17 bd 43 11 8a 3d ab 61 ba 3c e3 97 12 bc
       -0.03692872 0.06741574 0.02275165 -0.008947345
0003f0 6e f7 93 bc 99 dc c2 bc 1b 1f d8 3c 09 18 c4 3c
       -0.01806232 -0.02378683 0.02638202 0.023937242

conv2.bias f4 [20]
000000 ce a9 d2 36 14 c9 d8 35 4b bc dc 35 44 82 82 37
       6.2782556e-06 1.6151776e-06 1.6446078e-06 1.5557867e-05
000010 91 4b 73 b7 66 77 09 35 a4 12 82 b7 8c d9 a0 b4
       -1.4501523e-05 5.1210225e-07 -1.5505888e-05 -2.9960609e-07
000020 9b 7f 6d b5 7f bf ad b6 f4 05 ba b6 77 ca f8 35
       -8.847507e-07 -5.178095e-06 -5.543925e-06 1.8536365e-06
000030 00 96 ef b5 84 27 fb 35 0b a3 0a b7 c1 55 cd b6
       -1.7850543e-06 1.8712458e-06 -8.263402e-06 -6.119459e-06
000040 f9 c5 92 36 73 2d 81 b6 de 3e 38 b6 82 3d 0a 35
       4.374186e-06 -3.8497906e-06 -2.745473e-06 5.149851e-07

bn2.weight f4 [20]
000000 13 80 90 3f 12 b6 8b 3f b8 0c 8f 3f 77 85 92 3f
       1.1289085 1.0914938 1.1175756 1.144698
000010 e9 55 97 3f c5 10 95 3f 20 df 95 3f fc 73 92 3f
       1.1823093 1.1645743 1.1708717 1.1441646
000020 54 e2 8c 3f 5e 59 8e 3f b5 7a 90 3f 93 3f 8d 3f
       1.100657 1.1121023 1.1287447 1.1035026
000030 b5 cf 91 3f 2d 3c 8c 3f 8b d7 87 3f b0 f3 98 3f
       1.1391512 1.0955864 1.0612653 1.1949368
000040 78 b4 8a 3f 51 57 89 3f a5 16 91 3f aa 61 8a 3f
       1.0836325 1.0729772 1.1335036 1.0811055

bn2.bias f4 [20]
000000 bf 87 d3 bc 36 b3 d3 3c 29 5b 19 bc 71 b0 26 3c
       -0.025821565 0.02584229 -0.009360113 0.010173903
000010 ff f6 1b 3b d1 23 6a ba 53 7c 44 3c 56 d2 1e bb
       0.0023798344 -0.00089317287 0.011992532 -0.0024234257
000020 12 be ac 3c a9 90 31 bc 28 0f 5b 3c 29 a0 87 bc
       0.021086726 -0.010837712 0.013370313 -0.016555863
000030 77 af b0 bb 02 35 1a bc 76 35 aa 3b 75 53 c2 3a
       -0.005392011 -0.009412052 0.0051943613 0.0014825898
000040 a3 4d 84 bb bf eb 17 bd 9d b7 ce 3c 2f 62 43 3b
       -0.0040375753 -0.03709006 0.025234038 0.002981316

bn2.running_mean f4 [20]
000000 0f 11 a1 bb 53 84 5f 3b 87 e3 07 bb 47 d7 14 3b
       -0.0049153636 0.003410597 -0.0020734982 0.0022711323
000010 6c 85 b0 3a a9 7c 4d 3b fb 34 6f 3b 8b b8 bd 39
       0.0013467497 0.003135482 0.0036500085 0.00036186384
000020 f0 6c 3b ba 36 50 66 bb 53 dd b9 3b d8 10 b7 bb
       -0.0007149717 -0.0035143024 0.005672136 -0.0055867247
000030 ef 55 d6 3b 0e 9a 23 ba df 4a 56 3b 00 6e b9 ba
       0.006541006 -0.00062409125 0.0032698435 -0.0014147162
000040 62 7f 83 3b 40 de 17 bb 58 bd 99 b9 7c 42 47 3b
       0.004012988 -0.0023173243 -0.00029323506 0.0030404618

bn2.running_var f4 [20]
000000 1a 87 7f 3f 34 93 1d 3f bf 17 95 3f 4b 2d ed 3f
       0.99815524 0.6155274 1.1647872 1.8529447
000010 9e 4a 9c 3f 9c e5 d7 3f 19 13 e9 3f 94 b0 48 3f
       1.2210271 1.6866946 1.8208953 0.78394437
000020 ca 70 81 3f 01 e1 63 3f f6 89 9c 3f 7f f2 52 3f
       1.0112545 0.89015204 1.2229602 0.8240127
000030 07 50 cb 3f f4 98 f1 3e a3 d7 30 3f ba 50 e5 3f
       1.5883797 0.47187006 0.69079036 1.7915261
000040 50 61 5f 3f 8d ba b4 3f 81 ff 5c 3f 8e f8 2a 3f
       0.8725786 1.4119431 0.8632737 0.66785514

fc.weight f4 [4, 640]
000000 c8 d6 50 3b 82 61 4e 3b 28 89 3e 3b bc e4 1f 3b
       0.00318663 0.0031491225 0.002907345 0.002439781
000010 d4 80 40 3d 75 6d 99 3d 91 63 b0 3c 1b 63 7e 3d
       0.04699786 0.074915804 0.021531852 0.062106233
000020 90 ee 4e 3d fa b3 87 3d 19 1f 00 3d 7f af d5 3c
       0.05052048 0.06626125 0.031279657 0.02608466
000030 51 e4 fd 3c 1e 93 2b bc 3e 40 37 bc d4 ce 19 3c
       0.030992659 -0.010472087 -0.01118475 0.009387691
000040 b0 1f 68 bc 99 b5 b2 bc 44 75 30 3a c0 1f d2 3c
       -0.014167711 -0.021815108 0.0006731341 0.025649905
000050 57 72 f6 3b d9 5b 9c 3c 7d c6 8b 3d 52 26 8b 3b
       0.0075209546 0.019086765 0.06824968 0.0042465115
000060 8b 36 2b 3d 93 50 50 3d ed 09 47 3d 61 81 7d bc
       0.041800063 0.05085809 0.04859345 -0.015472741
000070 f5 64 2b 3b 8b 1e 18 3b 2c 08 fc 3a 45 81 d6 3a
       0.0026152704 0.0023211564 0.001922851 0.001636543
000080 1e 28 0a 3b 9c 30 0b 3b e8 8c 1b 3b 98 2e 23 3b
       0.002108104 0.002123869 0.002373511 0.0024899598
000090 39 61 e5 bc 41 4c 9c 3c d7 7c cc 3d 14 d5 25 3d
       -0.028000461 0.01907933 0.09984749 0.04048641
0000a0 dd bd 81 3d 8e fe 9e 3d 87 8d a3 3c 74 7d 35 3d
       0.06335042 0.07763396 0.019964946 0.044309095
0000b0 75 c5 45 3c 1e 7b a3 3c cd 61 66 3d 63 10 48 3c
       0.012071003 0.019956168 0.056245614 0.012210938
0000c0 c2 20 7a bc 0e f8 32 3d 8f 9d 72 3d 0c ef 02 bc
       -0.015266599 0.043693595 0.05923229 -0.0079915635
0000d0 0a 8a 09 bc bd 1f b1 bc 2e 78 13 bb bc 81 9b 3c
       -0.0083947275 -0.02162158 -0.0022502053 0.01898276
0000e0 dc 37 4d 3d cc 93 48 3c bb b2 f0 3c 8d fe b4 3c
       0.0501021 0.012242269 0.0293821 0.022094036
0000f0 78 50 92 3a b2 48 8c 3a 6e cb a2 3a be c4 ae 3a
       0.0011162898 0.0010702817 0.0012420246 0.001333378
000100 1d 1d 3b 39 43 58 10 3a 9d 69 e7 39 c4 2d 26 3a
       0.00017844555 0.0005506316 0.0004413844 0.0006339217
000110 68 85 0c 3d 76 63 bf 3c 09 e5 71 3c c8 57 41 3d
       0.034306914 0.023362856 0.014764079 0.047202855
000120 4c ff 91 bc 42 8b 3f bb 2b f2 da bc 78 c1 8a bd
       -0.01782193 -0.0029227291 -0.026726803 -0.067751825
000130 eb b0 17 bc 3f 56 9d bd 37 17 17 bd 71 44 b8 bd
       -0.009258489 -0.07682466 -0.036887374 -0.08997429
000140 a5 c6 87 bd a9 fb ca bc 6f e5 d7 3c 53 57 ac bc
       -0.06629685 -0.024778204 0.02635452 -0.021037733
000150 0e 12 76 3c 94 1a 78 3c b4 83 cf 3c 5c 5d 62 3c
       0.015018953 0.0151430555 0.025331356 0.013816204
000160 30 2c f2 3c b6 2e af bc 10 6c e0 bc a4 88 b3 3c
       0.029562086 -0.021384578 -0.027395278 0.021915741
000170 d1 8c af 39 b2 d3 c5 39 91 f8 25 3a 1f be 01 3a
       0.00033483517 0.00037732493 0.000633129 0.000494929
000180 1f 21 a2 39 2a bc a6 39 7f a2 cb 39 1a ab 00 3a
       0.00030923725 0.0003180218 0.00038840246 0.00049083086
000190 51 ed b7 bd f8 4a 15 be fa 48 10 be 66 29 1e be
       -0.089808114 -0.1457938 -0.14090338 -0.1544548
0001a0 1e db 0d be fb fa 05 be bc e9 04 be e2 fc 02 be
       -0.13853118 -0.13084023 -0.12979788 -0.1279178
0001b0 f9 e4 7e bd b0 97 e8 bd 14 ae d7 bd 5f 44 c5 bd
       -0.062230084 -0.11357057 -0.1053125 -0.096321814
0001c0 f3 25 2e bd 6c bd 58 bd 59 f1 c3 ba fa 6a 03 bc
       -0.04251666 -0.05291502 -0.0014949247 -0.008021111
0001d0 3b ed 27 3d f4 7f 34 3d 46 1c bd bc 09 9d a4 bc
       0.040997725 0.044067338 -0.02308477 -0.020094411
0001e0 a1 ee 1c bd d3 ca e2 bc fd 7b d1 bb c2 dd 51 bc
       -0.03831351 -0.027684605 -0.0063929544 -0.012809219
0001f0 82 64 e8 39 0f fc c3 39 5a a6 c9 39 42 a5 e5 39
       0.00044325372 0.00037381097 0.0003846165 0.0004380141
000200 1f 8d e9 35 c8 cf 3b 36 d8 16 2f 36 13 44 47 36
       1.7400924e-06 2.7986116e-06 2.609033e-06 2.9692935e-06
000210 20 5f b5 bd 9d c3 a4 bd ec 5f de bd dd d4 06 be
       -0.08856034 -0.08045123 -0.108581394 -0.13167138
000220 b9 6d d9 bd f1 8c fe bd 8a a6 a9 bd dc 01 ee bd
       -0.10616631 -0.12429226 -0.08283718 -0.116214484
000230 66 6a 8d bd 10 53 b3 bd e9 bf 3e bd 06 64 c1 bc
       -0.069050595 -0.08756077 -0.04656974 -0.023607265
000240 79 81 c0 3c 1e 37 d0 3c 55 57 a3 3c e6 e4 b0 3c
       0.023499237 0.025416907 0.019939104 0.021593522
000250 49 29 cf 3c 04 19 1e 3d 1a 1e 8c 3c 6f 07 51 3d
       0.025288241 0.038598076 0.017104197 0.05103248
000260 43 5b d3 3c 8e 6b 13 3d e1 1e 18 bd 4c 7f 53 bd
       0.025800353 0.035991244 -0.037138823 -0.05163507
000270 92 23 ca 35 1d e0 3c 36 d7 d7 6b 36 15 de 8f 36
       1.5060525e-06 2.8144634e-06 3.5143364e-06 4.287586e-06
000280 78 78 e5 b8 ea 3d 95 b8 13 1b bf 38 b2 8b 71 39
       -0.0001094201 -7.116406e-05 9.112633e-05 0.00023035592
000290 f6 bd e2 3c b2 bd db 3c d7 e8 b0 3d da 13 87 3d
       0.027678471 0.026823852 0.08638161 0.06595583
0002a0 5c e2 40 3d 15 ec 5e 3d 8b 19 40 3d a4 d1 71 3d
       0.047090873 0.054424364 0.04689936 0.05903782
0002b0 18 6a 75 3a 53 ab 11 3d 36 c4 10 bd 42 c7 47 3a
       0.00093618175 0.035563778 -0.03534337 0.0007620939
0002c0 dc c1 52 3d 32 50 10 3c 2c 24 8f bc 86 a5 8f bc
       0.05145441 0.008808183 -0.017473303 -0.017534982
0002d0 81 53 e1 3c b2 ee 0e bd 86 b4 83 bd 13 a8 c2 bc
       0.027505638 -0.034895606 -0.064309165 -0.023761785
0002e0 42 c8 11 3d ad b5 54 3d c6 54 f5 ba 1d b4 40 bc
       0.03559137 0.051931072 -0.0018717281 -0.011761692
0002f0 37 5d dd 36 c8 16 bd 38 ac ef 1c 38 bf bf f9 38
       6.597165e-06 9.0164656e-05 3.741651e-05 0.00011908961
000300 02 85 62 3a 53 61 73 3a 4a 5a 7f 3a f6 bd 95 3a
       0.00086410355 0.0009284217 0.0009740932 0.0011424411
000310 9f 99 df bc 83 97 75 3d 47 13 1e 3c d7 fd d1 3c
       -0.027294932 0.059958946 0.009648151 0.025633736
000320 d1 16 a9 3c 55 97 bf 3c 80 ad 4b 3d ea b3 8b 3d
       0.020640763 0.02338759 0.04972601 0.06821425
000330 55 0d 67 3b dc 5a 1a 3d a0 79 8b 3b ae 1a 2a 3b
       0.003525575 0.037684307 0.004256442 0.0025955844
000340 ad 40 d8 bb 45 1d b3 3c ae 23 b2 bc c7 80 9b 39
       -0.006599507 0.021864543 -0.021745529 0.0002965985
000350 dd 75 31 bc 72 79 6c 3c 29 c4 55 bd ca 9c 08 bd
       -0.010831323 0.014433252 -0.052189026 -0.03335265
000360 57 dd 5b 3c ca e5 52 3d 02 9d 33 bd 3d cc 37 bd
       0.013419471 0.051488675 -0.043850906 -0.04487251
000370 e0 8d d4 39 6e a8 5b 3a bd 9c 65 3a 7b 8f 9b 3a
       0.00040541496 0.0008379285 0.00087590126 0.0011868322
000380 af fe e0 37 f7 d0 2e 38 bd 5b 30 38 8c 89 41 38
       2.6821477e-05 4.1679446e-05 4.2047108e-05 4.6142886e-05
000390 cd 5f ad bc 3c 70 d0 b9 61 4e 3a bc 80 51 b3 3c
       -0.021163845 -0.00039756473 -0.011371226 0.021889448
0003a0 ca db 43 3d 04 36 a3 bc 94 8d a9 bc 32 23 3f bd
       0.04781703 -0.019923218 -0.020697393 -0.046664424
0003b0 59 cc 59 bd 4a 38 58 bc f9 88 b7 bc 02 0e b5 bc
       -0.053173397 -0.013197014 -0.02240418 -0.022101406
0003c0 e4 96 bd bc 06 0b 52 bd 08 95 04 3c c3 52 6e bb
       -0.02314324 -0.051280044 0.008092172 -0.0036365248
0003d0 77 1f fd 3c f8 76 ba 3c 06 74 9a bc 67 81 f9 3b
       0.030898793 0.022761807 -0.018854152 0.007614303
0003e0 64 a8 f9 bc 06 00 96 3b a3 ee b8 bc ae 02 0d bd
       -0.030475803 0.0045776395 -0.022574728 -0.034426384
0003f0 74 57 c2 37 55 fb 1c 38 72 a2 4e 38 7a 49 49 38
       2.3167326e-05 3.742737e-05 4.9265516e-05 4.7990565e-05

fc.bias f4 [4]
000000 78 48 16 3d 80 57 ff bb 08 40 26 3d a7 18 6a bd
       0.036690205 -0.0077924132 0.04058841 -0.057152417
