lab2_src/model_weights/sccnet_FT_model.pth (torch, 66694 bytes, 14 tensors)

conv1.weight f4 [44, 1, 22, 2]
-0.024806619 -0.08724264 -0.109311044 -0.10650815 0.0903313 -0.030384533 -0.13094066 -0.09123473
-0.011718508 0.16544805 0.06052436 0.11544637 -0.06433438 -0.10728723 -0.02890827 -0.12235623
0.05709546 0.13304678 -0.11268208 -0.0019578827 0.11883767 -0.03294201 -0.13275702 0.12092452
-0.10601342 -0.094250806 0.08889336 0.079389766 -0.01888105 0.099384636 0.009303347 -0.093649246
-0.037901334 -0.056908254 0.027736606 0.036444042 -0.108618625 -0.0075605363 0.11886941 0.07304605
0.16377194 -0.08301185 0.12879649 -0.05026705 -0.046916746 0.031563632 -0.015839688 0.09401139
0.1933519 0.12543891 -0.008509877 0.019926688 0.030314099 -0.1561311 -0.050862886 -0.06436747
-0.149032 -0.011371451 0.101058446 -0.09310049 -0.017669529 -0.000753205 -0.08335036 -0.048397463
-0.11340705 -0.059063468 0.05676886 0.027980914 0.11009614 0.051956393 -0.103460744 -0.054129526
0.10074796 0.099059224 0.013982067 -0.09367717 -0.044239335 0.09690001 -0.061871413 0.07495367
0.07695641 0.11268176 0.124855645 -0.008934273 -0.12519732 -0.12182421 -0.001599076 0.0022559601
-0.030407272 0.07555848 0.11334752 -0.18412325 -0.16844724 0.066435546 0.07036983 0.045157768
-0.12498655 0.035899423 0.023595829 -0.12029789 0.034950614 0.05229634 0.10616881 0.20405684
-0.077980794 -0.051366195 -0.09010427 -0.050519466 0.10406556 -0.12627028 -0.08145296 -0.017094497
-0.09539913 0.049092032 0.10204298 0.11252196 0.0044609974 0.14264406 0.17274915 0.06587555
0.12640187 0.109327756 0.031624038 -0.0011639553 -0.00999229 -0.016667439 0.09650791 -0.013293286
0.09607712 0.02283796 0.104930334 0.09533212 -0.045461927 0.16620882 -0.09696905 0.10441729
0.034740623 -0.09737668 -0.026500273 -0.16337816 0.036193065 -0.061743785 -0.086184934 -0.12178967
0.015202906 0.024082927 -0.08927332 -0.02761799 -0.04077622 -0.0015308866 0.14289828 0.087999865
0.15986627 0.09103829 -0.012775129 -0.00057792134 0.06788725 -0.12230807 0.16431755 0.14465566
0.018014446 0.0325914 -0.08335984 -0.09812585 0.12497838 0.12950425 -0.07712274 0.011250894
-0.09541151 0.03461108 -0.04957942 -0.15129152 0.011521196 0.054425243 -0.08926065 -0.061928403
-0.06988638 -0.09736998 -0.12936252 -0.036000986 -0.017421106 -0.043497212 -0.05627943 0.051629473
-0.10756581 0.056454174 0.12871589 0.056983154 -0.13013446 0.024994455 0.18549979 0.056943234
0.017405398 0.12641455 0.12838933 0.08460518 -0.084652476 -0.07437344 0.08774171 0.031051574
0.027241124 -0.13534993 -0.05334805 0.01595125 0.07417508 0.1299047 0.02567358 0.07868991
-0.04980911 -0.07761216 0.16216369 0.17091559 -0.0071574477 -0.11388061 0.0005782307 0.05184974
-0.11126322 -0.123814784 -0.06404472 -0.06834559 0.12467484 0.010568047 0.11601699 0.09090837
-0.062564954 0.07021666 -0.102214925 0.012339792 -0.07960743 -0.09622714 -0.09563239 -0.10025369
0.038198877 0.07029003 -0.08171414 -0.1215194 0.118735045 0.04311158 -0.012141933 -0.073780894
0.054852292 -0.11503821 -0.015631106 0.010941387 0.07199073 0.015569127 -0.16216445 -0.050049674
-0.08263659 -0.103935674 0.15012461 0.049089577 0.05443063 0.067142025 -0.04082081 0.074059844
00000000: 4037 cbbc 45ac b2bd 78de dfbd f220 dabd
00000010: 9eff b83d fce8 f8bc 4f15 06be 46d9 babd
00000020: fcfe 3fbc 376b 293e 64e8 773d 256f ec3d
00000030: bec1 83bd 68b9 dbbd 09d1 ecbc e795 fabd
00000040: eedc 693d 6a3d 083e ddc5 e6bd d24f 00bb
00000050: 2a61 f33d 33ee 06bd 75f1 07be 46a7 f73d
00000060: 901d d9bd 9106 c1bd b90d b63d 1a97 a23d
00000070: 6fac 9abc 2c8a cb3d 116d 183c 2dcb bfbd
00000080: 6e3e 1bbd a118 69bd e137 e33c 5946 153d
00000090: 7173 debd 60be f7bb ce71 f33d 2b99 953d
000000a0: d5b3 273e 1e02 aabd 3ae3 033e d2e4 4dbd
000000b0: c62b 40bd de48 013d 3cc2 81bc 0b89 c03d
000000c0: 0afe 453e 0f73 003e 036d 0bbc 4b3d a33c
000000d0: 4655 f83c d5e0 1fbe 9a55 50bd 18d3 83bd
000000e0: d89b 18be 534f 3abc bbf7 ce3d 78ab bebd
000000f0: b0bf 90bc bb72 45ba 98b3 aabd 6b3c 46bd
00000100: f541 e8bd 89ec 71bd 7786 683d 3b38 e53c
00000110: 167a e13d 3ad0 543d 3ae3 d3bd ecb6 5dbd
00000120: f254 ce3d 90df ca3d 0a15 653c d1d9 bfbd
00000130: 4e34 35bd 8373 c63d e16c 7dbd 4f81 993d
00000140: 539b 9d3d b2c5 e63d 51b4 ff3d 0f61 12bc
00000150: ba33 00be f97e f9bd 1698 d1ba bbd8 133b
00000160: ac18 f9bc 68be 9a3d bf22 e83d ce8a 3cbe
00000170: 6f7d 2cbe 5c0f 883d 0f1e 903d 5af7 383d
00000180: f3f8 ffbd 460b 133d 0a4c c13c bd5e f6bd
00000190: 6028 0f3d b034 563d 086f d93d 47f4 503e
000001a0: 65b4 9fbd 5c65 52bd 9688 b8bd 80ed 4ebd
000001b0: 5320 d53d ff4c 01be cfd0 a6bd c209 8cbc
000001c0: 9e60 c3bd ba14 493d e9fb d03d ea71 e63d
000001d0: 8f2d 923b 4911 123e 27e5 303e c3e9 863d
000001e0: 7e6f 013e 3be7 df3d 3588 013d dc8f 98ba
000001f0: b4b6 23bc 278a 88bc f0a5 c53d 15cc 59bc
00000200: 15c4 c43d ac16 bb3c b7e5 d63d 7d3d c33d
00000210: 4936 3abd a532 2a3e b697 c6bd bbd8 d53d
00000220: 2f4c 0e3d 6d6d c7bd 1a17 d9bc 9b4c 27be
00000230: 2e3f 143d 0de7 7cbd ba81 b0bd dd6c f9bd
00000240: 9c15 793c 8f49 c53c eed4 b6bd 1f3f e2bc
00000250: f704 27bd 08a8 c8ba ed53 123e 4639 b43d
00000260: fcb3 233e 4872 ba3d c64e 51bc a57f 17ba
00000270: 7808 8b3d a77c fabd dc42 283e 9d20 143e
00000280: 0893 933c 8f7e 053d 90b8 aabd 35f6 c8bd
00000290: aaf4 ff3d c39c 043e 87f2 9dbd ab55 383c
000002a0: 1c67 c3bd 59c4 0d3d ca13 4bbd 2aec 1abe
000002b0: 66c3 3c3c 01ed 5e3d 4ace b6bd a3a8 7dbd
000002c0: 9720 8fbd e969 c7bd 9c77 04be c575 13bd
000002d0: b5b6 8ebc 222a 32bd 4285 66bd 6d79 533d
000002e0: 774b dcbd 7e3c 673d 19ce 033e 2b67 693d
000002f0: f841 05be 2cc1 cc3c a8f3 3d3e 4f3d 693d
00000300: c495 8e3c d172 013e 7e78 033e 7b45 ad3d
00000310: 475e adbd 1a51 98bd edb1 b33d df5f fe3c
00000320: c728 df3c 2c99 0abe 7c83 5abd 32ac 823c
00000330: 1be9 973d bd05 053e 6651 d23c 2d28 a13d
00000340: a304 4cbd 20f3 9ebd 3d0e 263e 7f04 2f3e
00000350: 0689 eabb 3d3a e9bd 6894 173a 6560 543d
00000360: f9dd e3bd 9b92 fdbd e129 83bd c6f8 8bbd
00000370: 8655 ff3d 9a25 2d3c 519a ed3d 2b2e ba3d
00000380: 0e22 80bd c1cd 8f3d 0f56 d1bd d72c 4a3c
00000390: 3809 a3bd bc12 c5bd eada c3bd ce51 cdbd
000003a0: 6d76 1c3d 38f4 8f3d be59 a7bd 2adf f8bd
000003b0: 5c2b f33d c595 303d f5ee 46bc 701a 97bd
000003c0: ccac 603d 2799 ebbd ce0c 80bc 8143 333c
000003d0: e06f 933d a715 7f3c 700e 26be e300 4dbd
000003e0: 5f3d a9bd 3adc d4bd 44ba 193e 2712 493d
000003f0: a7f2 5e3d c281 893d b933 27bd b0ac 973d

conv1.bias f4 [44]
3.2310747e-06 1.5909214e-05 5.061601e-06 2.5610987e-05 3.2232774e-06 2.8435818e-07 -2.1769317e-06 9.815361e-07
1.1176949e-06 -1.0078572e-05 -4.2053666e-06 3.4504328e-06 2.9316252e-06 -3.086506e-06 -4.038144e-06 3.033783e-06
-6.518157e-06 -1.5852009e-05 1.7808499e-06 -4.955669e-06 7.7583195e-07 5.267094e-07 -3.4176117e-06 -1.9755918e-05
-2.4258995e-06 2.1192378e-05 -3.8829107e-06 1.1740464e-05 -2.0396665e-06 6.5787813e-06 3.3514239e-06 -7.7819186e-07
-4.208478e-06 3.378636e-06 8.881822e-06 -4.091329e-06 2.611605e-06 4.712016e-07 -6.7699375e-06 2.2137306e-06
1.3202223e-06 -1.5432157e-05 8.994804e-06 -8.355522e-06
00000000: 71d5 5836 c774 8537 d2d6 a936 2dd7 d637
00000010: 7c4f 5836 e4a9 9834 6717 12b6 53bd 8335
00000020: b403 9635 2317 29b7 d31b 8db6 fc8d 6736
00000030: f0bc 4436 c521 4fb6 657f 87b6 ff97 4b36
00000040: 8bb6 dab6 eef9 84b7 8905 ef35 df48 a6b6
00000050: c442 5035 3263 0d35 1f5a 65b6 83b9 a5b7
00000060: a3cc 22b6 49c6 b137 f349 82b6 e9f8 4437
00000070: 34e1 08b6 4dbf dc36 06e9 6036 f0e4 50b5
00000080: 8d36 8db6 86bc 6236 2303 1537 4048 89b6
00000090: 0843 2f36 74f9 fc34 5229 e3b6 9a8f 1436
000000a0: 7e32 b135 4e74 81b7 64e8 1637 b22e 0cb7

bn1.weight f4 [44]
0.90309125 1.1208702 0.9105279 1.0229017 0.9922404 0.97007394 0.9094853 0.96939796
0.9134525 0.99604625 1.0458275 0.9451607 1.0563854 0.94459414 0.94265366 0.9899584
1.0532256 0.96873087 0.89453846 0.9091578 0.97482693 0.9794706 0.92312264 1.0186348
1.022093 1.0242087 1.1302232 1.0225462 0.90882164 1.0762529 0.89689493 0.96927893
1.015613 0.9885884 1.0830193 1.0122589 0.9831666 0.9983858 0.89076483 0.9117753
0.87101614 0.92238456 0.96297634 1.0617341
00000000: fd30 673f ad78 8f3f 5b18 693f 71ee 823f
00000010: 7803 7e3f c456 783f 07d4 683f 772a 783f
00000020: 06d8 693f e3fc 7e3f addd 853f 0df6 713f
00000030: a337 873f ecd0 713f c051 713f ea6d 7d3f
00000040: 19d0 863f bffe 773f 7900 653f 91be 683f
00000050: 428e 793f 96be 7a3f c451 6c3f a062 823f
00000060: f2d3 823f 4519 833f 27ab 903f cbe2 823f
00000070: 89a8 683f a8c2 893f e89a 653f aa22 783f
00000080: 9bff 813f 2114 7d3f 60a0 8a3f b391 813f
00000090: ceb0 7b3f 3696 7f3f 2a09 643f 1b6a 693f
000000a0: eafa 5e3f 6521 6c3f 9e85 763f e7e6 873f

bn1.bias f4 [44]
-0.00726417 0.010288187 0.007791785 0.013443506 -0.0071674963 -0.0030483492 0.010593359 -0.005157812
-0.014224396 0.008809863 -0.0036580898 0.0052772686 -0.013952279 0.0034929218 0.012459953 -0.018023979
0.00694628 0.02363329 -0.0019607518 -0.0115380585 -0.0067170523 -0.011953316 -0.005387708 0.010793389
0.0037576356 -0.013581601 -0.015003972 -4.2600954e-05 -0.022524923 0.004301786 -0.005204819 0.00907643
0.00017880736 -0.0040235035 0.029780898 0.008719957 0.0065042065 -0.0031979384 0.0081981905 -0.006782305
0.0010559525 -0.015937513 -0.014506249 -0.021559605
00000000: 4608 eebb c98f 283c 3b52 ff3b 2742 5c3c
00000010: 51dd eabb d0c6 47bb c58f 2d3c dd02 a9bb
00000020: 710d 69bc 3e57 103c 90bc 6fbb f0ec ac3b
00000030: 1a98 64bc 81e9 643b d524 4c3c 06a7 93bc
00000040: 9f9d e33b 9a9a c13c f57f 00bb 200a 3dbc
00000050: b81a dcbb d7d7 43bc 5f8b b0bb c1d6 303c
00000060: aa42 763b 5d85 5ebc 38d3 75bc 6dae 32b8
00000070: 3086 b8bc fff5 8c3b 308d aabb 4fb5 143c
00000080: 3c7e 3b39 98d7 83bb 12f7 f33c 27de 0e3c
00000090: 3d21 d53b 8194 51bb b451 063c 193e debb
000000a0: e367 8a3a 638f 82bc 9eab 6dbc c59d b0bc

bn1.running_mean f4 [44]
-0.00010030433 6.350136e-06 0.00023357407 -4.9147013e-05 -9.9537065e-06 -0.00019331725 -5.680039e-05 -8.1728285e-05
6.6900657e-06 0.0003111828 -4.668527e-05 0.00014164654 -2.3410043e-05 7.601982e-05 5.712125e-05 -8.6784974e-05
2.1947026e-05 -0.00018717513 9.252371e-05 8.274183e-05 -0.00014075232 9.4642855e-05 5.8170044e-05 -5.7696805e-05
0.000105571504 2.937319e-05 0.00012990973 0.00024114619 0.000118003656 8.838504e-05 0.00025102412 0.00027951467
0.00011506932 0.00018261398 0.00019896898 9.025156e-06 0.00037902105 -1.0546219e-06 -0.00021077033 0.00031939708
0.0006432918 1.7325227e-05 0.0002351399 -5.4386837e-05
00000000: 7a5a d2b8 4113 d536 90eb 7439 3423 4eb8
00000010: d8fe 26b7 34b5 4ab9 f43c 6eb8 8a65 abb8
00000020: 3a7b e036 4026 a339 edcf 43b8 f486 1439
00000030: af60 c4b7 d56c 9f38 7a95 6f38 5400 b6b8
00000040: e11a b837 7144 44b9 4a09 c238 af85 ad38
00000050: ea96 13b9 ff7a c638 9cfb 7338 79ff 71b8
00000060: 4566 dd38 7266 f637 6138 0839 30dc 7c39
00000070: bb78 f738 5b5b b938 e39b 8339 d38b 9239
00000080: 5f51 f138 117c 3f39 54a2 5039 c06a 1737
00000090: 58b7 c639 888c 8db5 3b02 5db9 c074 a739
000000a0: 95a2 283a a455 9137 e38f 7639 6c1d 64b8

bn1.running_var f4 [44]
0.11764688 0.016339265 0.8663485 0.039082635 0.090011634 0.17630073 0.1203059 0.056333654
0.15254447 0.04551579 0.020773679 0.04061723 0.13401271 0.111575186 0.17804232 0.028954184
0.022398492 0.019727184 0.16820268 0.16642421 0.13722748 0.06866691 0.09254299 0.16098022
0.023305587 0.040101483 0.026345408 0.07679892 0.24312848 0.022006236 0.4325394 0.044446394
0.08254015 0.19546857 0.024087947 0.09568407 0.15782574 0.059602715 0.29207358 0.096279316
1.3162967 0.0631037 0.071243964 0.019277953
00000000: d9f0 f03d ecd9 853c 04c9 5d3f 1d15 203d
00000010: 0558 b83d 2e88 343e f162 f63d 1ebe 663d
00000020: 9e34 1c3e c46e 3a3d 902d aa3c 415e 263d
00000030: a13a 093e 8881 e43d ba50 363e 5331 ed3c
00000040: 0b7d b73c e79a a13c 533d 2c3e 1c6b 2a3e
00000050: 5c85 0c3e 3da1 8c3d 2e87 bd3d 00d8 243e
00000060: 5ceb be3c 7441 243d 53d2 d73c c148 9d3d
00000070: acf6 783e 6c46 b43c ce75 dd3e 6c0d 363d
00000080: cf0a a93d ea28 483e 1654 c53c 02f6 c33d
00000090: 129d 213e fa21 743d ab8a 953e 172e c53d
000000a0: 697c a83f 833c 813d 5be8 913d ccec 9d3c

conv2.weight f4 [20, 44, 1, 12]
-0.005910454 -0.008488936 0.032974232 -0.0005802545 -0.041253105 -0.012093105 -0.02676736 0.006451028
0.05323256 -0.020118093 -0.044216234 0.045263555 -0.06218496 -0.045436513 -0.0048311576 0.035555437
-0.044565067 -0.05125852 -0.036132805 -0.03751453 0.014724506 0.06259137 -0.035624832 -0.055463545
0.037955772 -0.020618258 -0.05108533 0.009246855 0.010601756 0.033299185 0.032620195 0.022251833
-0.029273538 0.029958121 0.006022708 0.043605447 -0.014796377 0.022914734 0.037825007 0.020101257
0.021857316 -0.0066792243 -0.017713817 0.014656722 0.04950628 0.020804713 -0.037517175 -0.07261026
-0.048238844 -0.035075173 -0.03801334 -0.018252678 0.030328201 -0.042273942 -0.07801656 -0.044849843
0.05482314 0.087454304 -0.004170286 -0.081889085 -0.008197467 0.032669365 0.034569565 -0.004928807
0.004970951 0.017411519 -0.015444267 -0.00298298 -0.043685157 -0.055260498 -0.019082148 0.02966907
0.06681178 0.039943907 0.02667121 0.030787427 0.03908802 -0.026151624 0.028681714 0.014916493
-0.037617058 0.015734306 0.025155341 -0.008204753 -0.011750093 0.054277994 0.010746636 -0.011122898
-0.031425852 0.018945793 -0.012362643 0.047884777 0.0080725085 0.009914415 -0.05975325 -0.057748638
0.01615113 -0.008432095 -0.017212 -0.044003204 0.036351193 -0.003156363 -0.003672326 0.019003972
-0.031673603 0.029717015 0.052581474 0.011071828 0.017537566 0.05823199 0.0036738445 0.006868966
-0.043272745 0.0051341834 -0.011012552 0.029230753 0.0121413525 -0.010197255 0.041529674 0.054325074
0.009180754 -0.015770914 0.032414116 0.04878709 -0.0072800713 -0.008747153 -0.009753649 -0.027826242
0.019348463 0.010711881 -0.034955457 -0.069003336 0.014987269 -0.022196954 -0.027818196 -0.055796083
-0.017267697 0.06359745 -0.014165714 -0.008788376 -0.027156224 0.0037013816 0.008306023 -0.0002231872
0.048414133 0.026846642 -0.018777803 -0.080023505 -0.010307927 -0.008412774 0.0651258 0.023373986
-0.0141801 -0.02005702 0.020418676 0.06267215 0.048346985 -0.015628012 -0.018057538 -0.06210894
-0.03460449 -0.002115651 -0.009098536 0.0033176583 -0.022815078 -0.038460635 -0.021676484 -0.012773313
0.055894434 0.004144755 0.009889192 -0.008295394 -0.0056394557 -0.016471352 -0.034211695 -0.04603298
-0.0037627437 0.0066896067 0.055152174 0.07314688 0.04364958 -0.00031559457 0.04925317 0.00416055
0.03678196 -0.02278583 0.021011194 -0.010000442 0.012852727 0.0097135445 0.002772257 0.015801199
-0.008764472 0.008754085 0.01818789 -0.035816506 0.00903319 -0.030903844 0.034619235 0.03265023
-0.02538334 -0.037128095 0.0062622274 0.050507896 0.043112814 0.016068488 0.050057415 0.028198462
-0.040015332 0.041832324 -0.0075491373 0.03026 -0.01306835 0.0011944796 0.030368019 -0.045002613
0.008253998 0.06375312 0.03040808 -0.0018532698 0.02187012 -0.015162424 -0.05422206 0.00923522
0.045580085 -0.0019539264 -0.037605077 -0.025144298 0.023756787 0.0038114968 -0.006463882 -0.00055560615
0.03824085 0.00828524 0.024100855 -0.06376682 0.013395099 0.008776974 0.010636582 -0.031492505
-0.004855948 0.056727912 0.020484805 0.021041505 -0.06274955 -0.026569113 -0.024943061 0.016341725
-0.028684324 -0.020357395 -0.020591626 0.028797569 -0.02760633 0.0037239962 -0.022521567 0.018750465
00000000: 7bac c1bb 2e15 0bbc fd0f 073d 381c 18ba
00000010: 04f9 28bd 2922 46bc 3947 dbbc 2563 d33b
00000020: 630a 5a3d b3ce a4bc 151c 35bd 4766 393d
00000030: a8b5 7ebd a31b 3abd b04e 9ebb 94a2 113d
00000040: dc89 36bd 74f4 51bd feff 13bd d6a8 19bd
00000050: 0e3f 713c e72f 803d 58eb 11bd be2d 63bd
00000060: 8377 1b3d 9fe7 a8bc da3e 51bd 1f80 173c
00000070: fdb2 2d3c ba64 083d c19c 053d 7a49 b63c
00000080: 0fcf efbc bc6a f53c 235a c53b a09b 323d
00000090: 816c 72bc aeb7 bb3c 65ee 1a3d 64ab a43c
000000a0: 1d0e b33c 65dd dabb 911c 91bc bf22 703c
000000b0: 19c7 4a3d a56e aa3c 9cab 19bd b0b4 94bd
000000c0: 1896 45bd fcaa 0fbd e0b3 1bbd a486 95bc
000000d0: d972 f83c 7127 2dbd 25c7 9fbd 78b4 37bd
000000e0: 3b8e 603d 3e1b b33d e5a6 88bb 77b5 a7bd
000000f0: ab4e 06bc 50d0 053d d198 0d3d d481 a1bb
00000100: 5ce3 a23b 9aa2 8e3c f309 7dbc 1a7e 43bb
00000110: 35ef 32bd d558 62bd 2a52 9cbc 8d0c f33c
00000120: 9dd4 883d 399c 233d 957d da3c ea35 fc3c
00000130: c21a 203d ee3b d6bc eaf5 ea3c 4e64 743c
00000140: 5814 1abd 3be5 803c 9312 ce3c 3a6d 06bc
00000150: 7683 40bc 9a52 5e3d a912 303c d13c 36bc
00000160: 65b8 00bd 3534 9b3c af8c 4abc d422 443d
00000170: 8e42 043c 1270 223c d3bf 74bd d689 6cbd
00000180: 604f 843c c526 0abc 2e00 8dbc b43c 34bd
00000190: fde4 143d fcda 4ebb 68ab 70bb 38ae 9b3c
000001a0: 2ebc 01bd 1971 f33c ac5f 573d 9d66 353c
000001b0: f1aa 8f3c ab84 6e3d e2c4 703b 1015 e13b
000001c0: c33e 31bd a73c a83b fe6d 34bc 5575 ef3c
000001d0: 86ec 463c 6312 27bc 051b 2a3d f883 5e3d
000001e0: e06a 163c 0132 81bc aac4 043d f9d4 473d
000001f0: aa8d eebb 3850 0fbc c5cd 1fbc dcf3 e3bc
00000200: ab80 9e3c e380 2f3c 742d 0fbd 9f51 8dbd
00000210: 2a8d 753c 63d6 b5bc fce2 e3bc 6f8a 64bd
00000220: fc74 8dbc 613f 823d 5017 68bc 1ffd 0fbc
00000230: bb76 debc e192 723b fc15 083c 5c07 6ab9
00000240: e64d 463d 7ded db3c e8d3 99bc 5de3 a3bd
00000250: 94e2 28bc bbd5 09bc ad60 853d cd7a bf3c
00000260: a653 68bc 9f4e a4bc 1145 a73c 425a 803d
00000270: 7d07 463d 5106 80bc 67ed 93bc f265 7ebd
00000280: 70bd 0dbd bca6 0abb 0712 15bc 126d 593b
00000290: b0e6 babc e688 1dbd e292 b1bc 2847 51bc
000002a0: 90f1 643d bad0 873b 4706 223c 67e9 07bc
000002b0: 2fcb b8bb eeee 86bc 9021 0cbd 148d 3cbd
000002c0: 5d98 76bb 7d34 db3b 3fe7 613d 08ce 953d
000002d0: e7c9 323d 6376 a5b9 b1bd 493d 3955 883b
000002e0: aea8 163d 59a9 babc ab1f ac3c e5d8 23bc
000002f0: 3f94 523c 8f25 1f3c c1ae 353b 8471 813c
00000300: dc98 0fbc 4b6d 0f3c c5fe 943c 54b4 12bd
00000310: f2ff 133c 0f2a fdbc e6cc 0d3d 3fbc 053d
00000320: b9f0 cfbc a113 18bd 5f33 cd3b 5ee1 4e3d
00000330: 1097 303d 10a2 833c 0109 4d3d 7600 e73c
00000340: 1ee7 23bd 5f58 2b3d c15e f7bb d2e3 f73c
00000350: a21c 56bc 1690 9c3a 5ac6 f83c a954 38bd
00000360: c73b 073c ff90 823d 5e1a f93c 6ae9 f2ba
00000370: f728 b33c d16b 78bc f317 5ebd 524f 173c
00000380: 2fb2 3a3d 720d 00bb c807 1abd 6afb cdbc
00000390: 989d c23c 4eca 793b f9ce d3bb 19a6 11ba
000003a0: 70a2 1c3d d1be 073c 286f c53c 2e98 82bd
000003b0: 1e77 5b3c 4ccd 0f3c 0f45 2e3c 49fe 00bd
000003c0: a51e 9fbb 875b 683d c0cf a73c 3c5f ac3c
000003d0: d682 80bd 78a7 d9bc 6455 ccbc 15df 853c
000003e0: 63fb eabc 8dc4 a6bc c5af a8bc e1e8 eb3c
000003f0: ac26 e2bc 4a0e 743b 267f b8bc 939a 993c

conv2.bias f4 [20]
2.5990005e-06 4.069389e-06 3.0172544e-08 -9.034962e-06 1.0847476e-05 -1.0749619e-06 -3.104778e-06 -1.2373554e-05
3.8295516e-06 1.4971242e-06 1.3587863e-05 -4.5570578e-06 -4.2516185e-06 1.8618648e-06 4.8774023e-06 7.7203106e-07
2.2849658e-06 3.84437e-06 -6.8956697e-06 6.407635e-06
00000000: 7d6a 2e36 c98b 8836 1097 0133 de94 17b7
00000010: 8efd 3537 6947 90b5 ae5b 50b6 0298 4fb7
00000020: 997f 8036 ccf0 c835 6df7 6337 d4e8 98b6
00000030: 20a9 8eb6 30e5 f935 91a8 a336 923d 4f35
00000040: 6a57 1936 e3fe 8036 5a61 e7b6 2a01 d736

bn2.weight f4 [20]
1.0894943 1.0988677 1.0998559 1.0994658 1.0793749 1.1804967 1.2450352 1.0752591
1.1422565 1.0698519 1.0839752 1.2405853 1.1702296 1.2026592 1.0883764 1.1046146
1.1593828 1.107257 1.1013057 1.0873384
00000000: 8d74 8b3f b2a7 8c3f 14c8 8c3f 4cbb 8c3f
00000010: f528 8a3f 841a 973f 505d 9f3f 17a2 893f
00000020: 7635 923f e8f0 883f b3bf 8a3f 80cb 9e3f
00000030: 15ca 953f bdf0 993f eb4f 8b3f 0364 8d3f
00000040: a866 943f 99ba 8d3f 96f7 8c3f e82d 8b3f

bn2.bias f4 [20]
-0.015680054 0.029099919 -0.013786245 0.024230216 -0.0060315514 0.002774782 0.008606704 0.029500227
0.023759412 2.4752415e-05 -0.017564356 -0.009855119 -0.0066941786 0.008347378 0.02003727 -0.020889146
-0.015705874 0.00486394 9.748908e-05 0.0029377474
00000000: 7573 80bc f462 ee3c b4df 61bc 727e c63c
00000010: 52a4 c5bb 1ed9 353b 2203 0d3c 76aa f13c
00000020: 19a3 c23c 68a3 cf37 20e3 8fbc 5d77 21bc
00000030: d75a dbbb 71c3 083c 3325 a43c b71f abbc
00000040: 9ba9 80bc b061 9f3b 0d73 cc38 3987 403b

bn2.running_mean f4 [20]
0.0056724953 0.0039837025 -0.008782892 8.657974e-05 -0.0053374753 0.006539311 -0.0066972785 0.0007237715
0.0074392213 0.0033744187 0.00045140076 0.0013013656 0.008357931 -0.0012794306 0.013560161 -0.0032626288
-0.002890625 0.005968653 -0.0039419145 0.0015662303
00000000: 57e0 b93b b889 823b 1ee6 0fbc 2592 b538
00000010: fde5 aebb b747 d63b d874 dbbb 7cbb 3d3a
00000020: b6c4 f33b 5a25 5d3b fca9 ec39 9592 aa3a
00000030: b4ef 083c 91b2 a7ba 702b 5e3c d4d1 55bb
00000040: a470 3dbb b194 c33b 2d2b 81bb f849 cd3a

bn2.running_var f4 [20]
1.1391954 0.5434132 1.283609 0.68098384 1.2249765 1.3060181 1.8652303 0.8286421
1.6459876 1.2030712 0.44578078 1.7182646 0.9234575 2.1135278 0.617029 0.92526
1.6273265 0.9454933 0.70560986 1.004648
00000000: 28d1 913f 211d 0b3f 4d4d a43f f554 2e3f
00000010: 08cc 9c3f 9a2b a73f debf ee3f e321 543f
00000020: b9af d23f 3dfe 993f 613d e43e 18f0 db3f
00000030: b667 6c3f 0a44 0740 9df5 1d3f d7dd 6c3f
00000040: 3c4c d03f d90b 723f d9a2 343f 4e98 803f

fc.weight f4 [4, 640]
0.0031512603 0.002768348 0.0031516324 0.00298062 0.024299467 -0.0076449607 0.03725621 0.03112181
0.039040104 -0.021500068 -0.03655747 -0.014638649 -0.041095026 0.00069025025 -0.046985228 -0.043474913
-0.009415334 4.8144087e-05 -0.0012805434 -0.06441523 -0.008679858 0.0558128 0.03415353 -0.0037273455
0.09576684 0.079039864 0.03430606 0.044722617 0.002733729 0.0026663737 0.0030016897 0.0030834011
0.0026821706 0.0028995562 0.0027806237 0.0024540774 -0.0033376296 0.041810434 0.022400022 0.06755698
0.0791855 0.037790533 0.036396295 0.040548526 0.015999014 0.010827957 -0.020573357 0.03673826
0.024376977 0.043842476 0.039777573 -0.0026738194 0.03451036 0.08450511 0.042233184 0.042096622
0.06484494 0.054200437 0.027912587 -0.028528586 0.0035168894 0.003074784 0.003378974 0.0032900749
0.00046479594 0.00043942232 0.00034141727 0.0003602116 0.01837437 0.040121708 -0.025284816 0.019057643
0.04588147 0.0329074 0.0030973253 0.04864699 0.020386903 0.04985672 -0.019202312 0.02132766
-0.006637458 0.002246288 0.0072474717 -0.036865108 0.0102982065 -0.00858102 0.009417286 0.034178495
0.09626878 0.05366975 0.054496203 -0.03148499 0.00045069936 0.00041211589 0.00047410055 0.00043054458
0.0024205288 0.0023645847 0.0022966303 0.002635709 -0.019403111 0.07852836 0.033049356 0.019635996
0.05633022 0.042538192 0.036821045 0.0110921245 -0.010213987 -0.020642841 0.008381168 0.023905044
0.026309457 0.017977776 0.030939948 -0.0007802971 -0.005717805 0.041153327 0.03484402 0.050915934
0.04245535 0.012810625 -0.027667493 -0.026321739 0.0039270995 0.003961858 0.0035020558 0.0037297104
8.5419815e-06 7.786137e-06 8.0338505e-06 8.020116e-06 -0.0072315456 0.0070260144 0.07602362 0.07170446
-8.608156e-06 -0.0035823057 -0.007890859 -0.02743991 -0.012899395 0.014452365 -0.024227845 0.018305706
0.029722234 0.031108743 -0.032007046 -0.037327435 -0.040371023 0.04160456 -0.01682732 -0.0028721066
0.048632666 0.038134303 -0.03870084 0.00056745025 6.9722605e-06 7.1551403e-06 6.184431e-06 6.392224e-06
0.00016082081 0.00021446962 0.00021356359 0.00021183066 0.004347107 0.06845875 0.037079398 0.0338846
0.029782357 -0.01335803 -0.00095179654 -0.0585755 -0.032119323 -0.005553022 0.028584292 0.014004057
0.04725292 0.030498527 0.047265884 0.007980047 0.04071336 0.020866863 0.068870224 0.05499536
0.0690263 0.05232305 -0.012792928 0.0018380951 0.00017662259 0.0001802753 0.0001823972 0.00024566345
0.0017788883 0.0017345917 0.001503191 0.0018012804 -0.11156083 -0.14180647 -0.1272732 -0.15388837
-0.18072604 -0.15427582 -0.18010253 -0.14063978 -0.17326261 -0.15076295 -0.13393085 -0.083980635
-0.06588485 -0.0016684479 -0.008444833 -0.00335763 -0.010343202 -0.018013244 0.0051015695 0.013170603
0.015536842 0.046445727 0.011480642 -0.034063417 0.0019112808 0.0020091578 0.0019100772 0.0018719127
0.005779731 0.00630094 0.006062911 0.0056900783 -0.013815839 -0.021152092 -0.015680976 -0.052474864
-0.039794803 -0.017947331 -0.070105106 -0.026848197 -0.0013776585 -0.030209007 -0.027898459 0.0068436484
-0.040378377 -0.030561894 -0.003602519 -0.032175288 0.009839168 0.011574368 0.0014251089 -0.031011213
-0.008524324 0.0107572 -0.031923566 -0.052403696 0.006425881 0.0067768805 0.0066818413 0.006661033
00000000: 6085 4e3b 2c6d 353b 9e8b 4e3b 8156 433b
00000010: ad0f c73c 9482 fabb f899 183d 2bf3 fe3c
00000020: 84e8 1f3d e920 b0bc 49bd 15bd f2d6 6fbc
00000030: 4253 28bd e9f1 343a 9573 40bd c012 32bd
00000040: c642 1abc 52ee 4938 e8d7 a7ba 22ec 83bd
00000050: f735 0ebc f69b 643d 92e4 0b3d 7b46 74bb
00000060: 6821 c43d a7df a13d 8384 0c3d 102f 373d
00000070: 5d28 333b 54be 2e3b ffb7 443b e312 4a3b
00000080: 5bc7 2f3b 7b06 3e3b 203b 363b 96d4 203b
00000090: 22bc 5abb 6b41 2b3d 4080 b73c 505b 8a3d
000000a0: 022c a23d 3fca 1a3d 4814 153d 3616 263d
000000b0: 5d10 833c be67 313c 7589 a8bc dc7a 163d
000000c0: 3ab2 c73c 2b94 333d cfed 223d 3f3b 2fbb
000000d0: bc5a 0d3d 0411 ad3d b4fc 2c3d 826d 2c3d
000000e0: 6dcd 843d 4701 5e3d f0a8 e43c c8b4 e9bc
000000f0: 9d7b 663b 5182 493b c771 5d3b 4c9e 573b
00000100: dbaf f339 4462 e639 4000 b339 c8da bc39
00000110: d985 963c a956 243d 1a22 cfbc c61e 9c3c
00000120: 35ee 3b3d e9c9 063d 7ffc 4a3b 1142 473d
00000130: 6f02 a73c 8f36 4c3d 2b4e 9dbc 58b7 ae3c
00000140: 097f d9bb 7536 133b 337c ed3b deff 16bd
00000150: cfb9 283c 6897 0cbc f64a 1a3c c0fe 0b3d
00000160: 9128 c53d d0d4 5b3d 6937 5f3d 68f6 00bd
00000170: d84b ec39 4211 d839 b390 f839 b7ba e139
00000180: bca1 1e3b 26f7 1a3b 1083 163b dcbb 2c3b
00000190: 46f3 9ebc 7ad3 a03d c35e 073d abdb a03c
000001a0: 84ba 663d 873c 2e3d aad1 163d bebb 353c
000001b0: 9158 27bc 2d1b a9bc 2b51 093c 83d4 c33c
000001c0: ee86 d73c 2146 933c c675 fd3c da8c 4cba
000001d0: 6d5c bbbb 6490 283d 9ab8 0e3d 3a8d 503d
000001e0: a9e5 2d3d a8e3 513c f0a6 e2bc b0a0 d7bc
000001f0: e6ae 803b 79d2 813b bf82 653b 286e 743b
00000200: 884f 0f37 34a1 0237 20c9 0637 238e 0637
00000210: 9af6 ecbb 7b3a e63b 46b2 9b3d cad9 923d
00000220: c06b 10b7 1ec5 6abb a948 01bc aac9 e0bc
00000230: fc57 53bc 9dc9 6c3c 7979 c6bc d9f5 953c
00000240: 0b7c f33c c3d7 fe3c d219 03bd a7e4 18bd
00000250: 165c 25bd 8b69 2a3d 73d9 89bc f439 3cbb
00000260: 0c33 473d b732 1c3d c684 1ebd f1c0 143a
00000270: 43f3 e936 3016 f036 dc83 cf36 c97c d636
00000280: 02a2 2839 40e3 6039 0af0 5f39 dc1e 5e39
00000290: 2d72 8e3b 1a34 8c3d 91e0 173d 94ca 0a3d
000002a0: 21fa f33c a3db 5abc fc81 79ba ddec 6fbd
000002b0: 8d8f 03bd 20f6 b5bb 9b29 ea3c 4671 653c
000002c0: 478c 413d 0cd8 f93c df99 413d bebe 023c
000002d0: 0dc3 263d fcf0 aa3c d50b 8d3d d142 613d
000002e0: a95d 8d3d b250 563d 6e99 51bc 3dec f03a
000002f0: c433 3939 4808 3d39 e041 3f39 64cc 8039
00000300: 9629 e93a 3d5b e33a b806 c53a f118 ec3a
00000310: 017a e4bd b735 11be e853 02be ea94 1dbe
00000320: 3f10 39be 7bfa 1dbe cc6c 38be e003 10be
00000330: c16b 31be 9a61 1abe 2b25 09be 0afe abbd
00000340: a3ee 86bd d2af daba 325c 0abc af0b 5cbb
00000350: 8976 29bc 8390 93bc 112b a73b 83c9 573c
00000360: 3d8e 7e3c e03d 3e3d 4d19 3c3c 1586 0bbd
00000370: f183 fa3a 13ac 033b 8e5b fa3a f85a f53a
00000380: e663 bd3b 1e78 ce3b 62ab c63b d673 ba3b
00000390: d45b 62bc 2747 adbc 6475 80bc e2ef 56bd
000003a0: e0ff 22bd 4806 93bc 4493 8fbd c0f0 dbbc
000003b0: 8c92 b4ba e178 f7bc 4f8b e4bc af40 e03b
000003c0: cc63 25bd f05c fabc 3d18 6cbb 3cca 03bd
000003d0: 7634 213c 6ba2 3d3c b8ca ba3a 3a0b febc
000003e0: 9ba9 0bbc f83e 303c 49c2 02bd 42a5 56bd
000003f0: 3290 d23b 9810 de3b 59f3 da3b cb44 da3b

fc.bias f4 [4]
0.019333554 -0.005869956 -0.007898999 -0.0040383013
00000000: 6761 9e3c c358 c0bb ce6a 01bc ba53 84bb
