lab2_src/model_weights/sccnet_SD_model.pth (torch, 120902 bytes, 14 tensors)

conv1.weight f4 [44, 1, 22, 16]
000000 48 d1 b2 bb a3 64 7c bb a9 9a 95 ba 32 b9 f5 3a
       -0.005457077 -0.0038512133 -0.001141389 0.0018747209
000010 fa 40 87 3b 66 61 8f 3b 80 bb 34 3b 3e 82 67 3a
       0.004127619 0.0043756245 0.002757758 0.0008831358
000020 a3 c4 c8 39 9c d1 93 3a 38 0b ce 3a 2e a7 f9 39
       0.00038293478 0.0011277678 0.0015719896 0.0004761754
000030 a5 e4 03 bb 85 2e 9f bb 6e d1 b9 bb 49 76 7b bb
       -0.0020125296 -0.0048578405 -0.005670718 -0.0038370064
000040 57 e6 89 bb be 8f 21 bb 8c 31 4d 39 fa 88 50 3b
       -0.004208367 -0.0024652327 0.00019568781 0.0031819926
000050 82 8d b7 3b fe 6e b8 3b aa d4 6c 3b 53 f3 dc 3a
       0.005601586 0.0056284657 0.00361375 0.0016857184
000060 c9 35 9a 3a a6 f1 d6 3a 29 7d e0 3a 47 c8 2d 3a
       0.0011765297 0.0016398921 0.0017127144 0.000662927
000070 66 2b c9 ba 67 aa 80 bb f3 1f 96 bb b2 71 4d bb
       -0.0015348017 -0.0039265635 -0.0045814454 -0.0031348285
000080 15 97 7a bb 58 25 0f bb 9e ef d4 39 04 3b 4d 3b
       -0.0038237025 -0.0021842327 0.0004061432 0.0031315694
000090 3b c4 a8 3b d4 cc a9 3b 02 39 58 3b b6 3d 75 3a
       0.0051503456 0.005181888 0.0032992964 0.0009355204
0000a0 42 86 2f b9 ee 16 d0 b8 ac ea 5e b8 66 59 79 ba
       -0.00016739315 -9.922484e-05 -5.314748e-05 -0.00095119176
0000b0 ee 4e 51 bb b7 d9 b7 bb 05 f3 cf bb 60 c5 98 bb
       -0.0031937915 -0.0056106704 -0.006346109 -0.004662201
0000c0 6f a6 69 bb cd fc ea ba 79 f4 48 3a 59 ea 5a 3b
       -0.003565218 -0.0017928124 0.0007665824 0.0033403842
0000d0 fe 59 a2 3b 94 25 9a 3b 77 72 29 3b 66 a4 26 b9
       0.0049545756 0.0047041867 0.002585558 -0.00015892237
0000e0 be f4 cd ba b8 21 be ba 28 40 88 ba a5 59 dd ba
       -0.0015713198 -0.0014505899 -0.0010395097 -0.0016887678
0000f0 0f 86 7f bb 81 36 d5 bb 81 b7 f7 bb 84 5a c1 bb
       -0.0038989817 -0.0065067415 -0.007559717 -0.005900683
000100 32 51 3a bb 72 bb af ba 65 9a 77 3a 5d 74 53 3b
       -0.0028429744 -0.0013407303 0.0009445309 0.0032265403
000110 86 83 a2 3b 49 a5 a1 3b 90 38 4c 3b 04 cb 01 3a
       0.0049595265 0.0049330336 0.0031161644 0.0004951211
000120 a9 d1 87 ba cc 2a 5d ba 9e 5f 6b b9 c2 2a 8b ba
       -0.0010362166 -0.0008436858 -0.00022446967 -0.0010617601
000130 7e 04 62 bb e0 93 d2 bb fb 0e fc bb cc c2 c4 bb
       -0.003448754 -0.0064263195 -0.0076922155 -0.006004667
000140 5d 73 35 bb 54 d1 06 bb 9f 44 90 b9 5d 4c e4 3a
       -0.002768717 -0.0020571547 -0.00027516947 0.0017417778
000150 2a f9 54 3b ac 11 69 3b 8a 5d 0d 3b e9 8f a7 38
       0.0032497146 0.0035563512 0.0021570646 7.989986e-05
000160 cb 3d 96 ba 49 95 00 ba fc 13 68 3a 97 50 86 3a
       -0.0011462508 -0.0004905058 0.00088530756 0.0010247406
000170 52 2f 47 ba 41 14 7a bb 6b 87 ba bb 48 1a ae bb
       -0.0007598299 -0.0038159045 -0.0056924126 -0.0053131916
000180 3d 7e 40 bb 4c f9 46 ba cb 4c c0 3a f2 fd 81 3b
       -0.002937212 -0.0007590249 0.0014671324 0.00396704
000190 cc 34 be 3b b1 6c b0 3b 8f 57 20 3b 98 36 0c ba
       0.0058046337 0.005384051 0.0024466251 -0.0005348711
0001a0 f9 d2 aa ba a9 d1 00 ba 1a 14 e8 39 20 c3 57 3a
       -0.0013032845 -0.00049140543 0.00044265465 0.0008230675
0001b0 d6 62 0f 39 37 e5 5a ba 56 14 28 ba 0f 8c 28 3a
       0.00013674362 -0.0008350196 -0.00064117217 0.0006429562
0001c0 3a eb 55 bb 57 19 21 bb a9 b8 12 ba c9 62 f7 3a
       -0.0032641427 -0.0024581754 -0.00055969745 0.0018874045
0001d0 86 b2 85 3b fd 10 91 3b 3a 7d 22 3b f0 b5 0e 3a
       0.0040801195 0.004427074 0.002479388 0.0005443981
0001e0 41 40 f8 38 08 c0 67 3a 40 2e 91 3a 92 cb c0 39
       0.0001183753 0.00088405656 0.0011076406 0.00036772765
0001f0 f7 03 d5 ba d4 89 72 bb 74 37 88 bb a0 c0 43 bb
       -0.0016251792 -0.0037008421 -0.004157001 -0.0029869452
000200 de 55 61 bb 97 56 0b bb 3c 4b 0f 3a 9e d7 6a 3b
       -0.0034383456 -0.0021261328 0.0005466228 0.0035834084
000210 ec 02 bd 3b e2 c3 b8 3b a7 eb 5a 3b a1 d1 27 3a
       0.0057681706 0.0056385854 0.003340462 0.00064017816
000220 c3 a4 2c ba 6b 19 f8 b9 4c aa ce b9 9f d0 98 ba
       -0.00065858307 -0.00047321184 -0.00039418263 -0.0011658854
000230 74 5d 71 bb e1 10 da bb 6a 4e f3 bb 7f 12 b3 bb
       -0.0036829384 -0.006654844 -0.007425119 -0.0054648514
000240 44 a1 14 bb d5 d6 37 ba 2f 63 f7 3a 51 99 9c 3b
       -0.002267913 -0.00070129085 0.0018874164 0.004779019
000250 a8 06 d7 3b bb 95 c9 3b bd 74 53 3b 5e 12 43 38
       0.006562073 0.0061518825 0.0032265626 4.650873e-05
000260 46 47 de ba db 1b cf ba bf 42 c0 ba d7 25 2b bb
       -0.0016958497 -0.0015801148 -0.0014668329 -0.0026115084
000270 c6 26 aa bb f7 b3 04 bc a9 23 16 bc f6 6a f5 bb
       -0.0051926104 -0.008099548 -0.0091637755 -0.0074895574
000280 9f 8b 04 bb 5a 2b 25 ba 0a 04 02 3b 2d a0 98 3b
       -0.0020224822 -0.00063007104 0.0019838833 0.0046577663
000290 4f 3c d2 3b 99 6a c4 3b b8 70 51 3b 70 06 e2 b9
       0.0064158808 0.0059941527 0.0031958055 -0.00043110875
0002a0 d4 fb 1e bb 9a 11 fc ba 5c 08 80 ba 0a ac 95 ba
       -0.0024258988 -0.001923132 -0.0009768116 -0.001141907
0002b0 ab 12 53 bb 6b 04 d2 bb 7a ab 03 bc af 80 eb bb
       -0.0032207172 -0.006409218 -0.008036489 -0.007186971
0002c0 9a b5 14 b9 0f 10 e7 39 37 2d e4 3a 30 90 58 3b
       -0.00014182032 0.00044071718 0.0017408495 0.0033044927
0002d0 dd cb 8c 3b d7 25 80 3b 72 cd c5 3a a2 8d ec ba
       0.0042967633 0.003910761 0.0015091135 -0.0018047581
0002e0 a1 97 54 bb 8f f9 e2 ba a1 f5 1c 3a 41 89 d5 3a
       -0.003243901 -0.0017316806 0.00059875293 0.0016291515
0002f0 63 9f e6 39 84 ee 2c bb f2 86 b0 bb 1c 5e d0 bb
       0.0004398777 -0.0026387284 -0.0053871805 -0.006358875
000300 f6 85 a1 3a eb ef a1 3a 05 24 04 3b 93 7b 4e 3b
       0.0012323249 0.0012354826 0.002016307 0.0031506761
000310 55 0e 58 3b 7b ee 18 3b 1d 19 2c 3a 10 50 88 ba
       0.0032967527 0.0023335505 0.00065650215 -0.0010399837
000320 98 9b 9e ba a5 b0 3b 3a 15 d3 43 3b 00 81 76 3b
       -0.0012100814 0.0007159806 0.0029880453 0.003761351
000330 18 e9 15 3b c5 02 92 ba b1 19 93 bb 9b ff bf bb
       0.002287453 -0.0011139741 -0.0044891466 -0.005859328
000340 1f 5f 1f bb 86 af d5 ba 5a 04 12 3a c8 31 49 3b
       -0.0024318171 -0.001630292 0.00055701064 0.0030699838
000350 d0 83 9a 3b 7a 8c 8b 3b 82 ca c2 3a d7 9d c6 ba
       0.0047154203 0.0042586895 0.0014861377 -0.0015153241
000360 3b 32 21 bb 8e 30 c9 ba 73 2a 87 b9 fe ec b2 38
       -0.002459659 -0.0015349553 -0.00025780834 8.531845e-05
000370 75 d9 59 ba 94 54 21 bb dd f5 3e bb 74 de 10 bb
       -0.00083102967 -0.0024617063 -0.0029138245 -0.0022105249
000380 89 2a 61 bb 0e 6d 21 bb 3d 4a 5c 39 e0 eb 68 3b
       -0.0034357628 -0.0024631652 0.00021008491 0.0035540983
000390 8d 0e c1 3b 8d 96 c1 3b f7 14 73 3b b3 e1 74 3a
       0.005891627 0.0059078396 0.0037091353 0.0009341493
0003a0 25 19 d9 b9 e3 4e af b9 ee 15 02 38 52 e5 5d ba
       -0.000414082 -0.00033437376 3.101484e-05 -0.00084646523
0003b0 05 30 51 bb e8 3f c7 bb 03 c7 dd bb d5 4e a3 bb
       -0.003191949 -0.0060806163 -0.006768109 -0.0049837627
0003c0 04 2d f0 ba 6b fc 54 ba 31 b8 f9 3a 09 92 a3 3b
       -0.0018323963 -0.00081247714 0.0019052086 0.004991774
0003d0 53 82 e6 3b c1 91 d6 3b 2b 9c 66 3b 3c 7e 15 38
       0.007034579 0.006548137 0.0035188298 3.5641933e-05
0003e0 d8 a4 d4 ba a9 73 a8 ba d8 1d 45 ba 7b 20 db ba
       -0.0016223444 -0.0012851852 -0.00075194007 -0.0016718054
0003f0 60 ed 8b bb 28 a3 f2 bb de 35 0d bc bc 66 eb bb
       -0.0042702407 -0.0074047036 -0.0086188 -0.0071838778

conv1.bias f4 [44]
000000 cc 52 95 b1 1f f9 c2 b0 c8 bb b9 36 80 2e 67 b5
       -4.3458837e-09 -1.4186162e-09 5.5352903e-06 -8.612187e-07
000010 12 57 06 33 76 19 44 30 3e 05 8b 31 2d 30 a3 b7
       3.1278496e-08 7.1340567e-10 4.0460284e-09 -1.9453548e-05
000020 3a ee 9a 32 3e 48 84 38 0c 56 09 b3 d0 b8 c4 b0
       1.8036292e-08 6.307707e-05 -3.1976057e-08 -1.4313404e-09
000030 c6 f0 94 38 ae 4d f1 31 8f 60 c9 b8 ff ec 07 b3
       7.1020375e-05 7.0228543e-09 -9.602412e-05 -3.1647684e-08
000040 68 52 8c 31 80 8a 3d 30 ec 5f 42 32 e0 42 55 b7
       4.0839048e-09 6.895462e-10 1.1314096e-08 -1.271136e-05
000050 5d 85 d8 b2 d9 75 db 31 ac 51 21 b1 80 bf de b0
       -2.5206356e-08 6.3871366e-09 -2.3475009e-09 -1.6207053e-09
000060 24 5a 7d b8 7c a5 6b 31 8c 7e e8 31 94 65 6d 31
       -6.040385e-05 3.4291068e-09 6.7664754e-09 3.454578e-09
000070 98 c8 84 b2 fe 7e cf 31 7e d0 09 b1 8a 5a 00 38
       -1.5458042e-08 6.0389302e-09 -2.0054638e-09 3.06019e-05
000080 ae 9f 90 b1 88 b2 2b 38 98 36 7f b7 58 99 e2 b0
       -4.209105e-09 4.0935847e-05 -1.52118955e-05 -1.6487247e-09
000090 7e 18 6b b8 af f5 3e b2 e0 fa 05 2f 98 0c 5f b3
       -5.6051176e-05 -1.11153176e-08 1.2185408e-10 -5.1932687e-08
0000a0 d6 e0 0e b2 04 f4 22 b7 34 01 5f b1 3a 71 09 32
       -8.31661e-09 -9.712767e-06 -3.2451455e-09 8.000194e-09

bn1.weight f4 [44]
000000 c3 05 82 3a f7 86 72 b9 9f 2c ec 3e ad 07 86 3f
       0.000991993 -0.00023129197 0.46127793 1.0471092
000010 7a f8 3b ba 78 cf 2d b9 9d 03 24 39 28 fd a4 3f
       -0.000717051 -0.00016575854 0.00015641605 1.2889757
000020 17 95 52 ba 0e 5f 8a 3f ba 38 15 3a 01 2c 72 3a
       -0.00080330804 1.0810258 0.0005692352 0.00092381245
000030 b5 13 a1 3f 46 3a b6 39 00 d6 97 3f 20 ae 81 ba
       1.2584139 0.00034757162 1.1862183 -0.0009893812
000040 a0 e0 e4 b9 80 b7 11 3b e0 0d 8a ba 57 c1 9d 3f
       -0.00043654907 0.0022234619 -0.00105327 1.2324628
000050 cf 5b b6 ba 7c 5c e5 39 aa c6 15 39 c9 84 38 3a
       -0.0013912859 0.0004374719 0.00014283755 0.00070388295
000060 ab 76 92 3f 26 19 d3 39 3b e9 98 ba 40 10 79 b9
       1.1442465 0.00040263793 -0.0011666188 -0.00023752544
000070 72 41 82 3a 00 24 1b b4 46 46 99 ba 42 17 ba 3f
       0.0009937717 -1.4448597e-07 -0.0011693917 1.4538348
000080 88 45 40 ba c0 e0 b3 3f 20 45 7d 3f 21 96 8b b9
       -0.000733458 1.4052963 0.989336 -0.00026624
000090 8c 58 9e 3f af 72 25 bb 42 de 32 3a 89 8d b0 bb
       1.2370772 -0.0025245359 0.000682328 -0.005387966
0000a0 e2 d1 1d ba 67 7b 98 3f 5c aa 17 3a ff ac 95 3a
       -0.00060203497 1.191266 0.00057855784 0.0011419355

bn1.bias f4 [44]
000000 42 3b d3 bc ed de 53 3b d8 6c cf bc e2 ef cf be
       -0.025785092 0.003232892 -0.025320455 -0.40612704
000010 d8 d8 86 3b 6b 37 a6 3a 53 f8 7c 3b 96 78 8e 3e
       0.0041152053 0.0012681311 0.0038600161 0.27826375
000020 26 6f b7 3a 3e b4 7c 3e db 84 f7 bb 76 65 d4 ba
       0.0013994917 0.24678132 -0.0075536794 -0.0016204554
000030 7f 41 fd 3e bf 81 a5 39 fc ab 1c 3e 5e f6 de 3b
       0.49464032 0.0003156792 0.15299982 0.0068042716
000040 2b 83 06 3c ad cb 00 3c b6 dc 40 3b ef 71 99 be
       0.008209984 0.00786106 0.002942843 -0.29969737
000050 47 4b 8c 3b 27 fc 8c 3b ed 8e 2f bc 30 fd aa 3b
       0.0042814347 0.00430252 -0.0107152285 0.0052181706
000060 69 b4 93 3e 47 6a 4d 3b d5 2e 74 ba e5 4f 4c 3c
       0.2884858 0.0031343864 -0.000931484 0.01247022
000070 8a a1 89 bc df 1f fb ba 38 5e 85 bb d5 f7 3c 3e
       -0.01680066 -0.0019159279 -0.0040700696 0.18453915
000080 73 32 3b 3b 16 28 33 3e 57 e2 2d 3e cb 3d c9 b9
       0.0028564006 0.1749576 0.16980873 -0.00038383747
000090 34 75 87 3e 17 f4 2f bb 70 23 d1 ba 26 07 9a 3b
       0.26456606 -0.002684837 -0.0015955996 0.004700559
0000a0 7d 6f 3e bc a4 71 64 be fa 96 81 bc 0e 1b f7 3a
       -0.011623261 -0.22308975 -0.015819062 0.0018852667

bn1.running_mean f4 [44]
000000 4c 9d b5 39 92 19 98 b8 3c 49 c4 3a 21 dd 21 bb
       0.00034640206 -7.252688e-05 0.0014975439 -0.0024698453
000010 4d 8a 65 b9 7a fe 2e 39 c1 a4 42 37 8f ab 60 3a
       -0.00021890663 0.00016688733 1.1601661e-05 0.0008570486
000020 f6 27 ab 38 45 3b 0a 3c 9f a2 6e b9 1c ad e3 38
       8.161359e-05 0.0084369825 -0.0002275803 0.000108564476
000030 e5 38 88 bb fc 9a 57 3a b0 3b 89 ba 86 91 21 b8
       -0.004157173 0.00082246936 -0.0010470059 -3.852092e-05
000040 84 e7 e8 38 a1 11 8a b9 01 a3 1d ba ba 6c 2d 3c
       0.00011105745 -0.00026334546 -0.0006013364 0.010585004
000050 d3 5a c4 b7 29 50 bf 38 ee 33 f8 b8 43 e1 3e 38
       -2.3407314e-05 9.122521e-05 -0.00011835234 4.550932e-05
000060 85 42 df ba 96 ba 1d b8 7d 58 1d 39 dc 42 3e b8
       -0.0017033374 -3.760549e-05 0.00015005651 -4.5361798e-05
000070 eb b0 b7 b7 e2 57 4f 39 ec e9 91 b9 ef b8 ee 3a
       -2.1897684e-05 0.00019773797 -0.0002783084 0.0018213073
000080 56 6d c6 38 e0 bb a2 3b 04 00 b9 3a 58 98 82 37
       9.461741e-05 0.004966244 0.0014114385 1.5568148e-05
000090 6e 68 59 bb f4 89 2e b9 9d c7 3f 38 a7 43 44 3a
       -0.0033173817 -0.00016645325 4.5723853e-05 0.00074868876
0000a0 8e a8 4c b7 d6 f2 18 3c 59 bf a7 b8 6a 39 89 b9
       -1.2198592e-05 0.00933524 -7.998822e-05 -0.00026173453

bn1.running_var f4 [44]
000000 f1 db 67 3e 0f ee 1b 3c 71 f0 7f 40 c6 8a cd 40
       0.22642495 0.009517207 3.9990504 6.42319
000010 a0 86 c7 3d e4 76 b3 3c 35 90 bd 3b fd bc 2c 41
       0.097424746 0.021907277 0.005785013 10.79614
000020 a4 0a 86 3d 17 c5 1d 41 aa da 67 3e 90 c0 09 3d
       0.06544998 9.860618 0.22642007 0.033630908
000030 7f 58 3d 41 43 34 66 3f b3 f6 9c 40 35 03 0a 3f
       11.8341055 0.89923495 4.9051147 0.53911144
000040 35 4d 60 3c 7d 33 ba 3d 17 c0 20 3e 86 ba 9e 41
       0.013690283 0.09091852 0.15698276 19.841076
000050 52 c0 43 3d bb ed 77 3d d2 95 a4 3d a2 72 93 3c
       0.047790833 0.06052945 0.080363885 0.017998997
000060 e6 12 2a 41 75 be fa 3b c0 f3 c2 3c 72 a4 40 3c
       10.629614 0.007652099 0.02379787 0.011757957
000070 03 54 36 3c 51 0b 39 3e 09 a4 87 3e d5 79 9b 41
       0.011128428 0.18070723 0.26492336 19.434488
000080 6e d2 a4 3b 6f ce 4a 41 fd 49 ed 40 a7 00 92 3d
       0.005029968 12.675399 7.415282 0.07129031
000090 8a 7e 3c 41 55 51 1e 3d 00 f9 91 3d ba 59 10 3f
       11.780893 0.038651783 0.07127571 0.5638691
0000a0 8e 18 2c 3c e5 e7 ad 41 7d 6b ba 3c 74 de 15 3d
       0.010503901 21.73823 0.022756333 0.0365891

conv2.weight f4 [20, 44, 1, 12]
000000 07 ab 31 3b 2e bc de 3a 00 51 1e ba a0 36 72 bb
       0.0027109997 0.0016993338 -0.00060392916 -0.0036958829
000010 73 55 42 bb e7 e3 2b bb 5c b0 94 3a 43 a7 79 3b
       -0.0029652982 -0.002622837 0.0011344063 0.003809408
000020 ab 32 b0 3b 60 1a e6 3b 0f 01 08 3c 7b 5c e3 3b
       0.005377134 0.007022187 0.008301034 0.0069385148
000030 c9 9b a5 ba 33 bb d8 ba 9c 5c 07 bb d8 ff db ba
       -0.0012634929 -0.0016535282 -0.0020654565 -0.0016784621
000040 fb 26 61 ba 9b 93 9d b9 57 b6 61 b9 d4 22 98 39
       -0.00085888774 -0.00030055348 -0.00021525599 0.00029017648
000050 78 4a 61 3a f9 c9 8c 3a 63 84 3f 3a be 43 b2 39
       0.00085941656 0.0010741345 0.0007305799 0.00034001278
000060 4d e5 cf 3d 3a db ef 3b 3c f9 f4 bd 6c 4a 34 be
       0.101511575 0.007319835 -0.119616 -0.17606515
000070 bc 18 1d be cf 0a 00 be e3 b3 e2 bd df 63 ca bd
       -0.15341467 -0.12504123 -0.11069467 -0.0988233
000080 7e ed cf bd 31 af 18 be 70 45 4c be 14 00 38 be
       -0.1015272 -0.1491058 -0.19948363 -0.1796878
000090 8e 24 70 bc fb 99 22 3e 55 66 7c 3e c3 3e 98 3e
       -0.014657153 0.15879051 0.24648412 0.29735383
0000a0 a3 dd 93 3e 6e b9 22 3e a3 11 7c 3d 43 09 09 3e
       0.28880033 0.15891048 0.061540257 0.1338244
0000b0 f7 00 92 3e 81 b4 aa 3e bf ee c9 3d d5 40 e0 be
       0.2851636 0.3334084 0.0985999 -0.43799463
0000c0 27 43 e0 ba 9a a4 47 ba 22 b0 d7 3a 6d 67 8d 3b
       -0.0017109857 -0.0007615775 0.001645569 0.004315308
0000d0 31 10 b7 3b b6 8b e1 3b b1 e7 d9 3b df b4 ce 3b
       0.005586647 0.00688311 0.006649934 0.0063081826
0000e0 14 25 bb 3b 2f 63 a3 3b f7 96 93 3b c9 5e a3 3b
       0.005711207 0.004986189 0.0045040804 0.0049856645
0000f0 6a 98 80 bb 3f 82 8e bb 45 7d 72 bb a2 1f 0a bb
       -0.003924419 -0.0043490226 -0.0037000936 -0.0021075984
000100 f7 84 53 ba 38 54 35 39 a8 bd 0f 3a 1c c4 bf 39
       -0.00080688245 0.00017292879 0.0005483278 0.00036576472
000110 27 cf 9f 39 cc b3 23 3a 61 7c 8f 3a 08 38 de 3a
       0.00030481184 0.00062447484 0.0010947102 0.0016953954
000120 44 2f d2 3a ec 87 c4 3a c9 7d 93 3a 0b 75 8d 3a
       0.0016035815 0.0014994121 0.0011252697 0.0010792328
000130 45 ff 77 3a de 41 0b 3a 36 e7 0c b9 bd 31 f5 b9
       0.00094603404 0.0005312244 -0.00013437573 -0.000467671
000140 1f cd 3c ba 83 cd 81 ba a3 b9 95 ba 30 25 9f ba
       -0.0007202196 -0.0009903166 -0.0011423122 -0.001214182
000150 09 ab 13 bc 72 dc d8 bd 3d 64 f1 3c fb b4 07 3e
       -0.009012946 -0.105889216 0.029466743 0.13252632
000160 1e a5 20 3d 53 57 6f be 3a 62 d8 be 47 7d d3 be
       0.039219968 -0.23373155 -0.4226244 -0.41306517
000170 b1 1b 38 be 0b b8 92 3d 1a b1 f5 3d 76 cb 7d 3e
       -0.17979313 0.0716401 0.1199667 0.24784645
000180 87 6b a1 bb ab 22 7e bb 47 16 19 bb 91 38 a8 b8
       -0.0049261483 -0.0038777988 -0.0023359226 -8.0214006e-05
000190 24 22 4f 3b f0 89 ef 3b 5e 10 2c 3c aa af 42 3c
       0.0031606043 0.0073101446 0.010501949 0.011882702
0001a0 4d 60 34 3c c1 28 08 3c d3 78 90 3b fa 79 97 39
       0.011009288 0.008310498 0.0044089346 0.00028891844
0001b0 55 cc 9c 3e 60 cd a0 3e a5 7b 8f 3e ee d0 d7 3d
       0.30624643 0.3140669 0.2802402 0.10537897
0001c0 7f 96 7a be bc 32 f8 be ff e0 fd be 91 47 d2 be
       -0.24471472 -0.48476207 -0.4958572 -0.41070226
0001d0 bc 88 ba be 24 a2 ac be fb 3f 13 bd 32 31 18 3f
       -0.36432445 -0.33717453 -0.03594969 0.59450066
0001e0 3a 76 82 bb 83 05 7f bb 3f 30 14 bb 25 a0 4e 39
       -0.003981379 -0.0038913197 -0.0022611765 0.0001970535
0001f0 0d 48 6c 3b 03 aa c0 3b 0e 80 05 3c 74 de 07 3c
       0.0036053688 0.005879642 0.008148206 0.008292783
000200 4c 11 ea 3b 30 9d c1 3b 6d d9 97 3b 90 85 1c 3b
       0.007143175 0.005908631 0.0046340735 0.002388332
000210 a6 ba fb ba b6 87 13 3a 53 77 27 3b da 4e 8b 3b
       -0.0019205406 0.00056278275 0.00255533 0.004251343
000220 8a e1 a8 3b 99 1f be 3b 73 85 b8 3b 65 fc 8d 3b
       0.0051538395 0.0058021066 0.0056311428 0.0043330663
000230 52 f7 15 3b ee 7b 04 3a 68 5b 7d ba 7d 2d 95 ba
       0.002288301 0.00050538674 -0.00096648047 -0.0011381354
000240 46 d5 c9 bd 66 da 85 bd ef fb 01 be 69 eb 4b bd
       -0.09855132 -0.06535797 -0.12693761 -0.04978505
000250 22 6b 34 3e 74 4c c7 3e 60 59 0b 3f ea 1a 0a 3f
       0.17618993 0.38925517 0.5443325 0.5394732
000260 3f c6 a0 3e f7 f8 d5 3c ed 4b a8 bd 62 f1 3b 3e
       0.3140125 0.026119692 -0.08217607 0.18353799
000270 0c c0 84 bb 2f a9 36 bb 5f 9b 14 ba 90 a4 a9 3a
       -0.004051214 -0.0027871837 -0.0005668904 0.001294272
000280 f1 40 1f 3b e8 b2 2b 3b 2e 74 76 3a 61 db 28 ba
       0.0024300183 0.0026199166 0.00094014674 -0.00064413814
000290 fb 59 93 ba 09 77 11 ba ae c0 a1 3a 98 80 48 3b
       -0.0011242026 -0.00055490487 0.0012340748 0.0030594226
0002a0 59 c9 df 3c 8e 80 67 bd ae f2 bd bd f2 74 ce bd
       0.02731769 -0.056519084 -0.09274803 -0.10080899
0002b0 79 7d 32 be fc 2c 9c be a4 5d b7 be 66 85 97 be
       -0.17430677 -0.3050307 -0.3581363 -0.29593962
0002c0 bd 26 02 be d1 c1 80 3d c3 dc 7c 3d 82 ff 8f be
       -0.1271009 0.062869675 0.061733972 -0.28124624
0002d0 c0 5f 16 3b 73 69 89 3b 08 88 e8 3b a8 fb 1f 3c
       0.0022945255 0.0041934787 0.0070962943 0.009764589
0002e0 bb b3 44 3c 4a 96 3e 3c 44 b7 07 3c 39 7c 68 3b
       0.012005742 0.011632511 0.00828344 0.0035474433
0002f0 fc 8d 6d b9 18 65 11 bb de 79 52 bb a2 7f 85 bb
       -0.00022654975 -0.00221855 -0.0032116096 -0.004074053
000300 c2 97 05 ba 2c 6e 95 b9 eb 06 c1 36 07 91 1d 3a
       -0.0005096161 -0.0002850158 5.7526536e-06 0.00060106855
000310 e7 84 7b 39 f4 40 65 39 1e cf 2c ba 60 2d 96 ba
       0.00023986735 0.00021863339 -0.0006592142 -0.0011457615
000320 d5 00 97 ba 6e bc 97 ba 2e d9 8b ba b7 d9 e6 b8
       -0.0011520634 -0.0011576542 -0.0010669583 -0.00011007807
000330 77 b1 d9 3a a2 60 eb ba 91 6f 97 bb 41 21 cd bb
       0.0016608675 -0.0017957876 -0.004621454 -0.0062600677
000340 3b 56 c2 bb a4 20 4a bb 91 3c 87 b7 b6 2c 41 3b
       -0.0059306896 -0.003084221 -1.6121458e-05 0.0029476113
000350 fc a5 8a 3b 91 71 63 3b 62 6e 25 3b 8c 37 cf 3a
       0.0042312127 0.0034705142 0.0025242795 0.0015809401
000360 79 9b 0c 3c 58 ff 0c 3c 34 d1 e1 3b 9a e1 73 3b
       0.008581989 0.008605801 0.006891394 0.0037213326
000370 ec 46 aa b8 aa 70 74 bb 29 59 ef bb cc 4b 1f bc
       -8.119442e-05 -0.0037298598 -0.00730433 -0.009722661
000380 df ac 2c bc a7 7e 27 bc f7 20 19 bc 50 3d 04 bc
       -0.010539263 -0.010223067 -0.009346238 -0.008071259
000390 59 9f eb be 5e 71 02 bf 89 03 b2 be 23 17 cb bd
       -0.4602001 -0.50954235 -0.34768322 -0.09916522
0003a0 ea e9 ee 3d 64 8e 7a 3e 2f d4 7d 3e b8 6f f7 3d
       0.11665709 0.2446838 0.24787973 0.120818555
0003b0 ee 4b bf bc 35 89 43 bd 2d 27 7e 3d 32 02 10 3e
       -0.023351636 -0.047738273 0.06204908 0.14063337
0003c0 67 f3 df 3a 69 fe 21 3b 62 c2 3b 3b 24 a1 44 3b
       0.0017086089 0.002471829 0.0028649797 0.0030003274
0003d0 c9 89 06 3b cb 87 ac 3a 1f 90 d1 38 0e 25 81 b9
       0.0020528904 0.0013163028 9.992741e-05 -0.00024632405
0003e0 39 c0 ca b9 43 9e 5e ba 11 58 bc ba fb 90 02 bb
       -0.0003867166 -0.0008492211 -0.0014369508 -0.001992284
0003f0 ba 5c 21 3b a9 3f 5b 3b 86 49 74 3b 6c 16 68 3b
       0.002462192 0.0033454692 0.0037275269 0.0035413755

conv2.bias f4 [20]
000000 bc 14 17 37 89 6b 84 37 a7 bf 4a 37 ce ef 91 b7
       9.005129e-06 1.5785701e-05 1.2084761e-05 -1.7397015e-05
000010 bb 4c 69 37 96 b3 da b6 0c 39 a6 b7 b0 2a 7d b5
       1.3905747e-05 -6.517813e-06 -1.9815307e-05 -9.4311963e-07
000020 d0 85 70 b7 a0 50 60 b8 54 f3 d8 36 b1 bd 28 b8
       -1.433627e-05 -5.348085e-05 6.4656288e-06 -4.0230985e-05
000030 c0 4d 8e b7 50 07 35 b7 84 fa c2 37 28 bc e9 37
       -1.6963924e-05 -1.0790143e-05 2.3243258e-05 2.7863382e-05
000040 90 c0 9a 35 01 ca 4a 37 56 05 81 37 a3 03 b0 37
       1.1529937e-06 1.2087171e-05 1.5380483e-05 2.0982528e-05

bn2.weight f4 [20]
000000 7e 82 e3 3e 87 23 e7 3e d4 52 09 3f bb ec d6 3e
       0.44435495 0.45144293 0.5364201 0.41977486
000010 ca e1 f7 3e 9a fb e1 3e 60 11 cb 3e c7 1c e0 3e
       0.4841445 0.4413727 0.39661694 0.43771955
000020 1f f8 f7 3e 9b c3 d7 3e b2 9c d9 3e 15 1a dc 3e
       0.4843149 0.42141423 0.42502362 0.4298865
000030 1e 04 e4 3e 68 86 e2 3e d0 b6 e2 3e 60 b4 f7 3e
       0.4453439 0.4424317 0.442801 0.48379803
000040 2a ba da 3e 03 d0 e1 3e 0a 94 e5 3e 35 08 db 3e
       0.42720157 0.44104013 0.44839507 0.427797

bn2.bias f4 [20]
000000 bd 16 22 3c 04 ca 2d 3c 23 6d 29 3a e6 cf a4 3a
       0.009893117 0.010607246 0.0006463101 0.0012574166
000010 c1 1d aa ba 1f db 74 ba f4 eb 38 3c cd c6 a2 bc
       -0.0012978838 -0.0009340513 0.011286724 -0.019870186
000020 68 3b d6 ba 77 0c 44 bc 81 e2 c2 bb 2b 7c 35 bc
       -0.0016344609 -0.0119658625 -0.0059474115 -0.011076967
000030 80 23 d9 3b 42 a2 a2 3b a4 4d 33 bc 10 88 e5 3b
       0.0066265464 0.0049631903 -0.010943804 0.0070047453
000040 01 e9 b5 3c c8 af 3b 3c d5 0c 12 bd 6b d0 c1 bb
       0.022205831 0.011455484 -0.03565677 -0.005914738

bn2.running_mean f4 [20]
000000 71 b6 ae bf 9e 7d 81 3b f3 10 a3 be 68 2d 3d bf
       -1.3649427 0.0039517423 -0.3184887 -0.7389741
000010 bb e1 f6 3f ef 23 3d bf a5 75 7a be 60 37 0a 40
       1.9287637 -0.73882955 -0.2445894 2.1596298
000020 fe 81 a0 3f 54 6d 20 3f b3 07 73 bf 79 d9 f3 bf
       1.253967 0.6266682 -0.94933623 -1.9050742
000030 09 a1 2e bf b6 dd f5 3e 26 6b 94 bd de 2d e0 3e
       -0.6821447 0.48020715 -0.072469994 0.43784994
000040 bf 47 1d c0 8e 4c 57 c0 cc ce 99 c0 43 9c 99 c0
       -2.457504 -3.3640475 -4.8064938 -4.800325

bn2.running_var f4 [20]
000000 e6 e7 20 42 e7 51 fd 41 db 04 5e 42 44 fd 7c 41
       40.226463 31.664991 55.50474 15.811832
000010 36 2c 21 42 53 fe fe 41 18 5c bc 41 11 97 1e 42
       40.293175 31.874182 23.544968 39.647526
000020 1e 95 55 42 51 57 a7 41 61 e9 20 42 7b 1f 12 42
       53.395622 20.917635 40.22791 36.530743
000030 65 b1 e1 41 25 60 9b 41 bd 33 b8 41 73 af 50 42
       28.211618 19.421946 23.025263 52.171337
000040 35 23 d3 41 c5 91 12 42 fa 64 f4 41 ee da a1 41
       26.39219 36.642353 30.549305 20.2319

fc.weight f4 [4, 640]
000000 4e d9 31 3f d0 68 79 3e 80 09 d6 bd 10 6e 85 bd
       0.69472206 0.24356389 -0.10451031 -0.065151334
000010 c9 af 0d be 44 0f 7f 3e 20 c5 0d 3e 85 80 a5 bd
       -0.13836588 0.24908167 0.13844728 -0.08081154
000020 a5 35 96 be f1 41 52 be 05 d4 a9 bc 49 9b b3 3d
       -0.29337803 -0.20532967 -0.020730982 0.08769853
000030 0e 92 67 3e f4 73 b7 bd cd 86 c4 be 8a 1d 9a be
       0.22614309 -0.08957663 -0.38384095 -0.30100662
000040 a7 07 73 3d f9 fd 6d 3c bd aa 1a be 87 87 3e be
       0.05933347 0.014525884 -0.15104194 -0.18606387
000050 79 f5 3f be 2b 90 08 be 26 5e c6 3d 98 2e 01 3e
       -0.18745984 -0.13336246 0.09685926 0.1261543
000060 66 14 04 3e 86 41 4b bd 8b dc aa 3d c2 cb 2c be
       0.12898406 -0.049623035 0.083428465 -0.16874602
000070 97 02 65 be f2 4d 9b bd a0 c0 78 be f2 79 c5 be
       -0.22364269 -0.07583226 -0.2429223 -0.385696
000080 58 b7 c7 3e e4 3a 12 3e 9c e9 33 be 43 d8 d2 be
       0.39007068 0.14280277 -0.17569584 -0.4118062
000090 80 ab 19 be 61 96 22 3e ae 95 49 be 0b d3 a5 be
       -0.15006828 0.15877678 -0.19686005 -0.32387576
0000a0 d8 5e 98 be b4 c0 b7 bd 3f 37 e0 3c 7b 71 26 be
       -0.2975986 -0.08972302 0.027370093 -0.16254227
0000b0 12 30 71 be b2 d3 cb 3d 28 b1 0f bd 78 2e 21 be
       -0.23553494 0.09952487 -0.03508106 -0.15740383
0000c0 c5 a0 a3 3d c0 78 37 3e f2 cd 34 be 5f 11 4e bd
       0.07989649 0.17917156 -0.17656687 -0.050309535
0000d0 64 d2 2a 3e 2a 99 5d 3e 9b 46 00 bd e1 99 27 3e
       0.1668182 0.21640459 -0.031317335 0.16367294
0000e0 52 ca 38 3e 67 55 04 bd 10 2f 8a be 35 2f 8c be
       0.18045929 -0.03230801 -0.2698903 -0.27379766
0000f0 28 86 a2 bd e2 fd 71 bd ea b0 ad bc e6 e3 f3 bc
       -0.079357445 -0.059080012 -0.021202523 -0.029771756
000100 4b b3 2d c0 57 dc ce bf 88 d4 aa be e4 f7 84 3d
       -2.7140682 -1.6160992 -0.33365273 0.06492594
000110 71 78 2b bb da 74 db be 4e 20 bc be 67 2d 69 be
       -0.0026164318 -0.42862588 -0.36743397 -0.22771226
000120 41 15 8d be 55 7e fd bd a9 0f 2e 3e bf 13 c7 be
       -0.27555278 -0.123776115 0.16998161 -0.38882253
000130 34 57 dc be e4 2f 29 be f9 ca 93 be cd 4b de be
       -0.4303528 -0.16522175 -0.28865793 -0.43417206
000140 7f ce d6 bd 01 d5 7f bc da 7b e9 bd e9 fd 90 be
       -0.10488605 -0.015614749 -0.11400576 -0.28318718
000150 ed e2 78 bd f0 46 0b 3d ff 10 14 be 32 33 81 bd
       -0.06076329 0.0340032 -0.14459608 -0.06308593
000160 ac c3 2e bd ab 82 56 bd 7e e8 25 be 7b a1 c2 bd
       -0.042667076 -0.05237071 -0.1620197 -0.09503456
000170 f3 ec 11 be ee ed e1 bd cd 37 31 3d e7 75 16 3d
       -0.14250545 -0.110317096 0.043266106 0.036733534
000180 03 5a cc 3e 85 6b 6b 3e 01 21 20 3e 84 5c 1e 3e
       0.39912423 0.22990234 0.1563759 0.1546498
000190 9a 32 4d 3e 82 62 ba 3d d4 dc 65 be 9c 38 2f be
       0.20038834 0.0910082 -0.2244752 -0.17111439
0001a0 68 c3 ab bd cd 6c b1 bd 17 c3 0e 3e e0 c0 5a 3e
       -0.0838688 -0.0866333 0.13941608 0.21362638
0001b0 22 2f fb 3d e3 c3 89 be d2 42 3e bd 37 71 89 bb
       0.12264849 -0.26907262 -0.046450444 -0.0041944045
0001c0 3c 51 1d be 06 b6 88 bd b7 0b 01 3d 98 50 0b be
       -0.1536302 -0.06675343 0.031505313 -0.13604963
0001d0 5d 43 50 be d1 34 a1 bd 9e 00 11 be 50 ba a3 be
       -0.20338197 -0.07871402 -0.14160392 -0.31978083
0001e0 ff f4 a7 be 45 03 db bd c6 b6 fb 3d 96 8d 15 3d
       -0.32804105 -0.10693983 0.12290721 0.03651198
0001f0 e1 52 cc bd 92 48 40 bc 52 c2 ee bc 6a a7 06 3c
       -0.099767454 -0.011736052 -0.029145394 0.008218626
000200 e4 4e fe bf a5 73 91 bf c0 c1 82 be 02 f5 3e 3e
       -1.9867826 -1.1363417 -0.25538445 0.1864815
000210 8e 77 17 3e 59 c5 94 be f6 cc 04 bf fb 47 3a bf
       0.147917 -0.29056814 -0.51875246 -0.72766083
000220 5c 83 37 bf 9d d4 01 bf d9 66 06 bf ae c8 49 bf
       -0.71684813 -0.5071505 -0.52500683 -0.7882184
000230 99 3f 15 bf be 69 31 be 60 77 ce bd 2c fa 3e be
       -0.5830017 -0.17325494 -0.10081363 -0.1865012
000240 f5 2e 6c bd 8b 1e fd bd 5c 8f a3 be bf a9 bd be
       -0.05766197 -0.12359341 -0.31945312 -0.37043568
000250 4f 98 60 bd b7 05 14 bb f8 09 c2 bd 58 22 7d bd
       -0.054832753 -0.0022586414 -0.09474558 -0.06180033
000260 52 bd 7a be 49 cd 93 be 8f d8 16 be da 1e cb bc
       -0.24486282 -0.28867558 -0.14731048 -0.024794985
000270 ca 21 40 bc bb 21 00 3d 7c 3f d5 3c 10 0d 84 be
       -0.011726806 0.031282168 0.026031248 -0.25791216
000280 c1 cd 2e 3f 78 20 2a 3e d9 ce 1b bf af 41 97 be
       0.68282706 0.16613948 -0.608625 -0.295423
000290 83 c3 50 3e a4 5b a2 3e 85 81 a8 bd e4 0c 1a be
       0.20387082 0.3171054 -0.08227829 -0.1504398
0002a0 5e 07 04 be b9 ee ae 3d bd 78 0b 3e ea 06 b8 3e
       -0.12893435 0.085416265 0.13620277 0.35942775
0002b0 4f 8d 8e 3e 90 80 b3 bc 44 47 1c be be a9 31 3e
       0.27842185 -0.02191189 -0.1526156 0.17349908
0002c0 59 6f b3 3e 5a 50 31 3e cc b2 8d 3d d5 08 d4 3a
       0.3504589 0.17315808 0.069188684 0.0016176949
0002d0 ee b2 37 3e 13 d0 8e 3e 9d ba 55 3e a4 ed a5 3e
       0.1793935 0.27893123 0.20871969 0.32407868
0002e0 81 c5 83 3e 0d 99 d6 3e 96 a1 6c 3e b2 87 01 be
       0.2573662 0.41913643 0.23108515 -0.1264942
0002f0 62 9c b8 bd df e4 88 3e 3b 44 0c 3f 24 78 0a 3f
       -0.09014203 0.26737115 0.5479161 0.5408957
000300 47 49 5b bd 5c 45 fe be 83 a5 ef be 59 39 c2 be
       -0.05353668 -0.49662292 -0.46805963 -0.37934378
000310 f0 c6 7f be 41 a4 66 be f6 e0 7f be 46 85 24 be
       -0.24978232 -0.22523595 -0.2498816 -0.16066465
000320 73 94 9c 3d 5c 9a fa 3d ad ec 99 bd 60 e0 71 be
       0.07645502 0.12236473 -0.075158454 -0.23620749
000330 b8 df 20 be 5b b8 04 be d5 79 5d be 8a 76 45 bd
       -0.15710342 -0.12960951 -0.21628506 -0.04820875
000340 44 ff 80 3d e1 2a 55 3d b6 93 b9 bd 42 3f 34 be
       0.06298688 0.052042846 -0.09061377 -0.17602256
000350 2e ac b0 bb 7a 1e c5 bd 4f e6 80 be 0a f9 57 be
       -0.005391619 -0.096249536 -0.25175712 -0.21091095
000360 a0 3e c6 bd 27 35 29 bd 9d 56 09 3e b6 96 62 3e
       -0.096799135 -0.041310456 0.13411947 0.22127804
000370 ff e0 0b 3e 2d da fe bd 6f 2e 47 be bd 93 e1 bd
       0.13660048 -0.124439575 -0.19451307 -0.11014507
000380 dd cf 7f 3f 6a 24 a3 3e 9e 58 05 be 4c 4a 72 be
       0.9992655 0.3186372 -0.13022086 -0.23661155
000390 b2 b9 d6 bd f6 b4 66 3e 62 5f 31 3e e7 7e bf bb
       -0.10484637 0.22529969 0.17321542 -0.0058439854
0003a0 6d 95 ce bd ad 3b b2 bc 8e ab 42 3d 27 b5 eb 3d
       -0.100870945 -0.021756971 0.04752689 0.115091614
0003b0 2c 15 75 3e 1b 60 ab 3e 3b f4 75 bd e4 38 93 be
       0.23933858 0.3347176 -0.06004737 -0.28754342
0003c0 37 26 0c be 67 45 61 3d b2 5f ce 3d a5 5e 10 3e
       -0.13686453 0.054997828 0.10076846 0.14098604
0003d0 1f 2d 2b 3d 47 b8 99 3d 03 8d e7 bd d1 47 82 be
       0.041791078 0.07505851 -0.11306193 -0.25445417
0003e0 df 6d 8b be 7e ac 92 3d 27 db 2e 3e 89 75 d0 3d
       -0.27232262 0.071618065 0.17075787 0.10178668
0003f0 f0 6a 30 3c c6 66 b7 3d 64 af 47 3d 4d 50 47 be
       0.010767683 0.08955149 0.04875125 -0.19464226

fc.bias f4 [4]
000000 76 62 57 bd 91 a7 3f 3e 9f ee 2e 3e 25 ae 93 be
       -0.052584134 0.18716265 0.17083214 -0.288438
