lab2_src/model_weights/SD61.02_drop0.8_lr0.01_epochs500.pth (torch, 121030 bytes, 14 tensors)

conv1.weight f4 [44, 1, 22, 16]
-2.1021482e-05 0.00015642209 0.00028556297 0.0003517197 0.00037156878 0.00029315503 0.00014342574 3.7971986e-05
-2.2155946e-05 1.9188064e-05 7.665532e-05 0.00013152203 0.00012893483 6.636063e-05 -4.4392364e-05 -7.991422e-05
-4.265757e-05 0.000112886264 0.00021763967 0.0002589465 0.0002626745 0.00019619885 9.528238e-05 1.6893162e-05
-3.5922585e-05 3.5861915e-05 0.0001364275 0.00021321866 0.00021160838 0.00013789066 7.660519e-06 -7.25984e-05
-7.457575e-06 0.000155435 0.00026027724 0.00028908646 0.00028887566 0.00022715439 0.000101212354 1.1587585e-05
-2.9785973e-05 3.7574748e-05 0.00013860846 0.0002187685 0.0002093538 0.00012305155 -1.9094303e-05 -8.1427715e-05
-1.031647e-05 0.0001623645 0.00027460593 0.00031824288 0.0003262593 0.00024645394 0.00010772413 1.7297336e-05
-2.5312358e-05 3.0746392e-05 0.000105742634 0.00016732 0.00014890518 6.1719285e-05 -5.687307e-05 -9.658455e-05
-3.7699365e-06 0.00016188326 0.00028637188 0.00036818182 0.00037482512 0.00027855425 0.00011315425 -4.7937015e-06
-7.62269e-05 -2.3181967e-05 7.3375035e-05 0.00013728313 0.00011997625 4.6842917e-05 -6.313173e-05 -0.000102068254
-1.0004434e-05 0.00014711385 0.00029101307 0.00038499842 0.00040251488 0.0002979625 0.00013075843 1.72537e-05
-6.7755405e-05 -4.296069e-05 3.4329914e-05 0.00010047757 9.443271e-05 2.5076954e-05 -7.719111e-05 -0.000122025645
-9.368962e-05 2.161755e-05 0.00010169821 0.00016869951 0.00023258432 0.00024416915 0.00019497916 0.00010859182
2.2978822e-05 2.9305893e-05 9.253883e-05 0.00013412347 0.000104513325 1.5752397e-05 -9.4142306e-05 -0.000103939965
-9.499701e-05 4.821225e-05 0.00015664878 0.00024388585 0.0002951976 0.00028390397 0.0001967656 6.711773e-05
-5.4308475e-05 -3.676478e-05 4.3173874e-05 0.00011938241 0.0001523005 0.00012332547 2.0396112e-05 -2.3455443e-05
-1.3710639e-05 0.00012955887 0.00022283067 0.00026529227 0.00028049052 0.00024555292 0.00015815624 6.0634808e-05
-1.3112442e-05 4.5657955e-05 0.000147876 0.00020594991 0.0001807461 0.00010404647 -3.6248544e-05 -8.4811894e-05
3.6093166e-05 0.00016161564 0.00024451822 0.000272161 0.00026839675 0.00019034353 9.6847565e-05 2.855523e-05
-3.400809e-06 5.882614e-05 0.00015566102 0.00021417729 0.00018525221 8.487963e-05 -5.817275e-05 -0.000109895045
4.495351e-06 0.00013492502 0.00026600625 0.00032542465 0.00032348 0.0002600333 0.00015372479 5.116152e-05
-1.0176257e-05 9.534121e-06 7.992721e-05 0.000104284554 6.5715496e-05 -1.42730605e-05 -0.00010323252 -0.00014385795
-5.7015786e-05 6.236073e-05 0.00023968653 0.0003676771 0.00037595522 0.00029569244 0.00016953846 3.235355e-05
-4.8718335e-05 -7.73977e-05 -3.6921414e-05 -1.6471695e-05 -1.8837662e-05 -5.8625687e-05 -0.000110575806 -0.00016154084
1.9605915e-05 0.000101879414 0.00023511527 0.0003726708 0.0003748304 0.00029933034 0.00016337146 3.4123324e-05
-5.979813e-05 -0.00010351659 -4.4397046e-05 -5.183679e-06 -2.0823377e-06 -4.5672627e-05 -0.00013992617 -0.00022376541
-0.00012373606 -2.087498e-05 8.1325496e-05 0.00019001443 0.0002740215 0.00031321376 0.00025933268 0.00014608362
1.1795196e-05 2.0129146e-06 4.4884928e-05 9.972346e-05 0.0001318278 0.00011114964 -7.64862e-06 -1.896242e-05
-6.6826346e-05 2.5151541e-05 0.00012258034 0.00020358291 0.00024374225 0.00024428876 0.00017788223 8.54709e-05
-1.737526e-05 9.598359e-06 9.373263e-05 0.00014936387 0.00015049856 0.000105447274 -7.036621e-06 -3.6069778e-05
-1.0738301e-05 7.703516e-05 0.00016628181 0.00022921654 0.0002521535 0.00022416475 0.00014021606 6.203255e-05
-4.9535242e-06 1.962324e-05 8.163149e-05 0.00012192901 0.000112265945 6.583152e-05 -3.1311338e-05 -6.360652e-05
00000000: 4a57 b0b7 3c05 2439 9db7 9539 0567 b839
00000010: 1ecf c239 9ab2 9939 8e64 1639 1c44 1f38
00000020: 88db b9b7 0ef6 a037 03c2 a038 2de9 0939
00000030: ae32 0739 182b 8b38 f031 3ab8 9f97 a7b8
00000040: 38eb 32b8 5abd ec38 3436 6439 36c3 8739
00000050: 93b7 8939 baba 4d39 57d2 c738 cab5 8d37
00000060: 95ab 16b8 706a 1638 fa0d 0f39 7393 5f39
00000070: 31e3 5d39 be96 1039 ae85 0037 f83f 98b8
00000080: 153c fab6 44fc 2239 d275 8839 8790 9739
00000090: 3c74 9739 4b30 6e39 f841 d438 4c68 4237
000000a0: e4dc f9b7 9499 1d38 6d57 1139 3965 6539
000000b0: fc85 5b39 6607 0139 b42c a0b7 2cc4 aab8
000000c0: e714 2db7 6340 2a39 fcf8 8f39 d6d9 a639
000000d0: c80d ab39 7d36 8139 f4e9 e138 bf19 9137
000000e0: e055 d4b7 b0f5 0038 25c2 dd38 9f72 2f39
000000f0: 6e23 1c39 4a6f 8138 fe8a 6eb8 6f8d cab8
00000100: 04ff 7cb6 35bf 2939 2f24 9639 8708 c139
00000110: 2d84 c439 eb0a 9239 3a4d ed38 95d9 a0b6
00000120: 01dc 9fb8 e576 c2b7 ece0 9938 a9f3 0f39
00000130: c29b fb38 3379 4438 9765 84b8 7a0d d6b8
00000140: b8d8 27b7 9342 1a39 1d93 9839 9dd9 c939
00000150: a208 d339 da37 9c39 331c 0939 0abc 9037
00000160: e817 8eb8 b130 34b8 77fd 0f38 7cb7 d238
00000170: 2d0a c638 595c d237 a9e1 a1b8 05e8 ffb8
00000180: 3b7b c4b8 5657 b537 d046 d538 eee4 3039
00000190: e1e1 7339 d403 8039 5273 4c39 cabb e338
000001a0: a5c2 c037 edd5 f537 6811 c238 7fa3 0c39
000001b0: 2a2e db38 0424 8437 446e c5b8 58fa d9b8
000001c0: 2239 c7b8 8237 4a38 1642 2439 9cbb 7f39
000001d0: c0c4 9a39 f2d8 9439 dd52 4e39 8fc1 8c38
000001e0: 48c9 63b8 e233 1ab8 9815 3538 f15c fa38
000001f0: dbb2 1f39 ee50 0139 5118 ab37 2ec2 c4b7
00000200: bf06 66b7 32da 0739 a7a7 6939 ed16 8b39
00000210: cd0e 9339 8ebd 8039 bed6 2539 2152 7e38
00000220: 82fd 5bb7 db80 3f38 290f 1b39 42f4 5739
00000230: a986 3d39 8633 da38 9409 18b8 0add b1b8
00000240: be62 1738 5e77 2939 ae32 8039 d5b0 8e39
00000250: 9ab7 8c39 f496 4739 a41a cb38 e489 ef37
00000260: 7439 64b6 16bc 7638 f038 2339 c794 6039
00000270: 4340 4239 6801 b238 84fe 73b8 7477 e6b8
00000280: c5d6 9636 a97a 0d39 c176 8b39 c29d aa39
00000290: c098 a939 1455 8839 2f31 2139 4496 5638
000002a0: b1ba 2ab7 bdf4 1f37 989e a738 58b3 da38
000002b0: bdd0 8938 5476 6fb7 8a7e d8b8 93d8 16b9
000002c0: 3c24 6fb8 a9c7 8238 5d54 7b39 c9c4 c039
000002d0: db1b c539 2b07 9b39 22c6 3139 5cb3 0738
000002e0: ea56 4cb8 9350 a2b8 11dc 1ab8 b22c 8ab7
000002f0: 9205 9eb7 dae4 75b8 efe4 e7b8 4a63 29b9
00000300: 6277 a437 18a8 d538 4689 7639 0763 c339
00000310: e284 c439 70ef 9c39 b14e 2b39 a41f 0f38
00000320: c1cf 7ab8 0c17 d9b8 f736 3ab8 77ef adb6
00000330: 4abe 0bb6 9c90 3fb8 25b9 12b9 92a2 6ab9
00000340: 25bf 01b9 ae1c afb7 4b8d aa38 9c3e 4739
00000350: 8baa 8f39 d736 a439 0bf7 8739 062e 1939
00000360: fbe3 4537 9c15 0736 d342 3c38 a022 d138
00000370: 413b 0a39 0219 e938 9352 00b7 7d11 9fb7
00000380: 1f25 8cb8 86fc d237 e988 0039 df78 5539
00000390: 1095 7f39 e213 8039 e685 3a39 d73e b338
000003a0: 16c1 91b7 a308 2137 5392 c438 8f9e 1c39
000003b0: 26cf 1d39 9323 dd38 1d1c ecb6 a149 17b8
000003c0: a728 34b7 f08d a138 ef5b 2e39 d959 7039
000003d0: 7833 8439 c40d 6b39 f606 1339 7917 8238
000003e0: 7336 a6b6 969c a437 9331 ab38 24b4 ff38
000003f0: 5270 eb38 070f 8a38 4b54 03b8 7e64 85b8

conv1.bias f4 [44]
-2.3258287e-10 -1.4044366e-09 -4.1878186e-05 -2.734675e-06 -4.4102835e-05 2.2491928e-10 -1.149461e-06 2.1811559e-06
5.661247e-10 1.7276208e-05 -3.831693e-05 -1.2250196e-08 -2.382205e-09 -9.279174e-10 7.2107746e-09 6.632128e-10
-7.285942e-07 2.8163573e-08 -4.7157024e-05 1.4801345e-09 1.4266192e-05 -1.6554666e-05 -1.5297313e-06 9.756604e-10
-3.775215e-10 2.4240423e-06 9.37181e-09 1.5617302e-09 2.608342e-05 2.7327853e-05 3.5615158e-06 9.6016975e-06
-3.4424835e-10 -5.6022276e-10 -2.0760613e-06 7.361973e-09 4.171307e-05 -4.124978e-06 7.851138e-10 1.4131304e-10
5.194655e-10 1.02133e-10 -3.9422732e-10 -1.3704119e-05
00000000: 42ba 7faf 3806 c1b0 5ca6 2fb8 5c85 37b6
00000010: 0ffb 38b8 264d 772f 2e47 9ab5 f95f 1236
00000020: 7c9d 1b30 60ec 9037 7eb6 20b8 ef74 52b2
00000030: 32b4 23b1 6210 7fb0 a5c2 f731 744d 3630
00000040: 9d94 43b5 5aec f132 78ca 45b8 9a6d cb30
00000050: d458 6f37 e0de 8ab7 2b51 cdb5 0018 8630
00000060: 6d8b cfaf bbac 2236 a801 2132 7fa4 d630
00000070: b8cd da37 1e3e e537 6002 6f36 fa16 2137
00000080: a640 bdaf 2cfe 19b0 7652 0bb6 99f4 fc31
00000090: 11f5 2e38 4b69 8ab6 79cf 5730 1660 1b2f
000000a0: 23ca 0e30 c597 e02e 90ba d8af beea 65b7

bn1.weight f4 [44]
0.00011093947 -0.00015975586 1.2031722 0.6902607 1.6993151 -4.0104474e-06 0.5326467 0.635968
-0.0001187706 0.9493973 1.0234302 0.00071298616 0.00038270256 0.00036553125 0.0005915807 -0.00027444062
1.0727084 0.008403491 1.2180533 0.00010805622 1.5317296 1.1140097 0.77378076 0.00034689324
-0.00064290717 1.2278565 -0.00014122446 0.00011842893 0.97119665 0.9133009 0.22421147 1.3575191
7.136465e-05 0.0001326848 0.462943 0.0013980314 0.58457494 0.30091286 0.00047209824 -0.00035413285
0.00011261557 -0.0003425886 -0.0002862843 1.0151924
00000000: 2da8 e838 2384 27b9 8c01 9a3f edb4 303f
00000010: 2883 d93f 7b91 86b6 895b 083f cdce 223f
00000020: 7b14 f9b8 b40b 733f c3ff 823f b1e7 3a3a
00000030: 78a5 c839 c6a4 bf39 4f14 1b3a cce2 8fb9
00000040: 824e 893f ccae 093c 2ce9 9b3f 3e9c e238
00000050: b70f c43f df97 8e3f 7f16 463f 39df b539
00000060: c588 28ba 672a 9d3f a715 14b9 0c5d f838
00000070: 58a0 783f 16ce 693f b197 653e 30c3 ad3f
00000080: 9ba9 9538 4e21 0b39 dd06 ed3e 263e b73a
00000090: b4a6 153f 4011 9a3e f483 f739 e8aa b9b9
000000a0: 062c ec38 779d b3b9 6e18 96b9 d3f1 813f

bn1.bias f4 [44]
-0.00079447415 0.0009636917 0.2428854 0.03675137 -0.41236156 0.0006142021 -0.23641382 0.06828233
0.013646459 0.06939959 -0.552174 0.053966824 0.0010493476 0.0043786843 0.0012655644 0.008936624
-0.086179696 -0.0036068766 -0.2263558 0.0005124287 -0.05607794 0.012918521 0.050476987 0.10538029
0.0015453366 0.3309423 0.0065428806 -0.0005192113 0.5845035 -0.5299048 -0.019858772 0.058262862
0.0025804501 0.03383796 -0.34285775 0.0055870246 0.01928955 -0.045411523 -0.0024345904 0.0008402377
-0.0055962875 0.0019693736 -0.058427833 0.10448123
00000000: 4244 50ba 41a0 7c3a f3b6 783e 9b88 163d
00000010: 0e21 d3be 6802 213a 7716 72be 9bd7 8b3d
00000020: 6695 5f3c 5f21 8e3d 465b 0dbf 510c 5d3d
00000030: 438a 893a 117b 8f3b 4be1 a53a eb6a 123c
00000040: fb7e b0bd 5961 6cbb d1c9 67be 8254 063a
00000050: fbb1 65bd 34a8 533c f5c0 4e3d 9fd1 d73d
00000060: e48c ca3a 4571 a93e a965 d63b ae1b 08ba
00000070: 05a2 153f d7a7 07bf ddae a2bc 0aa5 6e3d
00000080: c51c 293b ac99 0a3d 0d8b afbe 5c13 b73b
00000090: 1e05 9e3c 6f01 3abd a68d 1fbb 6643 5c3a
000000a0: 1061 b7bb 9b10 013b 0652 6fbd 41fa d53d

bn1.running_mean f4 [44]
-9.611876e-06 1.7799654e-05 0.00037213662 0.0006062475 -0.00055864046 1.4589839e-06 2.4860114e-05 0.004727887
2.7773252e-05 -0.0054873102 -0.0038754756 -5.878984e-05 5.551245e-05 0.00011470717 -2.4602958e-05 -3.7542253e-05
-0.0064941454 0.00025964866 0.002938887 1.012736e-05 0.0022289625 -0.00021407437 0.0010808465 -0.00017500401
-5.1192183e-05 -0.0004388766 0.00012451247 6.244851e-05 0.001798054 -0.0018744828 -0.0020209828 0.0031690067
2.6980317e-06 -0.000101857324 -0.000399003 5.6967925e-05 -0.00079948315 -0.0009701743 2.824381e-05 -0.000108843924
-0.00010537185 4.415161e-05 -0.00019329478 0.0029678617
00000000: b142 21b7 7750 9537 551b c339 95ec 1e3a
00000010: ba71 12ba 4ed2 c335 b08a d037 64ec 9a3b
00000020: 9bfa e837 e5ce b3bb b1fb 7dbb 1c95 76b8
00000030: 0ad6 6838 f18e f038 7362 ceb7 b076 1db8
00000040: d7cc d4bb 7421 8839 589a 403b aee8 2937
00000050: c913 123b 2779 60b9 31ab 8d3a 4881 37b9
00000060: 30b7 56b8 0519 e6b9 908f 0239 caf6 8238
00000070: aeac eb3a 35b1 f5ba 7772 04bb 1caf 4f3b
00000080: d50f 3536 3c9c d5b8 4731 d1b9 d8f0 6e38
00000090: 6894 51ba 4c53 7eba 1fed ec37 2343 e4b8
000000a0: 15fb dcb8 6e2f 3938 2caf 4ab9 7580 423b

bn1.running_var f4 [44]
0.00031098322 0.0015169395 7.8742247 3.9971662 16.54038 0.00023979678 1.8319607 6.7411256
0.0034433994 6.866536 3.9424822 0.01817482 0.006146437 0.06359208 0.010296988 0.0024900294
11.03763 0.06590605 13.649583 0.0011071473 19.10892 17.824547 6.875463 0.04262561
0.004983868 17.2673 0.015497054 0.0042055254 11.823499 2.7395658 2.8894587 13.87088
0.0005982974 0.026426893 0.4756358 0.008746628 1.6692958 7.9944468 0.006403605 0.020815238
0.012639391 0.003744689 0.035711292 11.70187
00000000: 760b a339 0bd4 c63a a6f9 fb40 92d1 7f40
00000010: b352 8441 f571 7b39 b07d ea3f 4db7 d740
00000020: a8aa 613b aaba db40 a151 7c40 5ce3 943c
00000030: 0d68 c93b 903c 823d b3b4 283c c32f 233b
00000040: 229a 3041 c0f9 863d b164 5a41 b31d 913a
00000050: 11df 9841 ac98 8e41 cb03 dc40 3198 2e3d
00000060: b74f a33b 6e23 8a41 5be7 7d3c 81ce 893b
00000070: 0d2d 3d41 0c55 2f40 e4ec 3840 20ef 5d41
00000080: 0fd7 1c3a 367d d83c 8986 f33e 044e 0f3c
00000090: 7cab d53f 82d2 ff40 55d5 d13b b884 aa3c
000000a0: 7315 4f3c 7569 753b 0146 123d dc3a 3b41

conv2.weight f4 [20, 44, 1, 12]
-0.00018015607 -6.8361405e-05 2.6727297e-05 -9.511919e-05 -0.00038413488 -0.0005307813 -0.00042331018 -0.00017675052
4.766384e-05 0.00011416392 0.00012961714 0.00022143662 0.00037009292 0.00041716866 0.0004631895 0.00045367627
0.0003496336 1.2257794e-05 -0.000431072 -0.0008276677 -0.0010189376 -0.0009187406 -0.0005863801 -0.00013790544
-0.47890714 -0.48124382 -0.47160468 -0.4014147 -0.2854796 -0.14148848 -0.029659199 -0.071536176
-0.12907954 -0.101292916 -0.02587833 0.09023315 -0.30862868 -0.2894392 -0.20032774 -0.1197605
-0.080747165 -0.05698834 -0.013391601 0.083983965 0.12055208 0.100002535 0.11348516 0.11754192
-0.04624344 -0.21101023 -0.21440053 -0.15995227 -0.17164768 -0.11658072 -0.06642204 -0.035646204
-0.002512276 -0.0748857 -0.32006648 -0.5809326 -0.0005104036 -0.0005822943 -0.000607068 -0.00061548327
-0.00048023663 -0.00023469821 8.8912544e-05 0.00037206616 0.0006023724 0.00074422767 0.0006950246 0.0004818543
-0.10813375 -0.11764786 -0.06364947 -0.00606231 0.03771866 0.10118612 0.19243412 0.23076174
0.18181579 0.07231173 -0.06413598 -0.22266051 -0.22695215 -0.21562757 -0.18767533 -0.09969977
0.01147528 0.13884231 0.25018385 0.23232509 0.110102616 -0.013760481 -0.12415571 -0.24011403
-0.0014544381 -0.0016576315 -0.0018285622 -0.0020850296 -0.0012472543 -0.001095278 -0.00091648067 -0.0007956173
-0.00033099836 0.00022442566 0.0005242433 0.00046686665 0.20883305 -0.20278437 -0.39542955 -0.4401212
-0.42609537 -0.35627672 -0.203848 0.018475937 0.2313742 0.32061404 0.34474644 0.28457052
-0.36482736 -0.36769986 -0.18941982 0.05002546 0.22024745 0.32293057 0.2846472 0.18031283
0.15752704 0.19995387 0.20261458 0.17419228 -0.0040327627 -0.006428692 -0.0075778053 -0.0076439497
-0.0046113045 -0.0035376137 -0.0018092785 -5.367967e-06 0.0018464753 0.003164089 0.0028932854 0.0017635584
1.923924e-05 -0.00044876034 -0.0010183103 -0.0016993973 -0.002261933 -0.0023850496 -0.0020302294 -0.0012983847
-0.00048846076 0.00055219914 0.0013176464 0.0016086852 0.0049086967 0.0025818532 8.196185e-05 -0.0015782479
-0.0031594168 -0.0042117527 -0.0041678 -0.0029149924 -0.0011866883 0.00028784355 0.0008009334 0.0006249696
0.0021519875 0.0022566186 0.001973516 0.0015772986 0.0011164031 3.5559107e-05 -0.001334582 -0.002453634
-0.003363891 -0.004211753 -0.0038795867 -0.0028420878 -0.0019927954 -0.0021056288 -0.0019932617 -0.001982758
-0.0011667574 -0.0006894636 -0.00012170324 0.00021031858 0.0006302648 0.00080885127 0.00058878685 -4.29392e-06
-0.25066835 0.0058234325 0.14189465 0.14231095 0.10125151 0.041652363 -0.04595868 -0.1014528
-0.09163149 -0.045156136 0.040423803 0.11225866 -0.016995419 -0.009907971 -0.0008871284 -0.00066693325
-0.0061612716 -0.0061122887 -0.0032092568 -0.0060652792 -0.011314534 -0.012571917 -0.015956491 -0.022049304
-0.044007044 0.0068813823 0.13089731 0.24389583 0.2574178 0.18796884 0.009366529 -0.09290782
-0.12185292 -0.09287969 -0.057913225 0.038070604 -0.000331071 -0.00013451098 4.4801243e-05 0.00020548872
0.00043589427 0.00067672384 0.0007691951 0.0007760216 0.0007322393 0.00062543195 0.00053741655 0.0003915755
0.44140092 0.5564483 0.54362184 0.31317493 0.10377101 -0.053024948 -0.15862562 -0.25060993
-0.24523963 -0.2645637 -0.14166729 0.1931657 -0.6014446 -0.39325282 -0.16017391 0.13548417
00000000: 47e8 3cb9 405d 8fb8 6f34 e037 ba7a c7b8
00000010: b665 c9b9 2124 0bba bbef ddb9 1b56 39b9
00000020: a9ea 4738 4a6b ef38 d6e9 0739 7131 6839
00000030: 0809 c239 6eb7 da39 3ed8 f239 66db ed39
00000040: 074f b739 d3a6 4d37 8101 e2b9 d7f7 58ba
00000050: df8d 85ba a3d7 70ba 4db7 19ba b69a 10b9
00000060: 5133 f5be 9765 f6be 2b76 f1be 3a86 cdbe
00000070: 622a 92be 5be2 10be d9f7 f2bc 8f81 92bd
00000080: 6d2d 04be a972 cfbd cbfe d3bc 28cc b83d
00000090: 9404 9ebe 6031 94be b722 4dbe fe44 f5bd
000000a0: c55e a5bd 9b6c 69bd 7268 5bbc c9ff ab3d
000000b0: 02e4 f63d 21ce cc3d e86a e83d d1b9 f03d
000000c0: c369 3dbd 1113 58be d08b 5bbe 87ca 23be
000000d0: 69c4 2fbe dfc1 eebd 4708 88bd c101 12bd
000000e0: ffa4 24bb ad5d 99bd c1df a3be 00b8 14bf
000000f0: 9bcc 05ba 1ca5 18ba a523 1fba 6258 21ba
00000100: 45c8 fbb9 5219 76b9 8f76 ba38 e011 c339
00000110: 87e8 1d3a 4618 433a 5032 363a 64a1 fc39
00000120: 3a75 ddbd 5cf1 f0bd a75a 82bd 58a6 c6bb
00000130: e27e 1a3d ab3a cf3d 730d 453e ce4c 6c3e
00000140: eb2d 3a3e 2c18 943d ba59 83bd 1e01 64be
00000150: 2566 68be 79cd 5cbe f62d 40be 652f ccbd
00000160: d002 3c3c ae2c 0e3e 1918 803e a1e6 6d3e
00000170: 7b7d e13d a473 61bc 5945 febd 74e0 75be
00000180: d8a2 beba e244 d9ba 5eac efba fea4 08bb
00000190: e97a a3ba 6e8f 8fba fa3f 70ba f990 50ba
000001a0: d989 adb9 ce53 6b39 5f6d 093a c8c5 f439
000001b0: 55d8 553e b5a6 4fbe be75 cabe 9157 e1be
000001c0: 2c29 dabe e769 b6be 88bd 50be d95a 973c
000001d0: 5ced 6c3e 8627 a43e 9b82 b03e 3ab3 913e
000001e0: a7ca babe 2843 bcbe 45f7 41be 7fe7 4c3d
000001f0: 8c88 613e 2857 a53e 47bd 913e eda3 383e
00000200: c54e 213e b5c0 4c3e 327a 4f3e 765f 323e
00000210: 4425 84bb c7a7 d2bb 3d4f f8bb 197a fabb
00000220: 6d1a 97bb 4fd7 67bb 5025 edba 7c1e b4b6
00000230: 6e05 f23a 9b5c 4f3b 469d 3d3b 3327 e73a
00000240: f463 a137 9847 ebb9 d378 85ba 50be deba
00000250: f03c 14bb 7e4e 1cbb 990d 05bb 902e aaba
00000260: 0c0c 00ba 75c1 103a e0b4 ac3a 85da d23a
00000270: 22d9 a03b 4f34 293b efe2 ab38 36dd ceba
00000280: 380e 4fbb be02 8abb 0a92 88bb 7509 3fbb
00000290: a78a 9bba b5e9 9639 bbf5 513a 00d5 233a
000002a0: 5c08 0d3b c7e3 133b 1b56 013b 5cbd ce3a
000002b0: 4654 923a 4d25 1538 24ed aeba 26cd 20bb
000002c0: ba74 5cbb bf02 8abb aa40 7ebb 5242 3abb
000002d0: 8f99 02bb 97fe 09bb 62a1 02bb 29f1 01bb
000002e0: e2ed 98ba 1ebd 34ba ee3a ffb8 f788 5c39
000002f0: 5b38 253a 1709 543a d158 1a3a 7e14 90b6
00000300: 9a57 80be 7ed2 be3b d54c 113e f6b9 113e
00000310: f45c cf3d ab9b 2a3d 2b3f 3cbd 7cc6 cfbd
00000320: 4aa9 bbbd a4f5 38bd 6e93 253d dee7 e53d
00000330: fa39 8bbc 0b55 22bc 2e8e 68ba 22d5 2eba
00000340: 7ee4 c9bb 9849 c8bb 6552 52bb 40bf c6bb
00000350: 9860 39bc 71fa 4dbc 30b7 82bc bea0 b4bc
00000360: bb40 34bd 387d e13b f209 063e d4bf 793e
00000370: 44cc 833e e77a 403e 1276 193c 7546 bebd
00000380: 068e f9bd b537 bebd 6b36 6dbd ecef 1b3d
00000390: 9993 adb9 840b 0db9 f8e8 3b38 7578 5739
000003a0: bd88 e439 2b66 313a cfa3 493a ee6d 4b3a
000003b0: bff3 3f3a 07f4 233a 6ae1 0c3a 604c cd39
000003c0: 4dff e13e 6573 0e3f cd2a 0b3f 7758 a03e
000003d0: e585 d43d b030 59bd c16e 22be f24f 80be
000003e0: 1920 7bbe e574 87be 3b11 11be 3bcd 453e
000003f0: 46f8 19bf 6f58 c9be a104 24be 5dbc 0a3e

conv2.bias f4 [20]
-4.7761405e-06 -4.2486686e-06 -1.480228e-06 5.380891e-06 -7.4707987e-06 5.516681e-06 -1.7122642e-06 -1.1310754e-06
2.4699513e-05 -1.1992317e-06 8.8775954e-07 -1.4918559e-05 9.114535e-06 2.2371962e-05 4.4051826e-06 7.662793e-06
-5.3741182e-06 -2.1846172e-05 -6.3665055e-08 -3.044881e-05
00000000: bc42 a0b6 c98f 8eb6 3fac c6b5 808d b436
00000010: acad fab6 ee1b b936 f3d0 e5b5 74cf 97b5
00000020: cd31 cf37 4af5 a0b5 5f4e 6e35 b94a 7ab7
00000030: a1ea 1837 6cab bb37 3bd0 9336 728f 0037
00000040: 5353 b4b6 4c42 b7b7 3cb8 88b3 526c ffb7

bn2.weight f4 [20]
0.5087477 0.50155497 0.5202406 0.48899382 0.50619316 0.48587078 0.5557793 0.51509094
0.49089494 0.5000125 0.4640651 0.48273885 0.49044797 0.48504865 0.51949984 0.48282948
0.48184824 0.48666626 0.51513153 0.49403676
00000000: 4a3d 023f e865 003f 7d2e 053f 665d fa3e
00000010: e095 013f 0ec4 f83e 8d47 0e3f 00dd 033f
00000020: 9556 fb3e d200 003f f199 ed3e 8c29 f73e
00000030: ff1b fb3e 4c58 f83e f1fd 043f 6d35 f73e
00000040: d0b4 f63e 522c f93e a9df 033f 63f2 fc3e

bn2.bias f4 [20]
0.0036357369 -0.007832353 -0.0005764314 0.012674814 0.0068982495 -0.0029693854 0.00091691036 -0.017816335
-0.00035979046 -0.015822224 0.01020494 0.011201294 0.016666505 -0.030847454 0.0054583726 -0.010048387
9.252141e-05 0.00923854 0.004071426 0.0053229476
00000000: 8b45 6e3b 4553 00bc a81b 17ba 06aa 4f3c
00000010: b60a e23b 059a 42bb d05c 703a 90f3 91bc
00000020: 42a2 bcb9 9c9d 81bc 9f32 273c a285 373c
00000030: 3288 883c cdb3 fcbc 26dc b23b fda1 24bc
00000040: 0e08 c238 3f5d 173c 9969 853b 1f6c ae3b

bn2.running_mean f4 [20]
-1.2561296 -1.6476382 -0.21560898 -2.5583985 -2.7659776 -0.24172623 1.4847754 5.8653884
1.4796258 -1.0672467 -3.3287425 -0.45737407 1.200517 -5.5463676 0.3112306 -0.038421433
0.49477708 -4.5006614 -0.7092293 4.876693
00000000: dbc8 a0bf cfe5 d2bf 9ac8 5cbe cdbc 23c0
00000010: c705 31c0 1587 77be 1f0d be3f 43b1 bb40
00000020: 6164 bd3f 8a9b 88bf 1e0a 55c0 ef2c eabe
00000030: 8baa 993f d87b b1c0 9e59 9f3e cb5f 1dbd
00000040: 6c53 fd3e 6b05 90c0 0d90 35bf de0d 9c40

bn2.running_var f4 [20]
60.02507 61.803627 24.582397 38.185616 24.936054 41.17048 59.687897 65.0422
23.924524 37.462826 31.790108 26.90404 33.282997 40.569412 37.2818 34.06071
33.82025 31.875074 41.449017 29.353294
00000000: ac19 7042 ea36 7742 c0a8 c441 12be 1842
00000010: 0a7d c741 92ae 2442 68c0 6e42 9b15 8242
00000020: 6d65 bf41 efd9 1542 2452 fe41 793b d741
00000030: ca21 0542 1447 2242 9020 1542 2b3e 0842
00000040: f047 0742 2700 ff41 cbcb 2542 8cd3 ea41

fc.weight f4 [4, 640]
0.82661694 0.4104621 0.09020185 0.027061595 -0.04365558 0.2456462 0.3615165 0.20458165
0.076781355 -0.035714563 0.15080322 0.28492427 0.16082957 0.10655465 0.012038979 0.032195605
0.0934814 0.02217279 -0.077906705 -0.071327776 -0.04315418 -0.14206177 -0.07006586 0.05865028
0.084295556 0.01972674 0.10604691 0.091483496 0.0030161962 -0.08636062 -0.027853347 -0.092678286
0.38592392 0.25699615 0.05119489 -0.04997111 -0.0911623 0.052078 0.00083566655 -0.15282834
-0.13468124 0.08297044 0.06223298 -0.11679606 0.076368496 0.15852518 0.020068761 0.039923325
0.15475394 0.08443627 0.061789818 0.18292579 0.18637475 0.055098854 0.013105163 -0.056428336
-0.10547678 -0.122297965 -0.15285988 -0.05398635 0.107670054 0.11489969 0.12533614 0.1317238
0.97999537 0.48032975 0.009101953 -0.059108496 0.0012585286 0.15837064 0.055264976 -0.10254646
0.09557618 0.1875455 0.12297165 -0.08129123 -0.08316198 -0.1484496 -0.12025211 -0.04680206
0.14446747 0.21148819 0.07256056 -0.02735315 -0.2599023 -0.10032057 0.035544712 0.051061757
0.024563417 -0.0793866 -0.16570397 -0.10798675 0.13866824 0.15719554 0.066127054 0.016016435
0.3845147 -0.014587088 -0.24458285 -0.123582505 0.16789818 0.2030976 0.014641108 -0.014234087
-0.057693068 -0.09696457 0.2590531 0.46932584 0.27020252 0.003031397 0.0029871091 0.030326199
0.008102266 -0.011450074 -0.008316494 0.10384835 0.23456934 0.20546086 0.17059088 0.26921093
0.27130902 0.20066641 0.200479 0.09755191 0.056962322 0.14342816 0.23279092 0.28533924
0.5546083 0.24049628 -0.23253305 -0.15521653 0.07262777 0.068382464 -0.06555075 -0.18828109
-0.1181706 -0.039398395 0.005789047 -0.02604919 -0.060035557 -0.104007795 -0.17105976 -0.052975815
0.12398777 0.117594786 0.10701455 -0.039858606 -0.023630705 0.16786882 0.19908401 0.11400409
0.12371256 -0.012723237 -0.14205939 -0.3375787 -0.20378527 -0.109539144 0.07314758 0.24434818
0.5992095 0.40665486 0.22990277 0.13397253 -0.09679054 0.09420604 0.15815565 0.10426338
0.092720345 0.18923071 0.11005203 0.1393688 0.049247686 -0.022634763 0.036324378 0.045859702
-0.076628014 0.025643948 0.04416598 0.046905976 -0.093784295 -0.11922041 -0.1247289 0.070355795
0.03019328 0.08866895 0.11590417 0.028885722 0.012689906 -0.055455577 0.004932713 -0.013543194
-1.6471618 -1.153486 -0.22828001 0.1423093 0.1174241 -0.010030722 -0.16660526 -0.41390672
-0.58006305 -0.4586006 -0.33618447 -0.37521458 -0.32116315 -0.19412531 -0.1443646 -0.21535994
-0.15413676 -0.016037771 -0.14661187 -0.26440087 -0.07959336 0.034443554 -0.04636582 -0.017102452
-0.0030649696 -0.04927431 -0.016579928 -0.009907635 0.021965219 0.03285864 0.025113843 -0.12292493
0.69028705 0.26819754 -0.008785325 -0.008516281 -0.07180819 0.2178103 0.30175534 0.15083882
0.21710175 0.3812804 0.20696317 0.22582078 0.27679917 0.21943311 -0.020228684 -0.04790693
0.0737504 0.055216175 0.0529203 0.15277454 0.296128 -0.011712418 -0.02395092 0.023484671
0.19034588 0.11920725 0.04294921 0.08899551 0.1215081 -0.024331495 0.040636078 0.06375114
00000000: 2b9d 533f 1728 d23e bfbb b83d 47b0 dd3c
00000010: 32d0 32bd ad8a 7b3e b118 b93e da7d 513e
00000020: 8b3f 9d3d 6f49 12bd 296c 1a3e 98e1 913e
00000030: 82b0 243e 5339 da3d 233f 453c 8adf 033d
00000040: 2d73 bf3d b6a3 b53c 8d8d 9fbd 4c14 92bd
00000050: 70c2 30bd a478 11be b17e 8fbd 473b 703d
00000060: 26a3 ac3d f999 a13c 1f2f d93d b35b bb3d
00000070: 60ab 453b d6dd b0bd b42c e4bc 1dce bdbd
00000080: d297 c53e 0095 833e bcb1 513d 82ae 4cbd
00000090: 4db3 babd be4f 553d a210 5b3a 087f 1cbe
000000a0: e1e9 09be 68ec a93d 02e8 7e3d c632 efbd
000000b0: 1667 9c3d 6d54 223e 3e67 a43c a486 233d
000000c0: d177 1e3e ecec ac3d 5217 7d3d e650 3b3e
000000d0: 06d9 3e3e 56af 613d 0ab7 563c 6621 67bd
000000e0: 3604 d8bd 5b77 fabd 4d87 1cbe ca20 5dbd
000000f0: 1e82 dc3d 8750 eb3d 1e58 003e 9be2 063e
00000100: fae0 7a3f c8ed f53e 5c20 153c c01b 72bd
00000110: 36f5 a43a ea2b 223e 875d 623d e103 d2bd
00000120: 72bd c33d ed0b 403e 8fd8 fb3d 047c a6bd
00000130: d450 aabd 2c03 18be bd46 f6bd 84b3 3fbd
00000140: 48ef 133e 5c90 583e a29a 943d b713 e0bc
00000150: ea11 85be df74 cdbd 5597 113d 2226 513d
00000160: 3839 c93c 7195 a2bd 4dae 29be 2828 ddbd
00000170: 0cff 0d3e def7 203e 9f6d 873d e634 833c
00000180: 1cdf c43e aefe 6ebc ed73 7abe d318 fdbd
00000190: 80ed 2b3e d1f8 4f3e 42e1 6f3c 1736 69bc
000001a0: 914f 6cbd 5c95 c6bd 9ca2 843e 7a4b f03e
000001b0: fc57 8a3e 67aa 463b 60c3 433b a66e f83c
000001c0: 5ebf 043c 1799 3bbc e741 08bc 72ae d43d
000001d0: f232 703e 5564 523e 60af 2e3e 04d6 893e
000001e0: 04e9 8a3e 7f7b 4d3e 5e4a 4d3e 4cc9 c73d
000001f0: 5351 693d d5de 123e be60 6e3e fc17 923e
00000200: cffa 0d3f a844 763e 251d 6ebe 15f1 1ebe
00000210: debd 943d 1b0c 8c3d 793f 86bd c2cc 40be
00000220: 6d03 f2bd 3660 21bd 0cb2 bd3b 1c65 d5bc
00000230: d8e7 75bd 0a02 d5bd 4a2a 2fbe 2bfd 58bd
00000240: 4ded fd3d 89d5 f03d 722a db3d c742 23bd
00000250: 2e95 c1bc cee5 2b3e aedc 4b3e fa7a e93d
00000260: 035d fd3d 2075 50bc 0478 11be 1ed7 acbe
00000270: 16ad 50be 0f56 e0bd 66ce 953d 6936 7a3e
00000280: cb65 193f 1135 d03e a26b 6b3e 1830 093e
00000290: 1e3a c6bd 19ef c03d 8ef3 213e 0a88 d53d
000002a0: 2ae4 bd3d b2c5 413e f562 e13d b2b6 0e3e
000002b0: f1b7 493d 8a6c b9bc dfc8 143d 62d7 3b3d
000002c0: 26ef 9cbd 4213 d23c 63e7 343d 7b20 403d
000002d0: fb11 c0bd d529 f4bd de71 ffbd b316 903d
000002e0: e657 f73c 1198 b53d 2a5f ed3d c0a1 ec3c
000002f0: 53e9 4f3c 6325 63bd 99a2 a13b 46e4 5dbc
00000300: 33d6 d2bf 6ea5 93bf 3cc2 69be 87b9 113e
00000310: 0c7c f03d e657 24bc 929a 2abe 95eb d3be
00000320: 037f 14bf b3cd eabe 5f20 acbe 201c c0be
00000330: 7f6f a4be c9c8 46be 50d4 13be 5187 5cbe
00000340: 07d6 1dbe a561 83bc 6c21 16be 8d5f 87be
00000350: d801 a3bd af14 0d3d 16ea 3dbd 711a 8cbc
00000360: a8dd 48bb dcd3 49bd a1d2 87bc a253 22bc
00000370: 67f0 b33c c896 063d 8cbb cd3c 11c0 fbbd
00000380: a7b6 303f 3051 893e 53f0 0fbc df87 0bbc
00000390: 2c10 93bd aa09 5f3e ad7f 9a3e 7e75 1a3e
000003a0: ec4f 5e3e 2f37 c33e 27ee 533e 903d 673e
000003b0: 9fb8 8d3e 13b3 603e a0b6 a5bc 0f3a 44bd
000003c0: 730a 973d 5b2a 623d f5c2 583d ee70 1c3e
000003d0: 179e 973e 71e5 3fbc b834 c4bc ed62 c03c
000003e0: 08ea 423e ee22 f43d 83eb 2f3d 4743 b63d
000003f0: 3dd9 f83d d852 c7bc 0472 263d f58f 823d

fc.bias f4 [4]
0.06482836 0.08932622 0.019129816 -0.13515243
00000000: bbc4 843d aaf0 b63d 22b6 9c3c 6665 0abe
