lab2_extra/LOSO_350epoch_drop0.8_lr0.001.pth (torch, 68654 bytes, 14 tensors)

conv1.weight f4 [22, 1, 22, 16]
-0.0048147053 0.048114967 -0.00013002132 -0.07667748 -0.047416363 -0.020340113 -0.0662007 -0.13872334
-0.040652417 0.022664625 0.079458445 0.05413724 0.031392775 -0.03569248 0.01463212 0.062639035
0.13349396 -0.033626057 -0.07998785 -0.06942621 -0.04721688 0.05555555 0.13948686 0.12284312
0.026907317 0.025137117 -0.13610215 -0.21082532 -0.18314809 -0.060260456 0.02601308 -0.020532016
0.025290946 -0.09960882 -0.08666371 -0.0677122 -0.027149111 0.051440295 0.0051952316 -0.08290821
-0.13356674 -0.15342988 -0.11451726 -0.06797006 0.033285547 0.042362478 0.049498312 -0.009315253
0.10245662 0.16875814 0.10787126 -0.0003600608 -0.027723523 -0.021132346 -0.023187827 0.034477264
0.081738465 -0.048693653 -0.01985997 -0.0048904615 -0.008534052 0.0030497261 -0.048003618 -0.055999063
0.05219995 0.037778806 -0.109213546 -0.1802437 -0.22481103 -0.14306854 -0.003431703 0.020079577
0.11507709 0.016051875 0.069339275 0.10899142 0.035705786 0.067170106 -0.055537976 0.039971597
-0.011649171 0.06810055 -0.036440544 -0.0665081 -0.15403984 -0.15029894 -0.08481728 -0.06833792
0.070347376 0.14193304 0.1184865 0.040740434 0.004997819 -0.092385925 -0.058326703 0.027234418
-0.016484018 -0.030295696 -0.05522726 -0.12082976 -0.13612892 -0.07793974 0.06525064 0.1409673
0.12999023 0.15156852 0.13020492 0.013318928 -0.03823273 -0.12508751 -0.2066993 -0.23348339
-0.08447685 -0.091905504 -0.02617257 0.03188531 0.16594958 0.090603985 -0.044845093 -0.21828772
-0.13693255 -0.006062439 0.09839728 0.044376045 -0.046663236 -0.12516858 -0.09948054 0.0744764
-0.10003731 -0.10485135 -0.046215978 0.12465611 0.12702423 0.009215377 -0.11290981 -0.14139219
-0.18806405 -0.1011776 -0.045696627 -0.023980867 -0.033720024 0.03458824 0.083764516 0.13443977
0.15791184 0.13232109 0.12884976 0.05982786 -0.0020384279 -0.09007637 -0.043237112 0.033162635
0.064285934 0.021271247 -0.015312771 -0.04972141 -0.015847605 -0.024003534 -0.053577702 -0.05687378
-0.0030268324 -0.0068831765 0.032778893 -0.024155535 0.02294901 0.09810796 0.1794306 0.093425244
0.10916202 0.031705458 -0.019665768 0.026472883 0.07106947 0.0005420226 0.088198185 0.17369239
0.045832355 0.16207294 0.15131344 0.036289178 0.034562368 0.029355621 0.0731368 0.01390901
-0.15653457 -0.19084448 -0.15250641 0.025782984 0.08601366 0.1196095 0.07890496 0.13203892
-0.15087774 -0.12882228 -0.0065105506 -0.015016459 -0.030690866 -0.04451633 -0.0052109915 0.015940577
0.015845453 -0.032128125 -0.056443676 -0.022093803 0.038503665 0.059777685 0.020169916 -0.03455573
-0.0028984854 0.028241143 0.025078587 -0.092009336 -0.117576495 -0.1451597 -0.052235063 0.015467122
0.07110443 0.053185273 0.097988755 0.19155572 0.17964526 0.10132925 -0.049138516 -0.20370461
0.059953824 0.019022135 0.017272094 0.037520003 0.1267111 0.040446866 -0.032321543 -0.09646751
-0.031096919 0.061499633 0.039203305 0.059890095 0.1535234 0.11644128 0.15389074 -0.052771028
-0.06381494 0.0031260657 0.1484171 0.14258592 0.16261505 0.10825679 0.017515808 -0.05429538
0.0033347567 -0.031312373 -0.037594087 -0.09750845 -0.024576895 0.038145047 0.10096408 0.098725975
00000000: adc4 9dbb 3314 453d 5556 08b9 1509 9dbd
00000010: a937 42bd 4fa0 a6bc 3c94 87bd 7e0d 0ebe
00000020: 2683 26bd 2aab b93c 1cbb a23d 03bf 5d3d
00000030: b695 003d 4732 12bd 8fbb 6f3c e548 803d
00000040: a4b2 083e 7abb 09bd abd0 a3bd 542f 8ebd
00000050: 7d66 41bd 378e 633d a5d5 0e3e 2c95 fb3d
00000060: bc6c dc3c 5bec cd3c 5d5e 0bbe 98e2 57be
00000070: 2c8b 3bbe abd3 76bd 6219 d53c c232 a8bc
00000080: f52e cf3c b6ff cbbd be7c b1bd b2ac 8abd
00000090: d067 debc 0fb3 523d c33c aa3b c8cb a9bd
000000a0: b8c5 08be b91c 1dbe 0688 eabd e333 8bbd
000000b0: 6d56 083d 4784 2d3d bebe 4a3d 019f 18bc
000000c0: c7d4 d13d efce 2c3e 9beb dc3d 8bc6 bcb9
000000d0: 711c e3bc be1d adbc 66f4 bdbc 0838 0d3d
000000e0: 7f66 a73d ff72 47bd 60b1 a2bc 2a40 a0bb
000000f0: 69d2 0bbc eadd 473b 719f 44bd 465f 65bd
00000100: 9dcf 553d f3bd 1a3d 5aab dfbd ce91 38be
00000110: dd34 66be 8f80 12be 6ce6 60bb ed7d a43c
00000120: 8aad eb3d 397f 833c c001 8e3d e536 df3d
00000130: 3b40 123d 7b90 893d ca7b 63bd 42b9 233d
00000140: 2adc 3ebc 4d78 8b3d ae42 15bd 6635 88bd
00000150: 9fbc 1dbe f7e7 19be afb4 adbd c0f4 8bbd
00000160: 4912 903d e556 113e 0da9 f23d 71df 263d
00000170: bfc4 a33b d534 bdbd fbe7 6ebd b71a df3c
00000180: 7e09 87bc ae2e f8bc fb35 62bd 9875 f7bd
00000190: 6165 0bbe df9e 9fbd 21a2 853d bb59 103e
000001a0: 291c 053e c734 1b3e 7054 053e a237 5a3c
000001b0: ec99 1cbd f116 00be fba8 53be 4516 6fbe
000001c0: 3302 adbd f438 bcbd dc67 d6bc 2c9a 023d
000001d0: b0ee 293e 958e b93d 7daf 37bd d186 5fbe
000001e0: 0c38 0cbe 6da7 c6bb 8384 c93d a8c3 353d
000001f0: f321 3fbd 312c 00be 74bc cbbd 1587 983d
00000200: 5ce0 ccbd 4ebc d6bd f74c 3dbd b44b ff3d
00000210: a412 023e 18fc 163c 423d e7bd 1dc9 10be
00000220: dd93 40be 3436 cfbd 632c 3bbd 8673 c4bc
00000230: 021e 0abd 66ac 0d3d bb8c ab3d 94aa 093e
00000240: a4b3 213e 2e7f 073e 31f1 033e 0f0e 753d
00000250: 2597 05bb f679 b8bd 6619 31bd 8bd5 073d
00000260: 58a8 833d 0a41 ae3c 6be2 7abc ada8 4bbd
00000270: d6d2 81bc 0fa3 c4bc 4b74 5bbd 7bf4 68bd
00000280: d25d 46bb 458c e1bb 2943 063d d4e1 c5bc
00000290: 90ff bb3c d3ec c83d a8bc 373e bc55 bf3d
000002a0: 5690 df3d 95dd 013d 1b1a a1bc a9dd d83c
000002b0: df8c 913d 8516 0e3a 40a1 b43d 6bdc 313e
000002c0: b5ba 3b3d 73f6 253e e9f1 1a3e f6a3 143d
000002d0: 4591 0d3d 337b f03c bfc8 953d 9ee2 633c
000002e0: 994a 20be bc6c 43be a42a 1cbe d636 d33c
000002f0: ee27 b03d d3f5 f43d ec98 a13d 3635 073e
00000300: b27f 1abe fde9 03be 7556 d5bb 9807 76bc
00000310: 696b fbbc c156 36bd f7c0 aabb d095 823c
00000320: 53ce 813c c898 03bd 7c31 67bd 10fe b4bc
00000330: 05b6 1d3d 72d9 743d 613b a53c 4f8a 0dbd
00000340: 84f4 3dbb f859 e73c 9c71 cd3c 646f bcbd
00000350: f2cb f0bd bfa4 14be 6ff4 55bd d069 7d3c
00000360: 339f 913d cdd8 593d 54ae c83d 2f27 443e
00000370: edf4 373e b685 cf3d 7845 49bd f197 50be
00000380: 2492 753d 4fd4 9b3c 357e 8d3c 93ae 193d
00000390: 8ec0 013e 9dab 253d 9863 04bd c290 c5bd
000003a0: f7be febc 0ae7 7b3d a593 203d 514f 753d
000003b0: 3d35 1d3e c478 ee3d 8995 1d3e 6f26 58bd
000003c0: 68b1 82bd aede 4c3b a7fa 173e 0b02 123e
000003d0: 8f84 263e bcb5 dd3d 507d 8f3c d564 5ebd
000003e0: ef8b 5a3b 6741 00bd 42fc 19bd 83b2 c7bd
000003f0: 7c55 c9bc fb3d 1c3d 41c6 ce3d d830 ca3d

conv1.bias f4 [22]
8.255189e-05 -1.9327477e-05 -8.257703e-05 2.6148806e-05 5.8168484e-05 -0.00012581678 -8.849493e-06 -1.586847e-05
2.173256e-05 -0.00014322504 -6.1977065e-05 -2.202047e-06 -0.00017674318 2.8127088e-05 0.00011307045 1.4479684e-05
0.00023339479 4.950938e-05 6.830332e-05 1.0418865e-05 -0.00011323534 -2.3878341e-05
00000000: b51f ad38 7121 a2b7 352d adb8 225a db37
00000010: eff9 7338 afed 03b9 4878 14b7 481d 85b7
00000020: 514e b637 ae2e 16b9 aff9 81b8 e1c6 13b6
00000030: 2354 39b9 76f2 eb37 3c20 ed38 c5ed 7237
00000040: 70bb 7439 4ba8 4f38 113e 8f38 afcc 2e37
00000050: c378 edb8 594e c8b7

bn1.weight f4 [22]
0.8268899 0.8240054 0.8953358 1.078945 1.0053598 0.8979873 0.9055673 0.9209277
0.7965018 1.0443603 0.9734237 0.9529625 0.9014535 0.8008752 1.1696275 0.8041458
0.96745056 0.71529174 0.9713156 0.88059247 0.8958871 0.87967736
00000000: 0eaf 533f 05f2 523f ba34 653f df1a 8a3f
00000010: a1af 803f 7fe2 653f 42d3 673f ebc1 6b3f
00000020: 8be7 4b3f 99ad 853f 4c32 793f 5af5 733f
00000030: a8c5 663f 2806 4d3f 5bb6 953f 80dc 4d3f
00000040: d7aa 773f 5c1d 373f 24a8 783f 826e 613f
00000050: db58 653f 8932 613f

bn1.bias f4 [22]
-0.15145129 -0.17138284 -0.004993064 -0.13214886 0.2713683 0.13854185 0.36639544 0.2890235
0.076047026 0.0033097556 -0.08769372 -0.091701925 -0.7693376 0.0564369 0.0010587929 -0.38097084
-0.18853903 0.42999807 0.20851296 -0.07489436 0.36773956 0.26707932
00000000: 0c16 1bbe fc7e 2fbe db9c a3bb 0852 07be
00000010: c9f0 8a3e eadd 0d3e 2f98 bb3e e3fa 933e
00000020: 8bbe 9b3d 7ce8 583b c498 b3bd 38ce bbbd
00000030: 4ff3 44bf 612a 673d 32c7 8a3a 9c0e c3be
00000040: 6010 41be b528 dc3e 6c84 553e 3762 99bd
00000050: 5c48 bc3e 9fbe 883e

bn1.running_mean f4 [22]
-0.0037015956 0.0025348188 -0.0002704956 -0.0009955869 0.0016183045 -0.00083425984 0.0020888052 0.0011067834
-0.0006087535 0.0004692929 0.0019099839 -0.00023042315 -0.0016169662 3.3237706e-05 -0.000853022 -0.0010298938
-8.508385e-05 0.0023420476 0.0039726123 -0.00063207385 -0.00024827023 -0.0014001431
00000000: 7896 72bb 341f 263b 4ed1 8db9 5a7e 82ba
00000010: 4a1d d43a 3bb2 5aba 56e4 083b 7d11 913a
00000020: c194 1fba 6d0b f639 6d58 fa3a be9d 71b9
00000030: 62f0 d3ba b768 0b38 569d 5fba 80fd 86ba
00000040: 0b6f b2b8 0a7d 193b b02c 823b c2b1 25ba
00000050: 442a 82b9 0285 b7ba

bn1.running_var f4 [22]
1.5583271 1.4711804 0.48227027 0.3607566 0.53482705 0.7572462 0.74597746 0.88735485
0.5197333 1.040491 0.64591974 0.4279017 0.9430168 0.56444854 0.33827677 0.9906369
0.9731734 1.3406055 0.7234357 0.34077528 0.70612293 1.2440261
00000000: 4377 c73f a44f bc3f 21ec f63e 17b5 b83e
00000010: 6dea 083f e3da 413f 61f8 3e3f b029 633f
00000020: 3e0d 053f cf2e 853f ff5a 253f ee15 db3e
00000030: 8d69 713f b37f 103f 9d32 ad3e 619a 7d3f
00000040: e421 793f f698 ab3f 1533 393f 197a ae3e
00000050: 79c4 343f 3f3c 9f3f

conv2.weight f4 [20, 22, 1, 12]
-0.038938783 -0.016381696 0.06457414 0.023937035 0.060755003 -0.0035371971 -0.06621647 -0.034381043
-0.12958473 -0.084099114 -0.06457306 0.002510304 0.15296027 0.08061595 0.07627538 0.07840712
-0.007492045 0.00198162 -0.034754142 -0.027164085 0.004215538 0.03341531 0.10260427 0.10894378
-0.27389768 -0.11876623 -0.008399903 0.0296927 0.07719122 0.0145896245 -0.044336285 -0.03992638
-0.08693632 -0.038382772 -0.03936734 -0.11624325 -0.10188229 0.012164178 -0.026774775 0.025527695
0.027797258 0.11573621 0.17782128 0.18980886 0.12489821 0.11582804 -0.0816626 -0.32991225
-0.18826774 -0.092979155 -0.013975875 -0.0010846755 -0.09704677 -0.006358739 -0.07227184 0.009791033
0.012887497 -0.0060478314 -0.09445879 -0.014653987 -0.014447194 -0.020457815 -0.08467875 -0.059231807
-0.06268387 -0.05185523 0.028958997 0.05475142 0.11345811 0.11636412 0.0883819 0.04657698
-0.054802284 0.025034823 0.06538712 0.068268195 0.13841833 0.098028034 0.03696622 0.026905773
-0.023478707 -0.028952759 -0.07651874 -0.061963648 -0.040322583 -0.08768419 0.016308969 0.05326182
0.059637308 0.01947771 0.008822117 0.00923767 0.013011275 0.015000601 -0.024752751 -0.10109996
-0.05084403 0.0035788498 0.03712737 0.023761647 0.048116494 0.01517008 -0.002787833 -0.078298874
-0.084234014 -0.1172992 -0.12866583 -0.004300928 -0.015312019 -0.0032476597 0.078206904 0.004813674
0.07067631 -0.045550007 -0.03437575 0.051589537 -0.05949768 -0.024541281 -0.08791002 -0.088692136
0.29496124 -0.00040413786 0.0019579984 -0.13368115 -0.09969995 -0.0651315 -0.006388604 0.014188207
0.055225484 0.026565826 0.09480284 0.060564023 -0.06368678 -0.15576224 -0.18622088 -0.0710673
-0.04209527 0.07602605 0.014493103 -0.058649797 -0.102927715 -0.07143276 -0.10609781 -0.15734395
-0.080058634 -0.054933295 -0.010011375 0.060414486 -0.009649545 -0.013068131 0.00061953295 0.021194838
-0.002318892 0.015897619 0.038703237 0.0090716295 0.016361624 -0.04020674 -0.0941183 -0.011454555
-0.05539613 0.049720585 0.06746039 0.07304934 0.07365961 0.12327356 0.006946446 -0.16953062
-0.013421444 -0.022934621 -0.050466612 -0.010208869 0.00904063 -0.018288543 -0.047855854 0.009822155
0.03594337 -0.026714444 -0.027301064 0.055925403 -0.062219024 0.040384993 -0.016011138 0.07497615
0.08522902 0.047622845 -0.11209998 -0.09911356 -0.15604839 -0.123927765 -0.049087584 -0.045625612
0.07279397 0.08460365 -0.014437891 -0.020716984 -0.05598889 -0.031715576 -0.032235865 0.02936669
0.102174364 0.050010342 0.08127781 0.014837425 -0.13717416 -0.12268511 -0.036536776 -0.033708308
0.009353657 0.04623676 0.044794947 -0.00084070093 -0.011590522 0.03884033 -0.038458753 -0.035143677
0.42105296 0.2283281 0.09243497 -0.02870745 -0.19127594 -0.21020655 -0.1152643 -0.043263502
0.15943268 0.18922222 0.3093111 0.26858985 0.1022049 -0.08796254 -0.09528615 -0.13596654
-0.08797663 0.06800189 0.07583118 0.12177058 0.04175001 0.00067287055 -0.014447985 -0.11570085
0.151412 0.058064792 -0.025585527 -0.033972714 -0.064877436 -0.048253227 -0.02257161 -0.0305554
-0.034143593 -0.04445403 -0.1135956 -0.075237006 0.17570157 0.073451556 -0.015090234 -0.14264916
00000000: 467e 1fbd e832 86bc 723f 843d 9a17 c43c
00000010: 3dda 783d 52d0 67bb 809c 87bd 23d3 0cbd
00000020: dcb1 04be 283c acbd e13e 84bd ea83 243b
00000030: 9ea1 1c3e fa19 a53d 4436 9c3d ea93 a03d
00000040: d47f f5bb 11de 013b 5c5a 0ebd 3787 debc
00000050: 7f22 8a3b 7ede 083d 3022 d23d eb1d df3d
00000060: 513c 8cbe b63b f3bd bf9f 09bc 1b3e f33c
00000070: 6e16 9e3d 5209 6f3c f799 35bd d889 23bd
00000080: ab0b b2bd 4137 1dbd a63f 21bd f110 eebd
00000090: a9a7 d0bd 434c 473c c656 dbbc 751f d13c
000000a0: 13b7 e33c 1b07 ed3d c816 363e 415d 423e
000000b0: a2ca ff3d 4037 ed3d b93e a7bd 42ea a8be
000000c0: 42c9 40be db6b bebd 12fb 64bc ac2b 8eba
000000d0: 75c0 c6bd f85c d0bb 4203 94bd 926a 203c
000000e0: 1526 533c e32c c6bb 9c73 c1bd 4717 70bc
000000f0: ecb3 6cbc 2697 a7bc 0d6c adbd 0d9d 72bd
00000100: 6760 80bd 2666 54bd 6b3b ed3c 0643 603d
00000110: ba5c e83d 5050 ee3d 9201 b53d 81c7 3e3d
00000120: 5c78 60bd d415 cd3c afe9 853d 32d0 8b3d
00000130: 89bd 0d3e ecc2 c83d e469 173d 7f69 dc3c
00000140: 6b56 c0bc 562e edbc dbb5 9cbd 98cd 7dbd
00000150: 4b29 25bd c593 b3bd 639a 853c 1129 5a3d
00000160: 4046 743d b88f 9f3c a48a 103c 9959 173c
00000170: 3e2d 553c 15c5 753c 48c6 cabc 7f0d cfbd
00000180: d441 50bd 238b 6a3b de12 183d c9a7 c23c
00000190: cd15 453d ed8b 783c 14b4 36bb 295b a0bd
000001a0: e282 acbd 903a f0bd fac0 03be cdee 8cbb
000001b0: 43df 7abc b0d6 54bb f12a a03d 06bc 9d3b
000001c0: bebe 903d a592 3abd 96cd 0cbd 8d4f 533d
000001d0: d7b3 73bd cc0a c9bc 2b0a b4bd 39a4 b5bd
000001e0: 2905 973e 77e2 d3b9 c351 003b b6e3 08be
000001f0: 7d2f ccbd aa63 85bd 7f57 d1bb a775 683c
00000200: 1e34 623d 93a0 d93c fe27 c23d fb11 783d
00000210: 376e 82bd 2380 1fbe b0b0 3ebe bc8b 91bd
00000220: 176c 2cbd 8cb3 9b3d 7b74 6d3c c53a 70bd
00000230: c4cb d2bd 574b 92bd cf49 d9bd c61e 21be
00000240: c8f5 a3bd bc01 61bd c006 24bc 2e75 773d
00000250: 2019 1ebc b71b 56bc 2768 223a cca0 ad3c
00000260: 8df8 17bb b93b 823c 4987 1e3d 2ca1 143c
00000270: d008 863c d3af 24bd 18c1 c0bd e3ab 3bbc
00000280: 0de7 62bd d0a7 4b3d ac28 8a3d e49a 953d
00000290: d9da 963d d976 fc3d 039f e33b 6f99 2dbe
000002a0: 9ee5 5bbc 63e1 bbbc 14b6 4ebd 1a43 27bc
000002b0: 271f 143c dbd1 95bc 8004 44bd 1bed 203c
000002c0: 5b39 133d 40d8 dabc 7ba6 dfbc 0912 653d
000002d0: 60d9 7ebd bc6a 253d ca29 83bc 198d 993d
000002e0: 8d8c ae3d 2c10 433d ad94 e5bd 0dfc cabd
000002f0: 26cb 1fbe d7cd fdbd 1010 49bd ece1 3abd
00000300: 0115 953d ae44 ad3d e78c 6cbc aab6 a9bc
00000310: 9b54 65bd 31e8 01bd c109 04bd 6a92 f03c
00000320: cb40 d13d a5d7 4c3d fb74 a63d ac18 733c
00000330: 6277 0cbe 5542 fbbd 96a7 15bd b911 0abd
00000340: 1540 193c c262 3d3d e87a 373d 7c62 5cba
00000350: 2ce6 3dbc 0a17 1f3d ed86 1dbd d1f2 0fbd
00000360: 4194 d73e d7ce 693e 8c4e bd3d e32b ebbc
00000370: d7dd 43be 6340 57be b00f ecbd 1235 31bd
00000380: 5242 233e 78c3 413e 065e 9e3e 9c84 893e
00000390: cd50 d13d b425 b4bd 6325 c3bd d03a 0bbe
000003a0: 172d b4bd 9344 8b3d 614d 9b3d db62 f93d
000003b0: 0f02 2b3d 9463 303a 3eb7 6cbc 91f4 ecbd
000003c0: bf0b 1b3e 59d5 6d3d bd98 d1bc f926 0bbd
000003d0: 76de 84bd 2da5 45bd 19e8 b8bc 514f fabc
000003e0: 27da 0bbd 6e15 36bd cfa4 e8bd dc15 9abd
000003f0: 1deb 333e c56d 963d 073d 77bc 9f12 12be

conv2.bias f4 [20]
-1.8548847e-07 -1.01136475e-05 -1.9884643e-05 -1.8607201e-05 5.1719166e-05 2.5621948e-05 5.1168623e-05 4.0833726e-05
2.6533142e-05 7.752003e-06 -6.1710225e-06 4.5222147e-05 -9.000784e-06 1.1797124e-05 2.1952967e-05 -6.5561624e-05
5.828589e-05 3.1410735e-05 -8.6922355e-06 -0.00015727455
00000000: af2a 47b4 c9ad 29b7 f2cd a6b7 a916 9cb7
00000010: 08ed 5838 b7ee d637 e49d 5638 e144 2b38
00000020: 7d93 de37 990e 0237 ae10 cfb6 e9ac 3d38
00000030: 1302 17b7 43ec 4537 a327 b837 217e 89b8
00000040: ff77 7438 05bf 0338 ded4 11b7 11ea 24b9

bn2.weight f4 [20]
0.8294403 0.8062718 0.72232497 0.90433156 0.79803807 0.8539327 0.83646566 0.79344696
0.7659475 0.7380344 0.82687694 0.8419774 0.88740814 0.86275184 0.88676745 0.7848815
0.8244311 0.82199144 0.84897655 0.80154324
00000000: 3356 543f d467 4e3f 4aea 383f 4682 673f
00000010: 394c 4c3f 559b 5a3f 9d22 563f 571f 4b3f
00000020: 2315 443f d3ef 3c3f 35ae 533f d58b 573f
00000030: 2e2d 633f 4edd 5c3f 3103 633f feed 483f
00000040: eb0d 533f 086e 523f 8756 593f f031 4d3f

bn2.bias f4 [20]
-0.0029754592 -0.013572413 0.013982822 -0.0142410975 0.00230428 0.0020476414 0.024121514 -0.045668755
-0.0016109117 0.03860549 -0.025030492 -0.008986561 -0.012490459 -0.018691484 0.014014579 -0.047042206
0.0023006173 -0.031182125 0.007813683 0.012359962
00000000: ecff 42bb d35e 5ebc 3518 653c 7e53 69bc
00000010: 6703 173b b931 063b 7b9a c53c 290f 3bbd
00000020: 3a25 d3ba ca20 1e3d bf0c cdbc 5e3c 13bc
00000030: c8a4 4cbc e21e 99bc 689d 653c 54af 40bd
00000040: f4c5 163b a871 ffbc f604 003c 7081 4a3c

bn2.running_mean f4 [20]
0.06712306 0.067858756 0.6408713 -0.54955196 2.3243961 0.098604664 0.038157657 -2.3630764
0.10784949 -0.4110083 0.2068168 0.2437046 0.095708966 0.030421527 -0.22431341 1.2278323
1.2902554 -1.330402 0.08756915 1.5994053
00000000: d177 893d 88f9 8a3d 2410 243f 70af 0cbf
00000010: e8c2 1440 3ef1 c93d 344b 1c3d a53c 17c0
00000020: 32e0 dc3d ae6f d2be c9c7 533e b38d 793e
00000030: 1003 c43d 9136 f93c 6ab2 65be 9c29 9d3f
00000040: 1727 a53f 9d4a aabf 7457 b33d 50b9 cc3f

bn2.running_var f4 [20]
6.1302514 4.2434654 4.4037356 6.257511 4.323951 7.1587386 4.070583 3.236806
2.734539 3.331519 4.2559314 2.8300288 4.3607655 5.934149 5.315881 2.5884845
3.8226762 3.0967638 4.7593546 2.7193573
00000000: 052b c440 78ca 8740 67eb 8c40 883d c840
00000010: ce5d 8a40 6314 e540 3742 8240 d427 4f40
00000020: b002 2f40 9b37 5540 9730 8840 311f 3540
00000030: 648b 8b40 8ce4 bd40 b21b aa40 bba9 2540
00000040: baa6 7440 6131 4640 a24c 9840 f309 2e40

fc.weight f4 [4, 640]
0.23321295 0.1807474 0.06314075 0.031490386 -0.007543199 0.10477258 0.14827222 0.018792555
0.029570803 0.051185258 0.023417788 0.052236475 0.03491697 0.012703129 -0.006998002 0.026460748
0.016136779 0.029380191 0.022972222 0.07393331 0.045185395 -0.01498622 -0.004676944 0.06440412
0.05330739 -0.0068283337 0.025702657 0.02856254 0.037422158 -0.026590912 0.013510363 -0.03683557
-0.13006899 -0.05553119 0.0044808877 0.0035050835 -0.012305652 -0.038973078 -0.013556144 0.013422741
0.03804864 0.004654357 -0.039828837 -0.032779563 -0.02521003 -0.029515833 0.012755339 0.059654497
0.035356708 -0.028693449 0.003931111 -0.07542034 -0.0731861 0.030890413 0.019090803 -0.040488694
-0.112310864 -0.09917169 -0.040071648 0.02295081 0.032613363 0.031390343 0.03340505 -0.04424778
0.25408128 0.13394073 -0.005957405 -0.0035179388 0.008329618 0.051621094 0.035167508 -0.01355312
-0.043215968 0.08425231 0.089013085 0.10174212 0.01266745 0.05172322 0.067120455 0.009189263
0.033066798 0.054368004 0.06385333 0.050407995 0.07486716 0.090020664 0.038583282 0.007751405
-0.024537304 0.04338324 0.08027955 0.071129635 0.09205254 0.09509441 0.044236436 0.11126689
0.15873514 0.020033741 -0.102622226 -0.06370956 -0.017824925 0.09249148 0.13592592 0.053361565
-0.029631497 -0.0328662 0.030776948 0.043636795 0.042085826 0.0321234 0.04189342 0.04346784
0.02781444 0.037213508 0.009790246 0.040814657 0.0157684 -0.01108867 0.018415054 0.033548087
0.038310915 0.036945783 0.0912616 -0.041830186 -0.096502535 0.04079638 0.07872199 0.07127198
0.27457982 0.05291361 -0.05492213 0.006106178 0.06431723 0.07611325 0.06403611 0.07516832
0.00025698094 0.04366506 0.1476771 0.1221309 0.053011615 0.08675551 0.065429665 0.07976745
0.057192426 0.078773744 0.044597052 0.09268875 0.1139133 0.08556515 0.08389581 0.023499113
0.0060761636 -0.020469695 -0.007113333 0.059915707 0.101072304 0.10549343 0.036922283 0.06384486
-0.49845853 -0.26372278 -0.06143254 -0.012030375 -0.017571248 -0.07641274 -0.06973267 -0.09543633
0.007109777 0.0043622833 -0.008924188 -0.14294106 -0.07392692 -0.046020277 0.010794483 0.008687806
0.07006043 -0.022646224 -0.06576789 -0.13685076 -0.08631192 -0.0067233667 -0.015241398 -0.043766245
-0.04089927 -0.15781422 -0.15183806 -0.036591604 -0.012829368 0.013415844 -0.022187395 -0.12310309
0.032707617 0.005286917 -0.04650556 -0.029547926 -0.050537627 -0.049088825 -0.013461395 -0.00037310325
0.070786744 0.114979945 0.08714225 0.00062105135 -0.039186485 -0.014190368 0.0071549886 0.03475096
0.084313475 0.09673134 0.080337204 0.014703336 -0.014806728 0.0060447888 0.004936858 0.020978121
0.07723401 0.0832085 -0.0027377375 0.03057524 0.02465849 0.10071454 0.10624461 0.1489889
0.14776827 0.054609247 0.016048642 0.033225067 0.04713948 -0.040615153 -0.0071071084 -0.070302814
-0.063373744 -0.061933506 -0.04740733 -0.073544845 0.041899003 0.005113358 0.03238313 -0.028919699
0.020056093 -0.0034752479 -0.019080251 0.031429484 -0.01839651 -0.0008136347 0.014375059 0.023379754
0.027101645 0.01799866 0.014586468 0.046957657 0.06849511 -0.007797683 0.0035163464 0.012500165
00000000: 60cf 6e3e d915 393e f04f 813d 10fc 003d
00000010: f12c f7bb 0293 d63d acd4 173e d8f2 993c
00000020: 783e f23c a2a7 513d a9d6 bf3c eaf5 553d
00000030: 1905 0f3d c920 503c 7f4f e5bb 36c4 d83c
00000040: 4731 843c baae f03c 3e30 bc3c 596a 973d
00000050: 5214 393d c388 75bc 0d41 99bb 4fe6 833d
00000060: da58 5a3d 37c0 dfbb 618e d23c fdfb e93c
00000070: fa47 193d 2fd5 d9bc 925a 5d3c e5e0 16bd
00000080: ce30 05be ac74 63bd 69d4 923b 8bb5 653b
00000090: a59d 49bc 3ca2 1fbd 971a 5ebc 0eeb 5b3c
000000a0: e4d8 1b3d 9483 983b 9023 23bd dd43 06bd
000000b0: 4485 cebc 30cb f1bc c5fb 503c 4658 743d
000000c0: 32d2 103d 860e ebbc 8dd0 803b fb75 9abd
000000d0: 98e2 95bd e40d fd3c 5164 9c3c 79d7 25bd
000000e0: 3d03 e6bd 871a cbbd 2b22 24bd 5603 bc3c
000000f0: 9795 053d 2993 003d bcd3 083d 293d 35bd
00000100: f116 823e c227 093e 5636 c3bb 388d 66bb
00000110: f378 083c a470 533d ce0b 103d e80d 5ebc
00000120: 3a03 31bd 7a8c ac3d 7e4c b63d 2c5e d03d
00000130: 238b 4f3c badb 533d 7376 893d 908e 163c
00000140: 0d71 073d fcb0 5e3d 89c5 823d 9d78 4e3d
00000150: f453 993d c15c b83d 8109 1e3d 7fff fd3b
00000160: 7502 c9bc a0b2 313d 9b69 a43d 6aac 913d
00000170: 0b86 bc3d dcc0 c23d 4431 353d e5df e33d
00000180: 778b 223e cd1d a43c 9a2b d2bd 287a 82bd
00000190: 9405 92bc 2c6c bd3d 2a30 0b3e a891 5a3d
000001a0: c1bd f2bc b59e 06bd f01f fc3c 7fbc 323d
000001b0: 3062 2c3d d493 033d 6f98 2b3d 550b 323d
000001c0: 1cdb e33c 316d 183d 4567 203c 452d 273d
000001d0: bb2c 813c 41ad 35bc 2bdb 963c b869 093d
000001e0: e8eb 1c3d 7654 173d 5de7 ba3d 2156 2bbd
000001f0: 1fa3 c5bd 1b1a 273d ff38 a13d 0bf7 913d
00000200: ba95 8c3e f1bb 583d 07f6 60bd 5516 c83b
00000210: c0b8 833d 43e1 9b3d 5d25 833d d9f1 993d
00000220: 66bb 8639 22da 323d aa38 173e c41f fa3d
00000230: b522 593d dfac b13d fdff 853d 1e5d a33d
00000240: 9b42 6a3d 2154 a13d 66ab 363d 99d3 bd3d
00000250: 604b e93d c83c af3d 91d1 ab3d 3681 c03c
00000260: 8e1a c73b 10b0 a7bc f616 e9bb 2c6a 753d
00000270: fffe ce3d f00c d83d d23b 173d 18c1 823d
00000280: f535 ffbe ac06 87be b0a0 7bbd 0d1b 45bc
00000290: 94f1 8fbc 487e 9cbd 01d0 8ebd 1f74 c3bd
000002a0: 22f9 e83b 7cf1 8e3b c236 12bc 245f 12be
000002b0: ff66 97bd c27f 3cbd 58db 303c 4d57 0e3c
000002c0: d87b 8f3d 9384 b9bc 51b1 86bd 9b22 0cbe
000002d0: 4ec4 b0bd b04f dcbb 0eb7 79bc 3c44 33bd
000002e0: fe85 27bd 0d9a 21be 707b 1bbe 14e1 15bd
000002f0: 4532 52bc 21ce 5b3c 57c2 b5bc 791d fcbd
00000300: 6cf8 053d e03d ad3b 9d7c 3ebd 7e0e f2bc
00000310: 8b00 4fbd 5d11 49bd 2f8d 5cbc 129d c3b9
00000320: a4f8 903d 9b7a eb3d a377 b23d 0dce 223a
00000330: 0282 20bd b87e 68bc 6574 ea3b 0657 0e3d
00000340: 8bac ac3d 151b c63d d587 a43d 43e6 703c
00000350: eb97 72bc 5d13 c63b 5ec5 a13b 4fda ab3c
00000360: dd2c 9e3d 3869 aa3d 9d6b 33bb ed78 fa3c
00000370: 9a00 ca3c 6d43 ce3d c696 d93d 8c90 183e
00000380: 9150 173e f2ad 5f3d 7178 833c 0217 083d
00000390: 5415 413d 135c 26bd bfe2 e8bb ecfa 8fbd
000003a0: 18ca 81bd fdad 7dbd 302e 42bd ae9e 96bd
000003b0: 4a9e 2b3d f58d a73b 2ca4 043d 01e9 ecbc
000003c0: ad4c a43c fcc0 63bb 304e 9cbc 34bc 003d
000003d0: 47b4 96bc 1a4a 55ba 5e85 6b3c e686 bf3c
000003e0: 4504 de3c ed71 933c 15fc 6e3c ac56 403d
000003f0: 2a47 8c3d b583 ffbb 8172 663b 7ecd 4c3c

fc.bias f4 [4]
0.005325285 -0.040424243 -0.026801445 0.033733077
00000000: ba7f ae3b e493 25bd b48e dbbc b22b 0a3d
