lab2/sccnet_model.pth (torch, 31370 bytes, 14 tensors)

conv1.weight f4 [22, 1, 22, 1]
000000 3b 00 bf bc 9b 86 81 3e 20 11 46 be 90 25 ab bd
       -0.02331554 0.25298008 -0.1934247 -0.08356774
000010 46 d0 12 be 2f a2 06 be f2 f3 ad 3d 21 4b 11 be
       -0.14337263 -0.13147806 0.084937945 -0.14188816
000020 ef 6d 01 3d 5b f2 84 3e 25 0a fa 3c 16 41 05 3e
       0.03159898 0.25966153 0.030522415 0.1301311
000030 02 63 d2 3d 33 cc 8c be 1e 42 28 be ff a6 8f 3d
       0.102727905 -0.27499542 -0.16431472 0.07014274
000040 c4 0a 54 be 8a e4 2b 3d 96 eb 67 bd d3 db 4d 3e
       -0.20707232 0.041966 -0.056621157 0.20103388
000050 8f 2e 6f bd dd 52 2f 3d ee b8 19 bd b6 78 87 bd
       -0.05839401 0.042803634 -0.03752988 -0.06614821
000060 9d 25 c6 3d 84 4a bd bc 69 71 cd bc da f8 24 3e
       0.09675143 -0.02310682 -0.025078492 0.16110554
000070 05 92 d3 3c 63 7e 91 be 29 6d 8f bd 99 0f f5 bd
       0.025826463 -0.28416738 -0.070032425 -0.11965866
000080 18 b9 f9 3d bf d4 79 3e f1 a4 47 be a5 97 b7 3d
       0.12193507 0.24397562 -0.19496514 0.08964471
000090 03 93 11 3e e0 75 c8 bd 7c 4b 1b 3e 4f 2d 20 3e
       0.14216237 -0.09788108 0.15165514 0.15642284
0000a0 22 d1 8f 3d 4c 8d 1d be 70 94 28 3d a2 2b 8b be
       0.07022311 -0.15385932 0.041157186 -0.27181727
0000b0 5b bf 38 3d cf d6 05 be 1b 0b a5 3e a4 30 0d be
       0.045104366 -0.13070224 0.32235035 -0.13788086
0000c0 e3 af 0a 3e ef 85 37 be 56 d1 2b be d8 70 05 be
       0.13543658 -0.17922185 -0.16779074 -0.13031328
0000d0 13 08 83 bd 35 b5 c6 3d ea ec bb 3d ad 7a d4 3d
       -0.063980244 0.09702531 0.09176047 0.10374961
0000e0 d0 57 cd ba 87 8e 26 3d 4a bb 3e be 40 dc 94 3d
       -0.0015666429 0.04066327 -0.18626133 0.07268572
0000f0 89 68 25 be 82 c9 93 bd d3 af 7d 3e 64 57 d8 ba
       -0.16153158 -0.07216169 0.24774103 -0.0016505537
000100 18 ee 52 bd 7a 2d fb 3d dc 89 99 bd fe 2d 5b be
       -0.051496595 0.12264533 -0.07496998 -0.21404263
000110 03 8e 32 be 56 41 67 bc fb ea 11 3e ee 9e 84 3e
       -0.17436986 -0.014114698 0.14249794 0.25902504
000120 68 d8 70 3d 48 01 0a be 41 f3 80 3d 96 6b 95 3e
       0.05880013 -0.13477051 0.06296397 0.29183644
000130 2f c8 66 3b de a5 d6 bc f8 0e 06 be 28 85 68 be
       0.0035214534 -0.026202139 -0.13091648 -0.22707045
000140 d4 52 b0 bc 25 3a b5 3d 5f 5c 18 3d 7e f4 6f 3d
       -0.02152387 0.08848981 0.037197467 0.058582775
000150 7b bc 7c be 6e 60 32 3e 0d f9 03 be 99 ec b2 3b
       -0.24681275 0.17419598 -0.12887974 0.0054603335
000160 39 42 26 be 7b f7 de 3d cf 73 0b 3d b3 fd 58 3d
       -0.162362 0.10887047 0.03404599 0.05297632
000170 cf 76 c3 bd 40 a1 72 bd c8 e8 8d be 0a f7 48 3e
       -0.09544145 -0.05923581 -0.2771666 0.19625488
000180 07 e3 a4 3d 86 03 81 bc e0 cd 5b be bd 84 29 3e
       0.080511145 -0.01574875 -0.21465254 0.16554542
000190 59 9b 38 3e f0 ad 3e 3d b8 2d 94 3d cf 1b 3b be
       0.1802801 0.0465526 0.07235283 -0.18272327
0001a0 0d b0 e3 bd a3 f9 5b be 5d 1e 80 3e b5 f3 cf 3d
       -0.111175634 -0.21481948 0.25023165 0.10153905
0001b0 3f bc 1d bc 9d aa 9b bd fb 47 7c bd 5c 26 7d 3e
       -0.009627401 -0.07600901 -0.061592083 0.24721664
0001c0 36 bc 85 bd cf ff a6 3e 01 6a e3 3d 0f b8 e1 3d
       -0.06530039 0.3261704 0.11104203 0.110214345
0001d0 be 1a 4a 3e d6 6e ad bd d8 d6 90 3d f8 eb 2a be
       0.19736764 -0.08468406 0.07072228 -0.16691577
0001e0 b1 1d 2e 3e c6 ac 13 be 2e 71 71 bd 30 9e 0b 3e
       0.17003514 -0.14421377 -0.058945827 0.13634562
0001f0 56 51 d5 bc 99 0a 6d 3d a2 c0 92 3d 63 c5 32 3e
       -0.02603976 0.057871435 0.07165648 0.1745811
000200 8c a1 cf bc 03 73 b1 3c eb 0f 46 be fb a7 7e bd
       -0.025345586 0.021661287 -0.1934201 -0.062171917
000210 11 3d 8c 3e 9f 7c 9f bd 35 58 0b be 0a 72 34 3e
       0.2739034 -0.077874415 -0.13607867 0.17621627
000220 95 09 70 3e c3 9c 61 3e 34 ee 04 3e 14 70 84 bd
       0.23441155 0.22032456 0.12981492 -0.0646669
000230 87 18 a1 bc 91 23 11 be 6a a6 22 be 6f 57 e5 bc
       -0.019665016 -0.14173724 -0.15883794 -0.027995793
000240 9a eb 98 bd 79 58 c0 bd e3 79 00 be 9e 6b 16 be
       -0.074668124 -0.09391875 -0.12546496 -0.1468949
000250 02 67 25 be 34 1e 2b be 7a 45 f8 3d 7f 87 29 3e
       -0.16152576 -0.1671074 0.121226266 0.16555594
000260 00 b1 09 be db ee ce 3d 78 e3 99 ba b1 06 53 be
       -0.13446426 0.10104152 -0.0011740765 -0.20608021
000270 18 e1 16 be fd a0 ba 3d 5e 13 ee 3d 53 db 6f 3e
       -0.14734304 0.09112737 0.11624788 0.2342351
000280 4a 09 87 3e d0 cf aa be 0a eb 0e be e8 11 17 be
       0.26374274 -0.33361673 -0.13956848 -0.14752924
000290 95 b5 e6 bd 34 4d db 3d 8a 7b 4b be 61 05 e3 3d
       -0.11265103 0.10708085 -0.19871345 0.1108501
0002a0 fe 33 07 3e f1 2b c2 bc ab 85 5f 3d 41 df 25 bd
       0.13203427 -0.023702594 0.054570835 -0.040496115
0002b0 12 73 43 3d f5 65 e7 3d 45 a1 0d 3e 99 00 f0 bd
       0.04771716 0.11298744 0.1383105 -0.11718864
0002c0 e2 20 eb 3d b2 c7 4a bd e0 00 eb bd 56 f3 44 3e
       0.11480881 -0.04950685 -0.11474776 0.1923345
0002d0 2b 0a 7c 3d 4a 5c f6 3c 2e 77 19 3d 48 35 0f 3c
       0.061533134 0.030073304 0.037467174 0.008740731
0002e0 22 7f 9c bc c7 97 7a bd df ad 67 bd c6 33 5f bd
       -0.01910359 -0.061179902 -0.0565623 -0.054492734
0002f0 14 4a d9 3d 86 fc 8b 3e 7a ed 3d be 17 14 ab be
       0.106098324 0.27341098 -0.18547621 -0.33413765
000300 6c f4 31 bd 11 53 09 3e 18 55 63 3d b7 c5 83 3d
       -0.04344599 0.13410594 0.055501074 0.064341955
000310 59 f8 b0 bd cd a8 d5 3c 51 10 c9 bd ec 5d f1 3d
       -0.086411186 0.026081467 -0.09817565 0.11785492
000320 64 71 8d bd d7 7a 77 bd 54 d0 c4 bd f0 25 66 be
       -0.06906393 -0.060419884 -0.09610048 -0.2247541
000330 9f 81 a2 3d 9d e4 03 bd dc 7f e3 bd eb a5 fa bc
       0.079348795 -0.032200444 -0.111083716 -0.030596694
000340 67 71 87 bc 0b ce a3 3d 25 44 80 bb fa 45 3d be
       -0.016533567 0.07998284 -0.0039143735 -0.18483725
000350 28 97 7e be 21 94 13 3e 6d 54 84 3e 5e 5c 2a 3e
       -0.24862349 0.14411975 0.25845662 0.16636798
000360 6a 12 5f bd 0a 0e 3b 3e ed f8 c4 3d 6d 0d 0c 3e
       -0.05446092 0.18267074 0.09617791 0.13676997
000370 e1 d6 ad bd 7e 02 35 be 9b df 3c bd 96 0e 22 be
       -0.084882505 -0.17676732 -0.046111684 -0.15825877
000380 64 2c 03 3d 12 e3 c1 bd f5 e5 c8 bd 60 a4 9d 3e
       0.032024756 -0.09467138 -0.09809486 0.3078947
000390 a6 bb ea 3d db 9d 19 3d e3 2b ef 3d a0 44 8e bc
       0.11461572 0.03750406 0.116782926 -0.017366707
0003a0 6e 84 dd b8 d1 a4 91 3e ee 48 7c 3d 34 9a 87 be
       -0.00010562768 0.28446057 0.06159299 -0.26484835
0003b0 78 42 4b 3e 1b 06 86 bd 80 6b c0 bd 68 d0 71 bc
       0.19849575 -0.06544133 -0.09395504 -0.014759161
0003c0 60 e2 50 3c 3b f7 c1 bd f3 82 bc 3d 15 28 a2 bd
       0.0127492845 -0.094709836 0.09204664 -0.07917801
0003d0 e7 2f 89 3c f2 46 48 3d 01 85 33 3e f2 1a 1f be
       0.016746474 0.048895784 0.17531206 -0.15537623
0003e0 0f 29 40 bd 78 65 32 3b 16 a8 a9 bd 34 10 6e 3e
       -0.046914157 0.0027221125 -0.08284013 0.23248369
0003f0 0f 8d 5c bc af 15 94 3d 06 70 3e be c4 1c 26 3e
       -0.013461365 0.07230698 -0.18597421 0.1622191

conv1.bias f4 [22]
000000 5e 37 21 be 9b de c4 3d c1 0c 64 3e e9 e9 2b be
       -0.15743777 0.09612771 0.2227049 -0.16788448
000010 15 be bf bd 36 97 54 3e 05 15 5e bd 86 36 09 bd
       -0.09362427 0.20760807 -0.054219265 -0.033499263
000020 c3 72 56 3e 38 51 ab 3d 2c ba ff bb 03 4c e5 3d
       0.20942216 0.083651006 -0.007804176 0.11196139
000030 77 7a ea bd 89 1e 53 3e 1a 8e f2 bd e6 c5 a6 bc
       -0.114491396 0.20617117 -0.1184351 -0.020358037
000040 3b 3e 50 3e 1b f1 d1 bd 52 04 54 be af d8 b8 3d
       0.20336239 -0.10251065 -0.20704773 0.09025704
000050 3f 03 3d 3e d2 48 ba bc
       0.1845827 -0.022739802

bn1.weight f4 [22]
000000 68 d8 81 3f 9e 5f 7a 3f 17 06 87 3f e4 ce 81 3f
       1.0144167 0.9780215 1.0548733 1.0141263
000010 3a bb 7b 3f 34 49 60 3f eb 65 82 3f 25 d3 81 3f
       0.9833256 0.876117 1.0187353 1.0142561
000020 1d 86 86 3f 80 19 7c 3f b6 3e 86 3f e3 02 78 3f
       1.0509678 0.9847641 1.0487888 0.96879405
000030 8d ef 89 3f 6a 6b 71 3f 6e 5a 83 3f 21 8a 68 3f
       1.077623 0.94304526 1.0261972 0.9083577
000040 ee f3 7b 3f eb 0a 83 3f 95 33 84 3f 02 9c 86 3f
       0.9841908 1.0237707 1.0328242 1.051636
000050 e3 3f 86 3f cc 6f 77 3f
       1.0488247 0.96654963

bn1.bias f4 [22]
000000 23 b1 cb bd 3b 8b 9a 3d 0e ca e2 bc 1b 9e a3 bd
       -0.099458955 0.07546087 -0.027684238 -0.079891406
000010 ab 99 2c 3e 98 74 6b 3e 09 bd 0a bd 56 b5 8a 3d
       0.16855495 0.22993696 -0.033871684 0.06772868
000020 91 82 19 bd 7d e4 b5 3d f4 71 0a 3e 21 14 ad 3d
       -0.037478033 0.08881471 0.13520032 0.08451105
000030 8d 64 af bd 0c 32 a1 bd 43 52 0f be c9 71 4d be
       -0.085641004 -0.07870874 -0.13996224 -0.20062937
000040 31 14 46 3d 5d f4 91 bb ed 28 16 3d 8f 61 5f bd
       0.0483591 -0.004454179 0.036660124 -0.0545364
000050 e5 2e 67 3e fb c8 0b bd
       0.22576483 -0.034127217

bn1.running_mean f4 [22]
000000 d2 18 21 be db b0 c4 3d 66 f6 63 3e 81 97 2a be
       -0.15732124 0.09604045 0.22261962 -0.16659357
000010 c2 7b bd bd 12 68 54 3e 65 99 60 bd 8b 67 10 bd
       -0.092521206 0.20742825 -0.05483379 -0.035254996
000020 e8 f4 55 3e ec 52 ad 3d ac 8c f2 bb 7a c8 e8 3d
       0.20894206 0.08463082 -0.0074020233 0.11366363
000030 b2 bd e5 bd 94 e6 52 3e 60 bb f6 bd 33 f7 ac bc
       -0.11217822 0.20595771 -0.12047458 -0.021113968
000040 5a d5 50 3e c6 1c cf bd 99 d9 53 be 80 2f ba 3d
       0.20393887 -0.1011291 -0.20688476 0.09091091
000050 83 9a 3d 3e d8 45 c8 bc
       0.18515973 -0.024447367

bn1.running_var f4 [22]
000000 fe 32 99 3d ed 1e 9a 3d cf 42 27 3d ea b8 0f 3e
       0.07480429 0.0752543 0.040835198 0.14035383
000010 e7 48 71 3d e6 43 16 3f f9 0c 0c 3e ac 8f 71 3d
       0.058907416 0.58697355 0.13676824 0.058974907
000020 05 6d 1e 3d c5 c4 37 3e 6a be 77 3d ea 5b 17 3e
       0.038678188 0.17946155 0.060484327 0.14781156
000030 9f 91 c8 3c a0 3b 17 3e db 20 0f 3d 51 43 51 3e
       0.0244835 0.14768839 0.034943443 0.20435835
000040 a0 a0 36 3f 56 2f 36 3d 9c 5c c8 3d 5d ee c3 3c
       0.71338844 0.044478737 0.09783289 0.023917371
000050 35 b7 59 3d 9f df cd 3c
       0.053153235 0.025131045

conv2.weight f4 [20, 22, 1, 12]
000000 56 4b 2a be 85 01 a9 3d 4e d2 90 3d 65 c8 48 bc
       -0.16630301 0.08252243 0.070713624 -0.012254809
000010 8d d3 cc bd 7e a5 67 3e 8c a7 29 3d 2d 0d 1e be
       -0.100012876 0.22621724 0.04141955 -0.15434714
000020 f6 74 b8 3b 2a b7 00 be e5 0d df 3a b2 9e 23 bd
       0.005629177 -0.12569872 0.0017017691 -0.039946266
000030 64 41 26 bc 1e 9e 10 3d 20 2d 9b 3d 7f 00 9b 3d
       -0.010147426 0.035307042 0.07576966 0.07568454
000040 e6 b1 92 3d b2 92 8b 3b 56 59 94 bd 9c a4 29 bd
       0.07162838 0.004259431 -0.07243602 -0.04141675
000050 5e 35 3f bd 4c 92 f1 bb cd 93 78 bb b9 4a 51 bd
       -0.046681754 -0.0073721763 -0.0037929893 -0.05109665
000060 d5 ee 61 bd a3 d1 64 bd 07 4e 8a 3c 35 8f a2 bd
       -0.05515941 -0.055863988 0.01688291 -0.07937471
000070 ce 1f 07 be fe 75 b9 bd ce 55 b8 3b bc b2 88 bc
       -0.13195726 -0.09055708 0.005625463 -0.01668679
000080 16 47 9d 3d 43 68 ca 3d 52 52 08 3e 0c 24 f2 bb
       0.07679574 0.098831676 0.13312653 -0.007389551
000090 31 57 94 bd 85 b6 b6 3d 3c be 09 3e 6d 60 6a 3d
       -0.07243193 0.089215316 0.13451475 0.057220865
0000a0 97 77 4b 3d b2 29 29 bd 59 89 98 bd 12 12 55 be
       0.049674597 -0.04129953 -0.07448072 -0.20807675
0000b0 ea 6b 09 be b0 d3 8e bd f2 45 54 bd 37 cb 84 bd
       -0.13420072 -0.0697397 -0.051824518 -0.06484073
0000c0 80 10 0c bd 95 6f 02 3e c0 ad 83 3c 5a cb 85 bd
       -0.034195423 0.12737878 0.016074061 -0.06532927
0000d0 3b 8e 82 bd be 01 dd bc ea a5 0f bd 00 c0 23 bb
       -0.063747846 -0.02697837 -0.035070337 -0.0024986267
0000e0 53 6a 9a 3c 41 54 c0 bc 18 a8 8d bb de 2d 3e 3d
       0.018849527 -0.023477675 -0.004323017 0.04643046
0000f0 1c d0 8e bd 8a c5 07 3c 3a e9 25 3d a4 b6 05 be
       -0.069732875 0.008286843 0.040505625 -0.13057953
000100 e6 19 c1 3c 3f 5b 23 3e 23 c5 20 3d cd 7d ba bc
       0.02357192 0.15952776 0.039250504 -0.022765065
000110 a0 b1 13 3d f3 5a 40 bd 01 02 af bc c7 f6 d0 3c
       0.03605807 -0.046961736 -0.02136326 0.025508298
000120 55 3a 5a bc 8d 19 8b bd 70 9d ac bd c6 b8 85 bd
       -0.0133195715 -0.06791983 -0.08428466 -0.06529383
000130 93 b2 0a bd fe 2b 21 3d 78 a2 bd 3d e9 88 7f 3d
       -0.033861708 0.039348595 0.09259504 0.062386427
000140 66 c2 87 3d f9 4e d5 bb 8a 8d 98 3c 37 fd 12 3e
       0.066288754 -0.0065096584 0.018622179 0.14354406
000150 74 ef 49 bd 90 d0 01 bd b3 c4 31 3c dc 8b 30 3c
       -0.049300626 -0.03169304 0.010850119 0.010775533
000160 af 15 86 bd 08 28 e7 3c 84 e4 89 3d c0 09 6c 3d
       -0.065471046 0.02821733 0.06733039 0.057626486
000170 15 c4 66 3d 28 27 01 3d 29 c3 b2 3c de 24 19 3d
       0.056339342 0.031531483 0.021821575 0.037388675
000180 79 b9 ee bd da 22 65 bd d0 96 ea bd e9 c0 d2 bd
       -0.1165647 -0.05594144 -0.114545465 -0.10290701
000190 b1 1d 3a bd c7 ab ad bc 54 11 3c 3d c5 24 81 bb
       -0.045438472 -0.021200074 0.045914963 -0.003941151
0001a0 ac 69 d6 3b ef 55 25 3c ad 4f 0a 3d 8e 38 ac 3d
       0.006543359 0.010091289 0.03376739 0.084092245
0001b0 c4 49 15 be c1 00 a0 bd c2 ad be bd 9d 84 2a bd
       -0.1457892 -0.07812644 -0.093104854 -0.041630376
0001c0 ef 89 9c 3c 4f 4f 42 bb 24 ec 51 3d 49 5c b6 3d
       0.01910874 -0.0029649322 0.051250592 0.08904321
0001d0 e3 86 b7 3d 2e c8 8a 3d c7 b4 19 3d d9 0d af 3d
       0.089612745 0.067764625 0.03752592 0.08547563
0001e0 bd b3 a7 3c b8 03 b6 3c 42 8c bb 3b 18 cb 5e bc
       0.020471448 0.02221857 0.005723507 -0.013598226
0001f0 7d e4 ab bc a7 28 27 3a c3 23 a2 3d 2c 40 24 3d
       -0.020982975 0.0006376602 0.07916977 0.04010026
000200 20 8b 38 3c 19 27 c1 3c 57 9b b0 3b 0d a2 73 bc
       0.011263639 0.023578214 0.0053896117 -0.014870179
000210 af 81 63 be a4 19 4f bd a1 f1 a2 bd 3c 7f bd bd
       -0.22217439 -0.050561562 -0.07956243 -0.09252784
000220 f3 b5 db bc 76 d0 0d 3e 7e 7a 26 3e 55 1b e3 3d
       -0.026820159 0.13849053 0.16257665 0.110891975
000230 18 bd 58 bd 5e d6 be bd ce 29 cd bc 0e 0c f1 bc
       -0.05291471 -0.09318231 -0.025044348 -0.029424693
000240 38 7f 97 3c 2e 08 9f 3c 50 77 f3 3c f4 86 21 bc
       0.01849328 0.01941308 0.029719979 -0.0098588355
000250 4e b2 db 3c 20 c4 9d bc c9 cd b9 bc 70 d5 9a bc
       0.02681842 -0.019258559 -0.022681134 -0.018900603
000260 ae 47 33 bc 63 1f 41 bc 71 2b 3e bd d6 f3 17 bd
       -0.010942383 -0.011787268 -0.046428148 -0.037097774
000270 0b 17 10 bd db c9 99 bd b4 b2 a2 bd 52 a1 a4 3a
       -0.035178225 -0.07509204 -0.07944241 0.0012560284
000280 a1 32 b0 3c 63 42 42 bd 01 3b 0b bd e5 40 1d bd
       0.021508517 -0.047426593 -0.033991817 -0.038391966
000290 8b b6 be 3c 20 69 5e 3d e8 3a c5 3d a5 57 93 3c
       0.023280403 0.054299474 0.09630376 0.017986128
0002a0 39 ce 97 bc f1 2c da bb bc 9c 37 3c 36 d4 2e 3d
       -0.018530952 -0.0066581895 0.011206802 0.04268285
0002b0 9e 02 0e 3d 11 bb 17 3c 06 9c ee 3c 00 bf 11 3c
       0.034670465 0.009260909 0.029127132 0.008895636
0002c0 5c 2e 84 bc 45 ae 72 bc 20 3e 91 3c 9e 90 56 3b
       -0.016135387 -0.014812057 0.017729819 0.0032740007
0002d0 0a 5e 46 bd 77 ef b8 3d 80 cc 82 bb ab e8 cb bd
       -0.048429526 0.09030049 -0.0039916635 -0.09956487
0002e0 48 ef b2 bd 39 e2 5f bc a2 c2 1d be f2 12 94 bd
       -0.087370455 -0.0136647755 -0.15406278 -0.07230176
0002f0 e6 d7 7e 3c c1 03 13 bd 66 c8 59 bd f3 5c ae bc
       0.015554404 -0.035892252 -0.05316963 -0.021284556
000300 29 03 66 bc 51 94 77 3c 7a 85 4a bc b3 ac 38 bd
       -0.014038839 0.015111045 -0.012360925 -0.045086574
000310 c7 21 e5 bc de 20 ba 3b 3b 5a 0c bd ca 48 bc 3d
       -0.027970208 0.0056801876 -0.034265738 0.09193571
000320 b0 3d 88 3c d0 f7 ad 3c c5 37 70 bc 9e 0a 03 3d
       0.016630977 0.02123633 -0.014661734 0.031992547
000330 c3 d7 26 bd 07 9b 8e bc cb 8f 0f 3c 3e 59 d5 bc
       -0.04073311 -0.017407907 0.00876231 -0.02604353
000340 60 de 02 3c 31 7c f1 3d f2 01 3c 3d 52 57 aa 3c
       0.007987589 0.11791266 0.045900293 0.02079359
000350 55 14 91 3c 07 e2 62 3c 06 c1 ea 3c 54 b1 80 3d
       0.01770989 0.013847834 0.028656494 0.06283823
000360 3c 3f 89 3d d2 7a e9 3d 94 70 e7 3c 97 b2 86 bd
       0.06701514 0.11400379 0.028251924 -0.06577032
000370 19 c1 a4 3c ae 27 cc 3d 62 85 28 bd 5a 0b bb bc
       0.020111607 0.09968506 -0.04114283 -0.022832561
000380 62 cd cb 3d b4 d7 9a 3c a6 cd c2 3d 65 98 e6 3d
       0.09951283 0.018901683 0.095118806 0.11259536
000390 01 9d c5 bd 54 e8 d8 bd c2 6b 9a bd 50 59 19 3c
       -0.09649087 -0.10591188 -0.075400844 0.009359673
0003a0 ca 1f a4 3d 16 e5 84 3d af fa 97 3d f2 88 70 bc
       0.08013876 0.06489007 0.07420861 -0.014681088
0003b0 8e a3 03 bd 13 72 ce bc f1 9d 9b 3c 83 29 4c 3d
       -0.0321384 -0.02520088 0.01899621 0.049844276
0003c0 2a 62 9a bd 80 ff b2 bd f2 77 6d bc 92 66 da bd
       -0.075382546 -0.08740139 -0.014493929 -0.10664095
0003d0 61 f3 e9 3a 6a 21 42 bd 73 ef 0c 3e fa 07 b1 bd
       0.0017849022 -0.047395147 0.13763218 -0.086440995
0003e0 cd 78 d0 3c 6e 08 e9 bc a1 f3 63 3c 90 49 ab bd
       0.025448227 -0.028446402 0.013913066 -0.0836364
0003f0 73 09 90 bd b8 ce 17 bd 0d b2 34 3a 41 b3 66 3d
       -0.07033052 -0.037062377 0.0006892987 0.056323294

conv2.bias f4 [20]
000000 24 f9 da bc cd 3a 09 3c a2 83 0e 3d f5 00 b0 3c
       -0.026730128 0.008375836 0.034793504 0.021484831
000010 d8 f4 25 3d d6 7e f1 3b 64 2e 03 bd 5c 64 66 3d
       0.040516704 0.0073698564 -0.032026663 0.056248054
000020 88 cc 7f bd f3 e2 2e 3d 61 f6 ca bc 93 95 64 3d
       -0.062450916 0.042696904 -0.024775686 0.055806708
000030 39 fd d4 3b 86 31 4f 3d 09 6d 57 3d dd cb 74 3d
       0.006499913 0.05058434 0.05259422 0.05976473
000040 50 ef 91 bc 28 e3 98 bc 02 12 53 3d b0 2c b4 bb
       -0.017814308 -0.018663004 0.051530845 -0.005498491

bn2.weight f4 [20]
000000 f1 12 81 3f c3 b3 83 3f b7 46 7d 3f 3b 33 84 3f
       1.0083905 1.0289234 0.9893603 1.0328134
000010 9c e5 7a 3f 29 c8 7e 3f 02 6e 86 3f e8 b3 83 3f
       0.98006606 0.9952417 1.0502322 1.0289278
000020 35 94 8d 3f 85 4a 7c 3f 42 75 80 3f fa b3 80 3f
       1.1060854 0.9855121 1.0035784 1.0054924
000030 e9 e3 84 3f 51 35 80 3f a7 16 75 3f ab 70 7d 3f
       1.0382053 1.0016271 0.9573769 0.9900004
000040 6c aa 78 3f 1a ea 7d 3f 60 e7 84 3f 7d 6a 81 3f
       0.97135043 0.99185336 1.038311 1.0110623

bn2.bias f4 [20]
000000 15 5d 84 bd 85 d8 1c bf 5e 9b 36 be a8 78 7f be
       -0.064630665 -0.6126788 -0.17832705 -0.2494837
000010 f1 fc 8c 3c 1a 42 02 bf 7d d3 1a bf 3a a5 7a be
       0.017210456 -0.5088211 -0.60478956 -0.24477091
000020 53 49 f3 3e af 17 e2 3e 01 e8 e0 bd 57 1e e2 3e
       0.4751688 0.44158694 -0.10981751 0.44163772
000030 99 98 4c 3e 36 9b 70 be 30 ef 62 3b 92 a0 c2 3e
       0.19980086 -0.23496708 0.003462743 0.3801313
000040 c7 dc 2a bf 5a f1 17 3f e0 47 02 be dc db ef be
       -0.6674313 0.5935265 -0.1272273 -0.46847427

bn2.running_mean f4 [20]
000000 fa 1e 11 bf e7 3d 62 40 61 5a d1 bf 87 6b ec 3d
       -0.5668789 3.5350282 -1.6355706 0.11543947
000010 d0 fe 28 c0 0c 65 03 40 b0 b8 06 40 f4 59 f1 be
       -2.6405525 2.0530424 2.1050224 -0.4713894
000020 26 87 b6 bf 83 87 f2 be 79 69 ac 40 69 db a4 bf
       -1.4259994 -0.47369012 5.387875 -1.2879459
000030 d0 dd 10 40 9b 7d 45 be 78 75 14 bf 8a eb 1e 3f
       2.2635384 -0.19286196 -0.57991743 0.62078154
000040 2b 82 a5 bf 17 db e2 bf fe bf 3a be 14 4e 1e 40
       -1.2930349 -1.7723111 -0.18237302 2.4735155

bn2.running_var f4 [20]
000000 d9 3b 15 41 58 f9 7c 41 c3 7d 36 41 b9 ef 2c 41
       9.327111 15.810875 11.405704 10.808526
000010 c8 ec 26 41 c3 62 43 41 de b6 9d 41 6c 26 3b 41
       10.432808 12.211612 19.71429 11.69688
000020 f1 0d 6b 41 da da 40 41 ea a8 80 41 84 0c 44 41
       14.690904 12.053431 16.082478 12.253056
000030 32 25 4f 41 15 28 65 41 4e 5d 16 41 ae 1f 35 41
       12.946581 14.322286 9.397779 11.320234
000040 69 b3 4b 41 78 b9 56 41 e2 a7 1c 41 c7 46 64 41
       12.731301 13.42028 9.790987 14.26728

fc.weight f4 [4, 140]
000000 f7 fd 8f 3d 8a f2 4d 3d 31 72 b2 3d aa ae 17 bc
       0.07030862 0.05028013 0.087131865 -0.009257952
000010 6b 58 2b 3d 36 52 53 3b 98 81 58 bd e6 3e ee 3d
       0.04183237 0.0032245046 -0.052857965 0.11633091
000020 f7 1c af 3d 63 d4 29 3d 34 33 82 3d 36 6e 68 bd
       0.085504465 0.041462313 0.063574225 -0.05674573
000030 11 1c 90 bc 22 b4 90 bd ea 8f 81 3d 90 a9 ba bd
       -0.017591508 -0.070656076 0.063262776 -0.09114373
000040 8b d3 a3 bc 72 e1 fb bc 4a bd d1 bd a1 1d 05 bd
       -0.019998332 -0.03074715 -0.10241182 -0.03249896
000050 b1 95 d5 bc e7 52 e2 bd e0 7a 24 bd 70 9a 83 bd
       -0.026072355 -0.110509686 -0.040156245 -0.06425941
000060 e4 98 b6 bd 18 70 d8 bb 13 da 99 bd a7 b1 fb bc
       -0.0891588 -0.0066051595 -0.075122975 -0.03072436
000070 0b cb fe bc 22 03 a7 3c bb 07 7e 3c 70 c4 00 bd
       -0.031102678 0.020387236 0.015504773 -0.031437337
000080 c4 8b be 3d d2 87 cb 3d 9a 42 87 3d 24 bb 97 be
       0.09304002 0.09938015 0.066045 -0.29634964
000090 14 d7 a8 bd 39 b2 46 be 69 9a a5 bd 31 47 01 be
       -0.08244148 -0.19403924 -0.08086092 -0.12624814
0000a0 a6 ca 09 be ad bd 8b bd 6e 3f 54 be ff a0 d2 3c
       -0.1345621 -0.06823287 -0.20727322 0.025711535
0000b0 34 ce 94 bd 25 53 28 3b c4 5b 82 bd ea df 28 bb
       -0.072658926 0.0025684324 -0.06365159 -0.0025768229
0000c0 57 db 20 bd 14 32 0f 3e 1f 8e 75 bd 49 bf 08 3e
       -0.03927168 0.13983947 -0.05994999 0.1335422
0000d0 c4 3c 84 3b 9a e0 69 bd c2 f1 d6 3c 37 e6 8b bd
       0.004035564 -0.057098962 0.026238326 -0.06831019
0000e0 5d 5c 9f 3e 0a 35 81 3e 8a c4 13 3e 44 e6 85 3d
       0.31125155 0.25235778 0.14430442 0.0653806
0000f0 54 81 e3 3d 82 dd 41 3d 2c 62 c3 3d 0b a2 63 3d
       0.11108652 0.047330387 0.09540209 0.055574458
000100 8f 3e a5 bd 17 ef c9 39 60 ec 79 bd c3 10 c0 3c
       -0.08068573 0.00038515843 -0.06101644 0.023445493
000110 f2 a8 6c 3d f4 9f 42 3a da b4 50 bc 34 9a 04 3d
       0.057778306 0.00074243476 -0.012738431 0.032373622
000120 fa 6f e2 3c fa 79 82 3d d5 fd a4 bd 2f 73 07 bb
       0.027641285 0.063709214 -0.08056227 -0.002066802
000130 5d d7 fd bc 31 f4 2c 3e d4 74 e4 bb b4 a1 0d 3e
       -0.030986482 0.16890027 -0.006971935 0.13831216
000140 df 4f 03 3e a8 2e fc 3d 7a 5c 56 3d e4 ad ae 3b
       0.12823437 0.123135865 0.052334286 0.005330788
000150 cf 71 8e be 4f 1a 21 be 81 af 03 be 23 5a 3c be
       -0.27821204 -0.15732692 -0.12859918 -0.1839376
000160 ec f3 bb bd 97 e5 f0 ba da 4f 49 3c b9 21 ad 3a
       -0.09177384 -0.001837897 0.0122871045 0.0013208903
000170 0a 4a a6 3c 38 2e d0 3a fb 10 01 bd d5 20 96 bd
       0.020298976 0.0015882915 -0.031510334 -0.07330481
000180 6e 51 6f bc 2f 86 f4 3b 0e de 40 3d bb a6 b3 3b
       -0.014606817 0.007462285 0.047086768 0.0054825223
000190 90 97 d4 3c a3 58 0c be 75 71 b9 3d bc 25 08 be
       0.025951177 -0.13705687 0.09054843 -0.13295645
0001a0 07 61 5c bd 19 38 1d 3e 93 64 1b bd 47 01 81 3d
       -0.05380347 0.15353431 -0.037937712 0.06299072
0001b0 e9 07 07 3e 87 2a f9 3d fa 27 de 3d 39 19 42 bb
       0.13186611 0.121663146 0.10847469 -0.0029617085
0001c0 4b d7 6c bd f4 dd 74 bb 45 cb 6e be d8 cc cc bd
       -0.057822507 -0.003736374 -0.23319729 -0.10000008
0001d0 17 30 09 be e5 ba 6c bd db 34 e2 bc c9 44 bc be
       -0.13397251 -0.057795424 -0.027613094 -0.3677123
0001e0 41 d2 b0 bd 17 3b 69 be 17 53 b3 bc be ee 45 bd
       -0.08633853 -0.22776447 -0.021890206 -0.048323385
0001f0 9f 6e 2b 3c ce fc 24 3d bc 27 33 bb ce 20 bd bc
       0.010463386 0.040280156 -0.0027336916 -0.023086932
000200 24 34 c4 bd 8e 82 0a be 69 d1 22 3d 3c 18 d9 bd
       -0.095802575 -0.13526365 0.03975049 -0.106003255
000210 9d 70 09 3d 2e f4 34 bd fc 81 18 3d 90 a2 c9 3d
       0.033554662 -0.04417818 0.037233338 0.098454595
000220 96 f0 0d bc 1b f4 77 3c 8c f9 bc 3b f3 8b b4 3d
       -0.008663317 0.015133883 0.005767053 0.08815756
000230 51 0b 0f 3e b4 2f 79 3b 6b 63 9f 3d 95 99 28 bd
       0.1396916 0.0038022818 0.07782634 -0.041162092
000240 4c 55 a0 3d 4e 01 b6 3d c1 86 f0 3c b9 91 f5 bd
       0.07828769 0.088869676 0.02936113 -0.11990685
000250 b9 6f 54 be 1b fe 07 be 2e 85 2c be fe 2c dd bd
       -0.20745744 -0.13280527 -0.16847679 -0.10799597
000260 c4 03 b1 bd 54 88 cf 3c af 62 a0 3d 99 76 32 bc
       -0.08643296 0.025333561 0.078313224 -0.010892534
000270 16 d8 07 3d 88 ce 89 3c cc d9 63 bd bf 71 0b 3e
       0.03316506 0.016822115 -0.05562763 0.1361761
000280 a6 c4 69 bd 55 3d 18 3e 95 bd d5 3d 50 26 73 3c
       -0.057072304 0.14867146 0.104365505 0.014840677
000290 07 f9 d0 3d cc d0 c5 bd 40 2e ea bd 37 c4 8c bd
       0.10203748 -0.096589655 -0.11434603 -0.068733625
0002a0 f4 ea fc 3d 4e 2a 36 bb f9 81 a5 3d bb 3a a3 bd
       0.12349501 -0.0027796212 0.08081431 -0.07970186
0002b0 fd dd 41 bd 6c d8 41 3d 7b e6 db bd 81 e2 03 3d
       -0.047330845 0.047325537 -0.1073732 0.032198433
0002c0 df 66 81 3d 5c 12 86 3d 67 b3 72 3d 75 00 61 bc
       0.06318449 0.065464705 0.059253123 -0.013733019
0002d0 52 a1 ac 3c b9 86 af 3c f8 8e 90 3e ed c6 5d 3e
       0.021073017 0.021426545 0.28234076 0.21657915
0002e0 30 da 2f 3e 7d 66 9b 3d dc 84 8d 3d f9 cb 07 bb
       0.17173076 0.075879075 0.069101065 -0.0020720942
0002f0 71 a3 d8 3c 6a 06 39 3d ab 14 88 bc 47 fc 1d 3e
       0.026445122 0.045172133 -0.016611418 0.15428267
000300 39 dc a9 3d dd 9e df 3d ee 5a b0 3d aa 31 ad 3c
       0.08293957 0.10918973 0.086110935 0.021141846
000310 eb 72 32 be 7b 14 ad bd a3 0f d9 bd 88 db f7 bd
       -0.1742665 -0.08451172 -0.105986856 -0.12102419
000320 85 fe f1 bb e0 ee 5c 3d 21 6a 94 bd 1d f4 3d be
       -0.0073850774 0.053938746 -0.07246805 -0.18550153
000330 db e6 30 be 11 e0 2a be 59 c2 97 bd f9 24 36 3d
       -0.17275564 -0.16687037 -0.07410116 0.044468854
000340 aa 0b 0f be 60 31 9b bc d7 e6 a0 bd 67 e5 2c bb
       -0.13969293 -0.018944442 -0.07856529 -0.0026381852
000350 1f ba 0a be 34 86 87 bd ef e4 34 3e 28 3d fe bc
       -0.13547562 -0.06617394 0.17665456 -0.031035021
000360 5e 81 32 bd 13 d1 81 be fb d9 3c 3d ac 96 49 bd
       -0.043580405 -0.25354823 0.04610632 -0.049215958
000370 55 3f 53 bd a7 01 6f 3d 20 03 96 bc bb 3f 62 3d
       -0.05157407 0.058351185 -0.018312037 0.05523656
000380 c2 9c f2 bd fc aa 2f 3c c9 cb 2a bd 49 c2 90 3d
       -0.118463054 0.010721918 -0.04169825 0.07068307
000390 fd 1a ce bc 72 26 80 bd ea 43 4f bd d3 5f 6b bd
       -0.025159353 -0.06257333 -0.050601877 -0.057464432
0003a0 31 1c 4e 3c 1c 58 b1 3b ff 14 ee bd 9e 0e 05 bd
       0.012579964 0.005412115 -0.116250984 -0.032484643
0003b0 c5 a8 a9 bd 09 fe 23 bd 8e 81 28 3c 55 1f 40 bd
       -0.08284143 -0.04003719 0.0102847945 -0.04690488
0003c0 40 11 c5 bd 3e 7a b9 3c e4 d7 e1 bd 28 39 80 3d
       -0.09622431 0.022641297 -0.11027506 0.06260902
0003d0 51 e9 ab bd e6 87 8f 3d e5 5b 39 3c 9f c5 25 3d
       -0.08394111 0.070083424 0.011313413 0.04047167
0003e0 1d 1d 15 3d 30 48 0d bd 84 5f 19 3d b9 91 84 3d
       0.036404718 -0.03449267 0.037444606 0.06473107
0003f0 c0 ea 4c be f5 e5 9b be a0 4c 65 bc 8d b6 09 be
       -0.20011425 -0.3044888 -0.01399532 -0.13448544

fc.bias f4 [4]
000000 72 a7 89 3d 79 d2 46 bd 82 de df bd da e1 94 bd
       0.06721391 -0.048540566 -0.10931112 -0.0726964
