lab2/model_weights/LOSO60.07_drop0.8_lr0.001_80epochs.pth (torch, 121070 bytes, 14 tensors)

conv1.weight f4 [44, 1, 22, 16]
0.024974013 0.02034745 -0.022484537 -0.05116662 0.007427764 -0.058355775 0.043287314 0.018807957
0.013604105 0.07154884 -0.039644334 -0.026630674 0.0066714473 0.05179292 0.0050999033 0.008782891
-0.06874911 -0.024900911 -0.06810736 -0.026247945 -0.07148559 0.03961135 0.09215466 0.09490313
0.004164949 0.048443623 -0.011899405 -0.044414356 -0.085079424 -0.05273451 0.0023513427 0.022180054
0.04292689 0.01020528 -0.049745664 -0.09144351 0.0029541636 -0.0035757362 0.03542397 0.023680966
0.05876019 -0.0053444016 -0.028838558 -0.023968525 0.02277325 0.020604983 -0.009145476 0.019442897
0.013962968 0.0005816942 -0.00041350018 -0.056742504 -0.012294383 0.010685255 -0.03824639 0.038183402
-0.016964726 -0.0143509405 0.0191333 0.028865682 0.035855204 -0.014407895 0.012432922 -0.0010052563
0.027501106 0.030356014 0.0766526 0.05849207 0.09521413 0.04752804 -0.06546651 -0.10330153
-0.109626554 -0.09825229 -0.0062569706 0.013945684 0.005071763 0.10633624 -0.011000921 -0.014695492
-0.029271064 0.01833972 0.09453749 0.012359886 0.04155559 0.029077323 -0.07255218 -0.057447024
-0.111279905 -0.11151921 -0.05791008 0.012598536 0.0038103643 0.007836887 0.050414275 0.08656954
0.022525156 -0.10159186 -0.12641722 -0.11133777 -0.092752635 -0.0075689266 -0.010011782 0.07318795
0.12657174 0.010692762 -0.060051225 -0.06169913 -0.07806222 -0.07198431 -0.05381207 -0.006789907
-0.042521402 0.017866636 -0.014439249 0.060921803 -0.015142659 -0.04718123 -0.025549194 0.027971413
-0.019149998 0.061079428 -0.0068930304 0.03002773 -0.03615011 -0.0122998515 -0.020325381 -0.01560643
-0.013083745 -0.00087822665 0.042945933 0.04143031 0.02761028 0.009564587 -0.022689456 -0.005018942
-0.01180515 0.030503036 0.012322974 0.027225574 0.05005 0.04881218 0.0736635 0.0129485605
-0.06284697 -0.04596163 -0.03986856 -0.045220207 0.026587786 0.09106708 0.054086763 0.03435426
0.07734849 0.03454358 -0.040394895 -0.015249441 -0.05276713 -0.011824619 0.0012950588 0.020136526
-0.03380843 -0.0012515621 0.060049884 0.03474128 0.03865757 -0.004564523 -0.1374066 -0.051698633
0.007002938 -0.023132224 0.08178476 0.08551194 0.04220345 0.07740329 0.0025567783 -0.024679909
-0.064247645 0.007229075 0.024237327 -0.028008647 -0.016557917 -0.082139395 0.014208648 0.008442552
0.039790068 0.08660693 0.07164083 -0.031290196 -0.014660221 -0.08725286 -0.07246316 -0.054619193
0.011243676 -0.048491236 -0.080353394 -0.028352484 0.026413202 0.049352173 0.08963326 0.12305048
0.063234106 -0.0464139 -0.07847189 -0.09233899 -0.047895957 -0.072297215 -0.06726091 -0.009583666
0.15727133 0.1753017 0.15757966 0.08476601 -0.0056623137 -0.14305788 -0.12506136 -0.13916382
-0.08071025 0.0014017159 0.0566545 0.07498654 0.12080914 0.051157422 0.080978416 0.004105333
0.011442433 0.010399678 0.06764342 0.018042985 0.071842454 0.03132653 -0.049822595 -0.045245554
-0.072140485 -0.07709383 0.033245966 -0.045594435 -0.007420356 0.043328516 0.005690477 0.0042763255
-0.165942 -0.11827314 -0.07542768 0.018452242 0.102878086 0.14609572 0.14923635 0.10714631
0.06331659 -0.07605849 -0.08365178 -0.06076168 -0.13285029 -0.007061488 -0.03891067 0.09757435
00000000: 4d96 cc3c b2af a63c 7e31 b8bc 1794 51bd
00000010: 9a64 f33b 7706 6fbd 0a4e 313d 2513 9a3c
00000020: c1e3 5e3c 3388 923d 1962 22bd 9228 dabc
00000030: 289c da3b d024 543d 171d a73b 1de6 0f3c
00000040: 55cc 8cbd fffc cbbc df7b 8bbd ee05 d7bc
00000050: 0967 92bd 833f 223d 95bb bc3d 925c c23d
00000060: 207a 883b d26c 463d b9f5 42bc d4eb 35bd
00000070: 1f3e aebd 2400 58bd fc18 1a3b f2b2 b53c
00000080: 1bd4 2f3d 0c34 273c 1cc2 4bbd bc46 bbbd
00000090: a49a 413b e656 6abb ba18 113d 96fe c13c
000000a0: 86ae 703d 1720 afbb d73e ecbc a459 c4bc
000000b0: f78e ba3c c8cb a83c e8d6 15bc b646 9f3c
000000c0: efc4 643c d67c 183a 0ecb d8b9 d46a 68bd
000000d0: 616e 49bc 3511 2f3c 3fa8 1cbd 3366 1c3d
000000e0: 9cf9 8abc 3520 6bbc 70bd 9c3c b977 ec3c
000000f0: e8dc 123d 170f 6cbc 74b3 4b3c cec2 83ba
00000100: 004a e13c 2dad f83c 0afc 9c3d 6195 6f3d
00000110: a0ff c23d c3ac 423d 4e13 86bd c18f d3bd
00000120: e383 e0bd 7f38 c9bd 4607 cdbb 707c 643c
00000130: 0831 a63b d1c6 d93d 353d 34bc 5cc5 70bc
00000140: dfc9 efbc 2e3d 963c df9c c13d 1f81 4a3c
00000150: 3236 2a3d 9133 ee3c 3d96 94bd 924d 6bbd
00000160: b8e6 e3bd 2f64 e4bd 1f33 6dbd 176a 4e3c
00000170: 4eb7 793b 4966 003c 337f 4e3d 5f4b b13d
00000180: ad86 b83c 650f d0bd 8473 01be 0f05 e4bd
00000190: 18f5 bdbd c204 f8bb 7508 24bc 90e3 953d
000001a0: 069c 013e b230 2f3c 46f8 75bd 3ab8 7cbd
000001b0: 16df 9fbd 836c 93bd 0c6a 5cbd de7d debb
000001c0: ec2a 2ebd 0d5d 923c 9a92 6cbc 2489 793d
000001d0: ea18 78bc 1b41 41bd 8b4c d1bc 4e24 e53c
000001e0: 75e0 9cbc 6c2e 7a3d eede e1bb b7fc f53c
000001f0: 2312 14bd 5185 49bc 6a81 a6bc 1db2 7fbc
00000200: 345d 56bc cb38 66ba 13e8 2f3d d4b2 293d
00000210: f42e e23c c9b4 1c3c 3ddf b9bc f075 a4bb
00000220: 636a 41bc 81e1 f93c 4de6 493c 2b08 df3c
00000230: 3b01 4d3d 48ef 473d e4dc 963d 3326 543c
00000240: eab5 80bd 4342 3cbd 374d 23bd d338 39bd
00000250: a1ce d93c 6181 ba3d 158a 5d3d 0db7 0c3d
00000260: e368 9e3d 927d 0d3d 1e75 25bd cbd8 79bc
00000270: 5922 58bd 0cbc 41bc f6be a93a 5bf5 a43c
00000280: b57a 0abd 750b a4ba def6 753d df4c 0e3d
00000290: 6657 1e3d ff91 95bb 51b4 0cbe f2c1 53bd
000002a0: e778 e53b ca7f bdbc c57e a73d e220 af3d
000002b0: 86dd 2c3d 9e85 9e3d 9f8f 273b 852d cabc
000002c0: 4594 83bd e0e1 ec3b 5c8d c63c 6472 e5bc
000002d0: 78a4 87bc b338 a8bd 64cb 683c a152 0a3c
000002e0: e9fa 223d f95e b13d 6db8 923d 262a 00bd
000002f0: 6c31 70bc a1b1 b2bd 9167 94bd 60b8 5fbd
00000300: 6537 383c bf9e 46bd 5290 a4bd 7843 e8bc
00000310: 8060 d83c 8125 4a3d a591 b73d e401 fc3d
00000320: e280 813d 801c 3ebd dfb5 a0bd 391c bdbd
00000330: 8d2e 44bd 9010 94bd 17c0 89bd cf04 1dbc
00000340: bc0b 213e 4a82 333e 905c 213e cd99 ad3d
00000350: ee8a b9bb c47d 12be 1610 00be f680 0ebe
00000360: 6a4b a5bd c8b9 b73a 8d0e 683d 8b92 993d
00000370: c86a f73d 728a 513d 03d8 a53d 0786 863b
00000380: 0b79 3b3c 6963 2a3c a288 8a3d e2ce 933c
00000390: 2322 933d 3f50 003d c712 4cbd 6753 39bd
000003a0: 64be 93bd 5fe3 9dbd ec2c 083d 3bc1 3abd
000003b0: 7526 f3bb 3e79 313d 2e77 ba3b 6b20 8c3b
000003c0: b3ec 29be 3039 f2bd d479 9abd 2829 973c
000003d0: bfb1 d23d 1e9a 153e 6ad1 183e 866f db3d
000003e0: 21ac 813d 8ec4 9bbd a051 abbd 3de1 78bd
000003f0: e809 08be 0e64 e7bb cb60 1fbd 10d5 c73d

conv1.bias f4 [44]
1.2662512e-05 -4.0751215e-06 9.568406e-06 2.8840162e-05 1.5541023e-05 -5.0983717e-06 -1.4758351e-05 -3.8010178e-06
-3.933081e-06 -3.0442796e-05 -2.651907e-05 -3.6388788e-06 2.9839762e-06 -3.740345e-05 -3.8307284e-05 2.2550263e-05
-1.4787731e-05 3.3795328e-05 8.272703e-06 1.1731694e-05 8.890262e-06 -3.5994082e-05 -1.4738682e-05 -3.1220075e-05
-3.0334026e-05 -1.1669531e-05 -1.907334e-05 -4.096541e-06 8.3227205e-06 -4.141203e-06 3.311824e-06 -3.1116433e-05
-3.966251e-07 -1.407906e-05 2.0090683e-05 2.7586526e-05 8.521808e-06 1.1333035e-05 2.4167974e-07 9.5758405e-06
3.4209057e-05 -1.7387758e-05 1.4157207e-06 -0.00013360401
00000000: 1371 5437 07bd 88b6 fe87 2037 c7ed f137
00000010: 185e 8237 ae12 abb6 a39a 77b7 fd14 7fb6
00000020: e9f8 83b6 685f ffb7 4575 deb7 7633 74b6
00000030: 5240 4836 a6e1 1cb8 22ac 20b8 522a bd37
00000040: d218 78b7 75bf 0d38 fdca 0a37 3ed3 4437
00000050: 6227 1537 5af8 16b8 2846 77b7 4df2 02b8
00000060: d375 feb7 41c8 43b7 b0ff 9fb7 0575 89b6
00000070: d0a1 0b37 aaf4 8ab6 b440 5e36 0483 02b8
00000080: bdef d4b4 1a35 6cb7 6a88 a837 9d69 e737
00000090: e3f8 0e37 0423 3e37 36c0 8134 eca7 2037
000000a0: b27b 0f38 eddb 91b7 cb03 be35 0e18 0cb9

bn1.weight f4 [44]
1.0561717 0.82438666 0.880437 1.1284906 0.956928 0.94615674 0.95878726 0.9684822
0.84479284 1.0117178 0.9176868 0.9997681 0.87645996 1.0450966 1.0511261 1.0274035
0.9406339 0.8635884 0.7986811 0.9998214 0.97897327 1.0693643 0.8856514 0.9958551
0.8906801 0.82051396 0.8207128 0.8835643 0.9451464 0.9462766 0.9966033 0.93887526
1.1063311 0.9680906 0.9282361 0.9153835 0.9276982 0.94895214 0.7873507 0.9564383
1.003903 0.8043258 0.9906046 1.0268737
00000000: a230 873f 010b 533f 5264 613f 6172 903f
00000010: 3cf9 743f 5437 723f 1573 753f 73ee 773f
00000020: 5844 583f f87f 813f 86ed 6a3f cdf0 7f3f
00000030: ae5f 603f bac5 853f 4d8b 863f f581 833f
00000040: 62cd 703f 2114 5d3f 5d76 4c3f 4cf4 7f3f
00000050: fe9d 7a3f eee0 883f 0dba 623f 5cf0 7e3f
00000060: 9c03 643f 340d 523f 3c1a 523f 4531 623f
00000070: 1df5 713f 2f3f 723f 6521 7f3f 215a 703f
00000080: 429c 8d3f c9d4 773f e2a0 6d3f 9356 6a3f
00000090: a17d 6d3f 87ee 723f d18f 493f 24d9 743f
000000a0: e57f 803f 4ce8 4d3f 4398 7d3f 9970 833f

bn1.bias f4 [44]
0.124123044 0.028613359 0.031163348 0.20149766 0.22951773 0.058694612 0.08264543 -0.016420726
0.027845472 0.12712711 0.022175 -0.093239374 0.13845247 -0.14776914 0.021382375 0.009614216
-0.009562842 0.13222104 -0.08204399 -0.11402722 -0.11660996 -0.09530694 -0.11433737 -0.009182476
-0.108263664 0.0948806 -0.14564702 -0.033359017 0.18377915 0.1403625 0.0695178 0.013799106
-0.07228288 -0.0029396384 0.12322083 0.018475581 -0.06356309 0.12722352 0.17235683 0.16145214
-0.14638068 -0.013511663 -0.023924781 -0.05607115
00000000: 3934 fe3d 9066 ea3c 474a ff3c 6755 4e3e
00000010: b206 6b3e c369 703d 0242 a93d c284 86bc
00000020: 301c e43c 9c2d 023e 58a8 b53c 49f4 bebd
00000030: 7cc6 0d3e cb50 17be 172a af3c f284 1d3c
00000040: 77ad 1cbc f464 073e ae06 a8bd 1a87 e9bd
00000050: 34d1 eebd 4930 c3bd b629 eabd 1972 16bc
00000060: 57b9 ddbd c350 c23d 7e24 15be 77a3 08bd
00000070: 9a30 3c3e 30bb 0f3e 595f 8e3d a515 623c
00000080: 0c09 94bd f3a6 40bb 345b fc3d 1a5a 973c
00000090: 5e2d 82bd e246 023e 4f7e 303e b653 253e
000000a0: d1e4 15be 0660 5dbc e7fd c3bc ddaa 65bd

bn1.running_mean f4 [44]
-0.0008775259 0.0022856188 0.0008563951 -0.00016067612 0.0022124911 0.0002626987 0.000899854 0.0007657718
-0.0011985602 -4.4863435e-05 -0.0012233169 -0.0008644154 0.00046542878 -0.00011357583 0.00077172456 -0.0002855471
0.00076715794 0.0020369648 -3.7125137e-05 0.00026578904 -0.0010177231 -9.167175e-05 -0.0011941193 -0.00014416366
0.0011893925 0.00105997 0.0005668215 -0.0007277065 6.1389264e-06 -0.00040376734 0.0010723941 0.0003125853
0.00046874463 -0.000676081 -0.0013821322 0.0010296116 4.1728188e-05 -2.4735158e-05 -0.00035452127 -0.0008875941
-0.0011696836 0.00013605485 0.0004058662 -0.00023471036
00000000: c409 66ba 52ca 153b b47f 603a 2b7b 28b9
00000010: 71ff 103b d3ba 8939 2ee4 6b3a 13be 483a
00000020: 0219 9dba bf2b 3cb8 b457 a0ba ef99 62ba
00000030: cb04 f439 8f2f eeb8 8f4d 4a3a 7cb5 95b9
00000040: 191b 493a 997e 053b d0b6 1bb8 9a59 8b39
00000050: 1f65 85ba e53f c0b8 ff83 9cba a32a 17b9
00000060: 64e5 9b3a b1ee 8a3a bf96 143a 8ec3 3eba
00000070: fafc cd36 bcb0 d3b9 938f 8c3a 7de2 a339
00000080: d7c1 f539 073b 31ba a928 b5ba 08f4 863a
00000090: 4d05 2f38 597e cfb7 0adf b9b9 6fad 68ba
000000a0: 1250 99ba f2a9 0e39 70ca d439 951c 76b9

bn1.running_var f4 [44]
0.34361884 2.4963844 2.177483 0.5226194 1.0115275 1.0517529 0.87084293 0.43076396
1.1988218 0.54980856 1.2183093 0.81595767 2.1573887 0.6415803 0.46752048 0.8599605
1.5997397 1.3602064 1.403817 0.49314752 0.6228573 0.33624333 1.4384952 0.5647712
1.5189885 1.7134956 0.9102812 1.4832315 0.53735137 0.6186717 0.72682506 1.1370802
0.5335813 0.95075744 1.0979581 1.2095183 0.7307959 0.5403691 1.8335013 1.3678397
0.4793518 0.9315703 1.1376377 0.41759902
00000000: cfee af3e c3c4 1f40 e25b 0b40 63ca 053f
00000010: bc79 813f d79f 863f 90ef 5e3f 188d dc3e
00000020: fe72 993f 41c0 0c3f 8ff1 9b3f 9ae2 503f
00000030: a812 0a40 9b3e 243f d85e ef3e 5f26 5c3f
00000040: 45c4 cc3f 3e1b ae3f 47b0 b33f d57d fc3e
00000050: 9373 1f3f 1628 ac3e 9c20 b83f d894 103f
00000060: 376e c23f d353 db3f 3008 693f 88da bd3f
00000070: dc8f 093f 4561 1e3f 3511 3a3f d88b 913f
00000080: c998 083f d764 733f e489 8c3f 7fd1 9a3f
00000090: 7115 3b3f a155 0a3f 2cb0 ea3f 5f15 af3f
000000a0: 996d f53e 647b 6e3f 1d9e 913f 8acf d53e

conv2.weight f4 [20, 44, 1, 12]
0.041948415 0.015782705 -0.006655934 -0.023711685 0.002887784 0.0038931568 -0.045294642 -0.07868061
-0.053331308 -0.00084000296 0.04230792 0.09944174 -0.0031136447 -0.030412262 -0.011477518 -0.027898252
0.00818012 -0.012584252 0.028883532 0.065410376 -0.005094145 -0.014140222 -0.0016601614 -0.07818915
-0.06985675 -0.07271743 -0.0091109695 0.0020648842 0.0013208804 0.026262866 0.030136712 0.04518415
0.03604939 0.041357547 0.016838044 0.054140214 -0.028627722 -0.057840597 -0.09241518 -0.09354699
-0.0487046 0.0029386645 0.018946463 -0.019777372 -0.057467137 -0.046672925 -0.036660224 -0.065441154
-0.020230295 -0.058037944 -0.014287572 0.020461008 0.0018769307 0.054304343 0.030708292 0.035932764
0.019318938 -0.063090235 -0.043864146 -0.12558222 0.113475926 0.09575578 0.085376024 0.05371253
0.0063155973 -0.013892174 -0.0012597481 -0.031603098 -0.024423478 -0.0068474244 0.004200428 0.016969198
0.06515829 0.02327107 -0.058228806 -0.06969253 -0.035246648 0.024612183 0.05462068 0.05921626
0.027547337 -0.02818678 0.0005016369 -0.062507674 0.03311116 0.09244434 0.03854682 -0.03671846
-0.016206246 -0.01488999 -0.03426884 0.00070587 0.021687657 -0.030704752 -0.009467225 0.016914055
-0.07323447 -0.0046484945 0.014006034 0.032775577 -0.026511012 0.0024318695 0.010800762 0.028014764
0.009362926 -0.04745312 -0.045333374 -0.0142788915 0.07822008 0.09397866 0.07124906 0.010117237
-0.02078374 -0.058071867 -0.016514925 -0.023678249 0.013295041 0.08078272 0.08021566 0.08339409
0.029499859 0.007513433 -0.0317609 0.024201728 0.0121274125 -0.031625427 -0.03342699 -0.06279011
-0.04043206 0.0009060018 0.013281318 0.018278467 -0.086448744 -0.027714627 -0.051060766 -0.020793734
-0.020737978 0.043544892 -0.014041121 0.021435041 -0.0043384433 -0.028231297 -0.017144108 0.015315632
-0.026094653 -0.01246132 -0.020583352 -0.019123912 0.025619853 -0.029702626 0.046145264 0.015619047
-0.0044617825 -0.022962792 -0.085801065 -0.07534867 0.007827584 -0.010625725 0.041978836 0.0659203
-0.03571698 -0.029540375 -0.05252904 0.00074997614 -0.064405344 -0.07357303 0.0053991866 0.036550287
0.004873322 0.05059911 0.020924186 0.0647666 0.015141996 -0.021928286 -0.0010119448 -0.0023393764
-0.0012401015 0.04962231 0.08219906 0.05540795 -0.049436003 -0.07798288 -0.11188987 0.0031161068
0.037336547 0.103956096 0.028571242 0.075291686 0.061847534 0.026488267 -0.06901036 -0.0758856
-0.0041058236 0.059071492 0.011588046 0.034481354 0.02861365 0.0037640189 0.039146625 -0.009366412
-0.009796838 -0.005117907 -0.0010865907 -0.005362479 0.009725186 -0.03398015 0.01449708 -0.043132048
-0.017291615 0.024956936 0.050135642 -0.006027885 -0.013553035 -0.024037965 0.0216562 0.04941494
0.0034463601 0.008810435 0.037661865 -0.003045686 -0.029589912 -0.0562353 0.002885092 -0.056897465
0.016916223 0.004616291 -0.032842223 -0.0374534 0.018186236 -0.022319 0.002608357 -0.058519203
-0.0013840583 -0.030077377 -0.044651926 0.03512682 0.03996364 0.021805996 -0.01959792 8.278241e-05
0.0058636684 0.020205991 0.05635833 -0.024662513 0.017712763 0.031984314 -0.023692925 -0.02270368
-0.02286722 -0.05396096 -0.060212873 -0.029245624 0.0015678614 0.0049371 0.08757997 0.10657187
00000000: 1ad2 2b3d bb4a 813c 051a dabb 023f c2bc
00000010: fa40 3d3b 5524 7f3b e086 39bd 4d23 a1bd
00000020: ee71 5abd a533 5cba 124b 2d3d 1ca8 cb3d
00000030: 4a0e 4cbb 2323 f9bc 330c 3cbc e08a e4bc
00000040: e905 063c 2e2e 4ebc 289d ec3c e0f5 853d
00000050: c9ec a6bb 64ac 67bc c699 d9ba a221 a0bd
00000060: 0e11 8fbd e0ec 94bd 2d46 15bc 0253 073b
00000070: 6421 ad3a 3925 d73c 44e1 f63c 0413 393d
00000080: 86a8 133d 8866 293d f0ef 893c 21c2 5d3d
00000090: af84 eabc 43ea 6cbd 2b44 bdbd 9095 bfbd
000000a0: 7a7e 47bd 9c96 403b 9d35 9b3c 2804 a2bc
000000b0: a962 6bbd 1c2c 3fbd 0829 16bd 0306 86bd
000000c0: 01ba a5bc 32b9 6dbd 6c16 6abc d89d a73c
000000d0: 5803 f63a 3b6e 5e3d f58f fb3c 3c2e 133d
000000e0: c042 9e3c 7435 81bd e4aa 33bd a098 00be
000000f0: 1166 e83d 9b1b c43d a0d9 ae3d ab01 5c3d
00000100: 12f3 ce3b 009c 63bc 221e a5ba 4072 01bd
00000110: bf13 c8bc 5c60 e0bb bea3 893b fd02 8b3c
00000120: b671 853d f9a2 be3c 5481 6ebd f5ba 8ebd
00000130: ca5e 10bd 7d9f c93c efb9 5f3d c08c 723d
00000140: f4aa e13c f6e7 e6bc 4880 033a 0604 80bd
00000150: 919f 073d 7553 bd3d 45e3 1d3d 1966 16bd
00000160: f6c2 84bc 25f5 73bc 7c5d 0cbd 220a 393a
00000170: 50aa b13c 8888 fbbc 6b1c 1bbc 588f 8a3c
00000180: f4fb 95bd 6652 98bb 9079 653c af3f 063d
00000190: 9f2d d9bc 0060 1f3b aef5 303c 387f e53c
000001a0: f566 193c 345e 42bd 7daf 39bd 03f2 69bc
000001b0: d931 a03d e277 c03d 07eb 913d c5c2 253c
000001c0: a942 aabc c4dc 6dbd 4f4a 87bc e3f8 c1bc
000001d0: 72d3 593c 6971 a53d 1c48 a43d 85ca aa3d
000001e0: b0a9 f13c 3f33 f63b b817 02bd b442 c63c
000001f0: 0eb2 463c aa89 01bd bdea 08bd 1a98 80bd
00000200: 169c 25bd c080 6d3a e399 593c b9bc 953c
00000210: 0a0c b1bd c909 e3bc 1825 51bd 9f57 aabc
00000220: b1e2 a9bc 215c 323d bb0c 66bc 8a98 af3c
00000230: 8029 8ebb 5245 e7bc cd71 8cbc 6bee 7a3c
00000240: 74c4 d5bc 902a 4cbc 6b9e a8bc c0a9 9cbc
00000250: bae0 d13c ec52 f3bc d102 3d3d 08e7 7f3c
00000260: 2534 92bb 771c bcbc 78b8 afbd 6750 9abd
00000270: 443f 003c 8517 2ebc 00f2 2b3d 3901 873d
00000280: f84b 12bd a8fe f1bc b128 57bd 0c9a 443a
00000290: f3e6 83bd 75ad 96bd a9eb b03b c1b5 153d
000002a0: 63b0 9f3b 0341 4f3d 3369 ab3c 5aa4 843d
000002b0: 2216 783c f3a2 b3bc 3ca3 84ba 3950 19bb
000002c0: e78a a2ba c340 4b3d fb57 a83d 72f3 623d
000002d0: 687d 4abd 7db5 9fbd 8426 e5bd 9937 4c3b
000002e0: 35ee 183d efe6 d43d 3d0e ea3c 8732 9a3d
000002f0: d753 7d3d ecfd d83c 4e55 8dbd e969 9bbd
00000300: 258a 86bb f3f4 713d cadb 3d3c 523c 0d3d
00000310: 2c67 ea3c c2ad 763b 3658 203d 9475 19bc
00000320: eb82 20bc 1eb4 a7bb ef6b 8eba bcb7 afbb
00000330: 6356 1f3c c52e 0bbd 2985 6d3c 3bab 30bd
00000340: 25a7 8dbc 7d72 cc3c 085b 4d3d 9085 c5bb
00000350: 8d0d 5ebc 44eb c4bc 5868 b13c 5267 4a3d
00000360: 54dc 613b a559 103c 5443 1a3d 229a 47bb
00000370: 8b66 f2bc fc56 66bd d013 3d3b 510d 69bd
00000380: e493 8a3c 4144 973b 9185 06bd bd68 19bd
00000390: 4dfb 943c 56d6 b6bc f8f0 2a3b d5b1 6fbd
000003a0: 4a69 b5ba d564 f6bc f0e4 36bd 24e1 0f3d
000003b0: eab0 233d 7da2 b23c d18b a0bc 789b ad38
000003c0: 0424 c03b 0987 a53c fed7 663d 0a09 cabc
000003d0: 5b1a 913c fc01 033d aa17 c2bc 11fd b9bc
000003e0: 0954 bbbc 2b06 5dbd c6a1 76bd 8594 efbc
000003f0: b380 cd3a 66c7 a13b 215d b33d 5a42 da3d

conv2.bias f4 [20]
-6.7846975e-07 2.1383523e-05 -3.3817905e-06 -9.860493e-06 6.687798e-07 6.1475516e-06 -1.4184853e-05 -9.458579e-07
1.3605262e-05 -5.0921185e-06 5.864395e-06 8.2502565e-06 7.637269e-06 -1.53855e-05 1.459472e-05 -6.893574e-06
-3.0441024e-05 1.1276063e-06 -1.5770833e-05 -8.434955e-06
00000000: 1620 36b5 c460 b337 b8f2 62b6 7f6e 25b7
00000010: 3386 3335 1147 ce36 7bfb 6db7 dce6 7db5
00000020: 2842 6437 f7dc aab6 c5c6 c436 956a 0a37
00000030: d221 0037 1c10 81b7 d8db 7437 5a4f e7b6
00000040: 9a5b ffb7 4258 9735 9b4b 84b7 db83 0db7

bn2.weight f4 [20]
0.8525308 0.8804926 0.83075 0.8202902 0.7970098 0.96848106 0.9993251 0.90465564
0.8351154 0.9189529 0.8519394 0.937074 0.8230066 0.8889042 0.9016898 0.8871767
0.86503965 0.8991366 0.92605054 0.9139923
00000000: 753f 5a3f f767 613f 08ac 543f 8afe 513f
00000010: d608 4c3f 60ee 773f c5d3 7f3f 8397 673f
00000020: 1fca 553f 7f40 6b3f b318 5a3f 15e4 6f3f
00000030: 8fb0 523f 3a8f 633f 25d5 663f 031e 633f
00000040: 3d73 5d3f d12d 663f a611 6d3f 66fb 693f

bn2.bias f4 [20]
0.037018716 -0.03827529 -0.039266955 -0.014270947 0.047815245 0.012513365 -0.031180073 -0.010822571
-0.014201397 0.006915215 -0.013265094 -0.04045225 0.0026763051 -0.032134924 -0.015102181 0.05884258
0.03826455 -0.029009502 0.013551084 0.025996916
00000000: f0a0 173d 8dc6 1cbd 63d6 20bd b1d0 69bc
00000010: ebd9 433d db04 4d3c 5a6d ffbc 2751 31bc
00000020: faac 68bc 0799 e23b d655 59bc 42b1 25bd
00000030: f364 2f3b e99f 03bd 236f 77bc eb04 713d
00000040: 4abb 1c3d 56a5 edbc 5e05 5e3c 7cf7 d43c

bn2.running_mean f4 [20]
-0.104326546 -0.08849003 -0.21710736 -0.0928953 1.007322 0.054122057 0.015220819 0.2681771
0.15276565 0.014733214 0.11615655 -0.011379607 0.12205147 -0.09057536 0.13031243 1.439615
0.080222204 -0.021169512 0.27703997 0.2723967
00000000: 28a9 d5bd 433a b5bd 6451 5ebe e43f bebd
00000010: edef 803f 17af 5d3d be60 793c 824e 893e
00000020: 996e 1c3e 9463 713c 7ce3 ed3d 8871 3abc
00000030: 1ff6 f93d 937f b9bd 9f70 053e 4e45 b83f
00000040: 8a4b a43d af6b adbc 2fd8 8d3e 9577 8b3e

bn2.running_var f4 [20]
9.837138 6.8504353 10.899652 11.419969 6.054682 16.22477 13.498523 8.174803
6.5150104 8.18362 8.217504 12.9862 8.911232 15.1388645 8.143268 7.7231855
5.6598887 9.991794 8.3912525 15.586564
00000000: eb64 1d41 c436 db40 f964 2e41 31b8 3641
00000010: f4bf c140 54cc 8141 f3f9 5741 fecb 0241
00000020: f77a d040 1cf0 0241 e57a 0341 7ac7 4f41
00000030: 6894 0e41 ca38 7241 d34a 0241 5624 f740
00000040: cf1d b540 63de 1f41 9242 0641 9162 7941

fc.weight f4 [4, 640]
-0.055494323 -0.026165588 0.01954281 0.014698103 -0.008487013 -0.0040135635 -0.043264844 -0.020529917
-0.022948636 -0.07091583 -0.059507325 -0.045063134 -0.07063684 -0.06867489 -0.05233981 -0.027459403
0.0065267333 -0.05038813 -0.010146522 -0.033340786 0.0016772428 0.0034495858 0.00044222863 0.015760543
0.00061979337 0.04864326 0.043192986 -0.018522035 -0.002230077 -0.042448778 0.0013772078 0.004929526
0.04332442 0.029274238 -0.024111083 0.00935356 -0.03994197 -0.0067156795 0.013310159 -0.026745984
-0.041373715 -0.011122679 -0.01315408 -0.014975379 -0.019150572 -0.014989654 -0.022491172 0.03849011
0.007811801 -0.00019797734 0.021779057 0.023220265 -0.042702504 0.00259977 0.008182192 -0.025505055
-0.017910212 0.0016409521 -0.00044989868 0.05380898 -0.014865785 0.024384882 0.037844945 -0.0089074895
0.11319278 0.07261201 0.014082775 -0.014553568 0.021594193 0.009355478 -0.009535617 0.023935638
0.024824822 0.03720779 0.05363804 -0.009543357 0.05184849 0.021124832 -0.013059013 0.02903352
-0.036365975 0.0027347682 -0.02377332 0.033185042 0.0028288981 0.024272135 -0.009097896 0.0028403483
-0.0103167975 0.0027925032 0.043985438 0.008315484 0.004958985 0.027817316 0.03553977 0.009800694
0.10701232 0.07451993 0.0060619065 -0.008462774 0.025515173 0.00078346813 -0.044789728 0.00259653
0.009435627 -0.036612827 0.0062284167 0.033319887 -0.019079713 0.020542728 -0.002912029 -0.012499688
-0.02196144 0.041136347 0.015834952 0.02524593 -0.026509997 -0.012637881 0.011994139 -0.006327365
-0.017382322 0.017417202 0.012625392 -0.0047120107 -0.003420719 -0.028583957 0.039435875 -0.037322547
0.003892238 0.012809486 -0.03713885 0.0052425037 0.0057221553 -0.042103004 0.007396544 -0.0007963971
-0.0055310726 -0.030746628 -0.025405899 0.0083000325 -0.014346314 -0.03712353 -0.009605824 0.009806486
-0.040027045 0.00409985 0.03582253 0.041672546 0.05285986 -0.012034591 -0.00089037593 0.043405678
0.0015122421 0.070304446 0.031897113 -0.008713586 0.0068698465 -0.011133815 0.005228138 -0.00034175787
-0.2045243 -0.16249152 -0.08046498 -0.079097755 -0.024980525 -0.083524644 -0.018894603 -0.0590441
-0.002250568 9.8146986e-05 -0.05393127 -0.0474802 -0.06125796 0.0052819075 -0.060871735 -0.016300691
-0.046292454 -0.011442415 -0.03634416 -0.07384716 -0.0018697702 -0.039751805 -0.054953825 0.030614557
-0.028053835 -0.00015315016 -0.0021338337 -0.04288971 -0.03802251 -0.03435016 -0.034335867 -0.022861887
0.05259511 0.0052553285 -0.041894943 -0.03409198 0.01979807 0.031370327 0.012853848 0.0093703875
0.023222884 0.032534022 0.002372642 0.00016989627 0.02329186 0.016979937 -0.014782575 0.042774722
0.019295808 -0.013777526 0.017404806 -0.0031010713 0.0025148718 -0.00012275431 -0.001037007 -0.0037061216
0.019916449 0.024089314 0.007856242 -0.01170227 -0.040266793 0.03361005 -0.007940767 0.06105497
-0.035502747 -0.03218981 0.0298035 0.021014169 0.0062443283 0.048335835 0.015431031 0.010182848
-0.00090609764 -0.0068571162 0.04590571 0.0004311375 0.040713944 0.039730966 0.0043170275 0.024938283
0.06693523 0.025634656 0.027486235 -0.03472449 0.028895935 0.02008939 0.018719256 0.05049651
-0.025135484 0.031125516 0.018525522 -0.034044486 0.02257879 0.04194296 0.0049581914 0.054192748
00000000: 044e 63bd 3759 d6bc 3e18 a03c 50d0 703c
00000010: 1d0d 0bbc 3684 83bb 7a36 31bd 5b2e a8bc
00000020: c7fe bbbc 523c 91bd f4bd 73bd 1f94 38bd
00000030: 0caa 90bd 6ca5 8cbd 4562 56bd 8bf2 e0bc
00000040: 35de d53b c963 4ebd 993d 26bc 5990 08bd
00000050: eed6 db3a 7212 623b ecda e739 411c 813c
00000060: a179 223a 283e 473d 21eb 303d 86bb 97bc
00000070: 7c26 12bb c5de 2dbd 6d83 b43a dc87 a13b
00000080: f274 313d 87d0 ef3c 9b84 c5bc ad3f 193c
00000090: 319a 23bd 340f dcbb da12 5a3c 651a dbbc
000000a0: 7c77 29bd e63b 36bc 3684 57bc 4b5b 75bc
000000b0: a9e1 9cbc 2a97 75bc 683f b8bc cea7 1d3d
000000c0: 23fa ff3b 2398 4fb9 fe69 b23c 6d38 be3c
000000d0: d2e8 2ebd e760 2a3b 9a0e 063c faef d0bc
000000e0: 70b8 92bc 3715 d73a 61e0 ebb9 ce66 5c3d
000000f0: 9f8f 73bc cec2 c73c 4d03 1b3d b8f0 11bc
00000100: 9ed1 e73d 9bb5 943d 71bb 663c 1772 6ebc
00000110: 4ee6 b03c b847 193c 473b 1cbc ac14 c43c
00000120: 6d5d cb3c 3267 183d 90b3 5b3d be5b 1cbc
00000130: 155f 543d fc0d ad3c 78f5 55bc b4d7 ed3c
00000140: 7df4 14bd cc39 333b 44c0 c2bc 0aed 073d
00000150: 0965 393b 5bd6 c63c 570f 15bc 2325 3a3b
00000160: c907 29bc 6e02 373b 132a 343d ab3d 083c
00000170: fb7e a23b 24e1 e33c 2692 113d 1793 203c
00000180: 4629 db3d e89d 983d f5a2 c63b 72a7 0abc
00000190: 3205 d13c a861 4d3a 6f75 37bd 8b2a 2a3b
000001a0: e397 1a3c 55f7 15bd bf17 cc3b 6f7a 083d
000001b0: 0f4d 9cbc 3949 a83c bdd7 3ebb 7ecb 4cbc
000001c0: 7ae8 b3bc 967e 283d 4db8 813c 8dd0 ce3c
000001d0: 7e2b d9bc 1d0f 4fbc 1183 443c c955 cfbb
000001e0: 5f65 8ebc 85ae 8e3c bbda 4e3c 3667 9abb
000001f0: 242e 60bb e728 eabc 8387 213d 87df 18bd
00000200: eb14 7f3b e1de 513c e81e 18bd 4fc9 ab3b
00000210: eb80 bb3b 3374 2cbd b55e f23b 4ec5 50ba
00000220: 003e b5bb 5ae0 fbbc 0820 d0bc dcfc 073c
00000230: cd0c 6bbc d80e 18bd bf61 1dbc 62ab 203c
00000240: 66f3 23bd 0958 863b a5ba 123d d5b0 2a3d
00000250: 9583 583d bc2c 45bc 1e68 69ba 27ca 313d
00000260: 6d36 c63a c7fb 8f3d 8ca6 023d 6ec3 0ebc
00000270: 731c e13b 9b6a 36bc cd50 ab3b f72d b3b9
00000280: d16e 51be 2d64 26be d3ca a4bd 01fe a1bd
00000290: f5a3 ccbc f80e abbd dbc8 9abc 3ad8 71bd
000002a0: 447e 13bb 43d4 cd38 09e7 5cbd 997a 42bd
000002b0: a0e9 7abd da13 ad3b a454 79bd 0789 85bc
000002c0: 289d 3dbd f878 3bbc 9ddd 14bd 2e3d 97bd
000002d0: 1413 f5ba cad2 22bd 4317 61bd 61cb fa3c
000002e0: 28d1 e5bc ef96 20b9 cad7 0bbb 1fad 2fbd
000002f0: 7ebd 1bbd c1b2 0cbd c4a3 0cbd da48 bbbc
00000300: f86d 573d e434 ac3b 089a 2bbd 08a4 0bbd
00000310: 902f a23c 2c7e 003d f298 523c 4186 193c
00000320: eb3d be3c 6542 053d 547e 1b3b 2f26 3239
00000330: 92ce be3c 8219 8b3c 9d32 72bc 8c34 2f3d
00000340: 3e12 9e3c 22bb 61bc 8694 8e3c 583b 4bbb
00000350: 8cd0 243b 9cb7 00b9 2eec 87ba 67e2 72bb
00000360: d227 a33c f456 c53c 78b7 003c e1ba 3fbc
00000370: cbee 24bd b1aa 093d fe19 02bc c714 7a3d
00000380: 546b 11bd 76d9 03bd 7826 f43c e825 ac3c
00000390: 399d cc3b ccfb 453d 6fd2 7c3c f6d5 263c
000003a0: 2f87 6dba a9b1 e0bb a007 3c3d 4c0a e239
000003b0: aac3 263d f0bc 223d da75 8d3b 5f4b cc3c
000003c0: 5615 893d c5ff d13c d02a e13c 443b 0ebd
000003d0: 2bb7 ec3c 8192 a43c 2059 993c 6ed5 4e3d
000003e0: eee8 cdbc f0fa fe3c d6c2 973c 3b72 0bbd
000003f0: 28f7 b83c 62cc 2b3d 5378 a23b 37f9 5d3d

fc.bias f4 [4]
-0.0060448097 -0.016479457 -0.04301016 0.0027540869
00000000: 8a13 c6bb edff 86bc 6c2b 30bd e97d 343b
