lab2/model_weights/sccnet_SD_model.pth (torch, 74566 bytes, 14 tensors)

conv1.weight f4 [44, 1, 22, 4]
00000000: 04b2 c03b 08a6 29be 2683 20be 638b 8cbd
00000010: 3df6 d73e e4f5 6f3e fd0e 51bd 2815 d6bd
00000020: a6f0 f6be d96f 38bf 5700 46bf c789 fbbe
00000030: 408c 2a3e 19e3 b2bd 5692 84be f115 1ebe
00000040: 4c1e 963e 04a8 b73d 4adb 89bd 1a61 7dbe
00000050: e92e ffbd 984f 3abd 0b95 233e d045 933e
00000060: ec0f 2abe bbc0 50be 4d69 8dbe 1c2b d2be
00000070: 57f5 da3e bbdc 033f 2b2f 423f c4b8 b03e
00000080: 867e babe b462 003e dde2 193f 20f3 ea3e
00000090: 1dcd 82be e736 d83e 5e02 783f fc3d 703f
000000a0: 13e5 653f 7308 253f 04f0 d63e 46c4 8d3e
000000b0: 3c08 2a3f ccb4 943e 0026 313e 63a1 943e
000000c0: 5cbc 983e 1efa 6b3e f534 cc3d 1e2a 09be
000000d0: 8e22 8bbe 57fe e2be 4125 a4be c5c5 5dbe
000000e0: 6fba dbbe a373 8dbe d022 543d 4e18 433e
000000f0: 7467 11bf 2963 a6be d94b e9bb 4c43 913e
00000100: c9fe 19bf a9cf 37bf 2ed3 1abf 7406 e6be
00000110: 4e38 ccbe 3055 5fbf 14bd 7dbf 754a 54bf
00000120: 15cf a43e 7821 8b3d 35ad 82be 4cb0 12bf
00000130: 67d3 5d3b 3e60 cd3d 0e77 013d 505d 0c3e
00000140: 5163 8abe 0b49 53bc 89b5 433a ce35 0f3e
00000150: be49 db3e 13e5 343f cc49 043f 5854 b53e
00000160: 65cb 4ebf 072e 36bf 82d6 5dbf bbb0 56bf
00000170: e50c 79be 7d7d 01bf 8b24 eebe 49d6 cdbe
00000180: 5658 c2bc 99ab 803d 7ae0 ec3d 3134 783d
00000190: e2d4 c4bc 3f86 203e ce56 1d3e 8fd4 183d
000001a0: bac4 b33e 9e22 f03e 1da9 a43e df2f 2f3e
000001b0: d80f d4bb 5dc9 45be 2005 6dbe ac0d 0abd
000001c0: 21a4 c63e c6ca 0d3e 4a90 073e 0a47 883e
000001d0: d440 423f 4ee8 5b3f 135f d03e a64d 30be
000001e0: 112f 1e3d 2320 1d3f e90a 5c3f b823 1b3f
000001f0: 49c2 b63d 96df d03e 23cc c13e 6b90 0cbb
00000200: 3133 5a3e 0a66 a43e 8b11 673e ad53 9a3d
00000210: 9e58 0bbe 866a 3cbe 4e7a 07bd 0824 e03e
00000220: 2381 593e 8b72 943e ffe7 0c3f ddd1 313f
00000230: 6d37 d8be 1906 f1be 29dc 1cbf bcee 5cbe
00000240: c7bc 33be 4462 2c3e db80 9d3e 5bb3 e23e
00000250: 92a6 443e 1a00 453e b50b d5bc 2233 acbe
00000260: 3b8a 05bd 4d55 b9be 1b66 1bbf 65b4 04bf
00000270: 5032 2e3d 0bea c2be 9304 06bf c671 4cbe
00000280: c15f 68be 3a05 17bf 02b2 2ebf 06f6 6abf
00000290: 6ba5 83be be9d a5be a48f 1fbd 10e6 773d
000002a0: cb5f 7ebd e5c7 90be 2a06 2abd 1d79 c63d
000002b0: ebac b73d f712 ea3d d462 163f a949 293e
000002c0: a490 d3b8 0c2f 6ab9 45d9 89b9 84b8 c5b9
000002d0: c296 68b9 0ac1 88b9 2b43 98b9 dd46 61b9
000002e0: dcd1 99b9 6219 d3b9 0ef4 deb9 76ee bdb9
000002f0: 2ba8 35b9 44e8 6db9 e3cd b8b9 5d52 e8b9
00000300: 30f5 2d37 70b3 8fb8 aab0 4db9 135a d4b9
00000310: bdd2 0a39 f6f8 4238 25ef 0db9 e673 bfb9
00000320: 26b9 3239 2313 1d39 8751 1239 ec50 6339
00000330: 7ef1 d335 15b8 97b7 853a 2f37 2785 a838
00000340: ae91 1cb9 a9d6 66b9 d4eb 66b9 1336 4eb9
00000350: 5b8b 6638 9f08 00b6 28c2 48b9 8032 b9b9
00000360: 416b 3f39 167e 2939 0251 2cb8 461e 68b9
00000370: e51d 0d3a 7e62 1b3a 3194 3239 882d beb8
00000380: e391 203a 6bda 133a 3928 a039 aa62 22b8
00000390: c640 0438 b8fc 52b8 3222 edb7 451a 80b8
000003a0: 6c6b 9738 2f8e ee37 3353 8b36 26d3 feb7
000003b0: 9d1f a539 8b72 8139 a5d4 4b38 17e7 18b9
000003c0: a926 043a 67f7 fa39 3b7c 8039 304a 09b9
000003d0: fc95 2c3a 7c33 2e3a 38e9 c739 ece8 86b8
000003e0: 0db7 1539 9d42 8938 a6e9 7737 8700 96b8
000003f0: 4d97 8439 2425 a339 ad8a 2d39 e04f 2a36
0.005880596 -0.16567242 -0.15675029 -0.068625234 0.42180052 0.23433644 -0.051039685 -0.10453254
-0.48230475 -0.72045666 -0.7734427 -0.49128553 0.16655064 -0.08734722 -0.25892895 -0.15438057
0.2931999 0.08967593 -0.06731279 -0.24744073 -0.12460119 -0.045486063 0.15974824 0.287642
-0.16607636 -0.20386021 -0.276194 -0.41048515 0.42765304 0.5150868 0.7585322 0.34515965
-0.36424655 0.12537652 0.6011179 0.45888615 -0.25547114 0.42229387 0.9687861 0.9384458
0.89802665 0.6446602 0.41979992 0.27688807 0.66418815 0.29044187 0.17299652 0.29029378
0.29831207 0.23044631 0.09971038 -0.13394973 -0.271748 -0.4433467 -0.32059672 -0.21657474
-0.42915675 -0.27627286 0.051791012 0.1905224 -0.5679848 -0.32497528 -0.0071196374 0.28371656
-0.60154396 -0.7180124 -0.60478485 -0.44926798 -0.39886707 -0.8723936 -0.99116635 -0.8292611
0.3218924 0.06793493 -0.2552277 -0.5730026 0.003384793 0.10028122 0.03160768 0.13707471
-0.27028897 -0.012895833 0.00074657105 0.13985369 0.42829698 0.7066204 0.51675105 0.35415912
-0.80779105 -0.7116398 -0.8665544 -0.8386342 -0.24321325 -0.50582105 -0.46512255 -0.4020255
-0.023723762 0.0628273 0.11566253 0.06059665 -0.024027292 0.15676211 0.15365145 0.037312087
0.35111028 0.4690141 0.32160273 0.17108105 -0.0064716153 -0.19315095 -0.23146486 -0.033704445
0.38797095 0.13846883 0.13238636 0.26616699 0.7588017 0.85901344 0.40697536 -0.1721712
0.038619105 0.6137716 0.8595415 0.6060138 0.08923776 0.40795583 0.37851056 -0.0021448385
0.2130859 0.321091 0.22565286 0.07535491 -0.13608024 -0.1840001 -0.033075623 0.4377749
0.21240668 0.2899364 0.550415 0.6946085 -0.42229787 -0.47074965 -0.6127344 -0.21575445
-0.17552482 0.1683436 0.3076237 0.44277462 0.19204167 0.1923832 -0.026006559 -0.3363276
-0.03260253 -0.36197892 -0.60702676 -0.5183776 0.04252845 -0.38069186 -0.5235073 -0.19965276
-0.22692777 -0.5899235 -0.6824037 -0.9178165 -0.2571214 -0.3234691 -0.038955346 0.06052214
-0.062103074 -0.28277507 -0.041509785 0.09691069 0.08968528 0.114293985 0.5874455 0.16532005
-0.000100882055 -0.00022333505 -0.00026292555 -0.00037712243 -0.00022181406 -0.00026083767 -0.00029041743 -0.00021484071
-0.00029338792 -0.00040263968 -0.00042524975 -0.00036226556 -0.00017324153 -0.00022688607 -0.00035248612 -0.00044311854
1.0368691e-05 -6.852194e-05 -0.00019616136 -0.00040502902 0.00013239212 4.6485067e-05 -0.00013535896 -0.0003651671
0.00017044376 0.00014979816 0.00013954016 0.00021678553 1.5791009e-06 -1.8086323e-05 1.0444438e-05 8.035666e-05
-0.00014931589 -0.00022014476 -0.00022022362 -0.00019665835 5.4966058e-05 -1.9078504e-06 -0.00019145815 -0.00035323575
0.00018255135 0.00016164067 -4.108344e-05 -0.00022136522 0.0005383178 0.0005927457 0.00017030608 -9.068387e-05
0.00061252544 0.0005640152 0.00030547546 -3.8715698e-05 3.1531577e-05 -5.0303264e-05 -2.8268525e-05 -6.108409e-05
7.22025e-05 2.843802e-05 4.1522085e-06 -3.0377483e-05 0.00031494806 0.00024690139 4.8597012e-05 -0.00014581937
0.0005041161 0.00047868045 0.0002450662 -0.00013092975 0.0006583629 0.0006645245 0.0003813 -6.433003e-05
0.00014277939 6.545077e-05 1.4776748e-05 -7.1526556e-05 0.0002528973 0.00031117455 0.00016550226 2.5378467e-06

conv1.bias f4 [44]
00000000: 5c7c 4038 186f 5038 5dd7 1e30 cb6b 6bb1
00000010: 24e2 12b1 584e 43b7 66fb c435 108c f832
00000020: 67bc ecb0 9f35 d1ae 40e7 b032 32b9 0c32
00000030: 4c47 0cb2 ff86 9c31 5a3e 9e31 0cf8 6bb8
00000040: adf5 e136 c2db 19b2 63c5 a5b2 a58b 9438
00000050: 32d4 9fac 5384 3230 3a17 b5b7 9a12 b7b8
00000060: ba33 6438 d9f3 46b3 8c3d 4c37 d63a 9c2e
00000070: d0a6 beb7 f1fe 1131 9912 7b2b 48f8 312e
00000080: dd89 6ab2 d2ad 2f37 31ff ac38 aa49 8cb7
00000090: 55f6 7931 9efc 9538 22b4 8030 7c29 5038
000000a0: 1c68 93b8 5a7a b832 a34e e031 3b79 4431
4.5892186e-05 4.969453e-05 5.7786115e-10 -3.4258274e-09 -2.1374342e-09 -1.1641147e-05 1.4676305e-06 2.8934693e-08
-1.7224807e-09 -9.513745e-11 2.0594257e-08 8.191181e-09 -8.165284e-09 4.555545e-09 4.6054938e-09 -5.6259378e-05
6.734123e-06 -8.955739e-09 -1.929829e-08 7.083201e-05 -4.54261e-12 6.4944067e-10 -2.1587697e-05 -8.729585e-05
5.440761e-05 -4.6322246e-08 1.21736775e-05 7.10451e-11 -2.2727443e-05 2.1245194e-09 8.9198923e-13 4.046566e-11
-1.3651939e-08 1.04712835e-05 8.249132e-05 -1.6723603e-05 3.6374292e-09 7.151927e-05 9.364423e-10 4.96297e-05
-7.028898e-05 2.1476058e-08 6.528198e-09 2.8590665e-09

bn1.weight f4 [44]
00000000: b632 803f 070e 823f 328f 69b9 21a1 c93a
00000010: 70de 64b8 8c02 a33f 1a19 683f 56ea ccba
00000020: 05c7 93b9 5d24 4cb6 f456 573a 2695 6439
00000030: f2ab 7db9 fc17 80b9 4904 4f39 208a b03f
00000040: 13d1 533f 1f41 653a 5bb1 99ba ccbe 923f
00000050: a50c 9e32 2bde b739 96b6 6b3f 491b a53f
00000060: 7a7b 703f 37c2 0e3b 298f 923f 9405 21b6
00000070: 613f 973f 2914 0cba 9511 19b0 66da 0439
00000080: 2bc4 af3a f4f1 a33f 6d6b 803f 6c15 523f
00000090: 1b33 0b39 451e a53f 1c1f bdb9 5ae9 843f
000000a0: 927e 9d3f bac8 08bb cabf 3eba e60e 223a
1.0015476 1.0160531 -0.00022273956 0.0015383103 -5.4566597e-05 1.2735152 0.906633 -0.0015633802
-0.00028186306 -3.0419535e-06 0.0008214556 0.00021799337 -0.00024192015 -0.00024431932 0.00019742655 1.3792152
0.82740897 0.00087453605 -0.001172583 1.1464477 1.8399371e-08 0.00035070008 0.9207548 1.2898952
0.9393841 0.0021783242 1.1449939 -2.3994116e-06 1.1816217 -0.000534358 -5.568606e-10 0.00012669861
0.0013409903 1.2808213 1.0032784 0.8206394 0.00013275111 1.2899863 -0.00036072067 1.0383713
1.2304251 -0.0020871595 -0.00072765036 0.00061820296

bn1.bias f4 [44]
00000000: 897f 983c e0e1 debe 7f5f 463a 3746 efb7
00000010: a624 dc3a 5eea 1abd 9d61 543d 2f4f f9ba
00000020: 1ab1 1c38 2cbe b739 d36e 5dbb 16eb b139
00000030: e843 d8b9 6a80 36b9 9a01 7bba 9a07 883e
00000040: c06f d2bc aa39 11bb 1097 97bb 42bb 17be
00000050: fe5f 3039 d4d6 fc37 d957 c6bb 6f32 82be
00000060: 1654 443e df3a 0c3b 0396 4a3e 011f 9539
00000070: 324a 3dbd 7ed3 373b 11fd 10b9 3cd6 243a
00000080: 7ddf 88ba a99a 25be ea19 24be ed2b 37be
00000090: dd07 f5b9 1497 dd3d eabc e339 f70c 793d
000000a0: 5a16 d3bd 03d0 2c3b 4997 69bb 2c33 173a
0.018615501 -0.43531704 0.00075673306 -2.8523717e-05 0.001679559 -0.037821166 0.051850904 -0.0019020791
3.7358237e-05 0.0003504617 -0.003378798 0.00033935223 -0.00041249325 -0.0001740471 -0.0009575129 0.265683
-0.025688052 -0.0022159615 -0.0046261624 -0.14817527 0.00016820428 3.0140778e-05 -0.0060529527 -0.25429103
0.19172701 0.0021397395 0.19783787 0.00028442594 -0.046213336 0.0028049643 -0.00013827185 0.0006288027
-0.0010442581 -0.1617228 -0.1602551 -0.1788785 -0.000467359 0.108198315 0.00043437566 0.06080338
-0.103069976 0.0026369102 -0.0035643151 0.0005767818

bn1.running_mean f4 [44]
00000000: 0638 87b8 bb34 b6b9 cad7 c9b5 d7e5 d237
00000010: c6d2 2bb7 06fa d7ba c746 d638 79bf aab7
00000020: 95ab 1fb6 b345 60b3 74df d136 339a 0536
00000030: 31da a137 c534 2736 5a71 51b5 52af b13a
00000040: 8ac8 62ba f46f 1338 9437 55b6 f693 edba
00000050: 1e2e e831 e4bc 07b7 33ca 2e3a d8ab bfb9
00000060: 7fbe 763a b113 cf37 1ef6 a7ba 4f12 51b3
00000070: 4a6d b939 f88a b637 5f5e 50b0 a550 5636
00000080: 2b6a 14b8 fc28 8c39 7335 dbb9 1cc9 4839
00000090: 54bd 4436 eace 633a 8886 06b6 d1d8 ec3a
000000a0: 6ec5 893a d40c 5738 387f dcb7 e77c 1937
-6.447737e-05 -0.00034753032 -1.503847e-06 2.5140978e-05 -1.0241469e-05 -0.0016477711 0.000102174985 -2.035474e-05
-2.379272e-06 -5.2217455e-08 6.2546987e-06 1.99083e-06 1.9294299e-05 2.4915655e-06 -7.8023515e-07 0.0013556278
-0.00086510985 3.5151796e-05 -3.1771824e-06 -0.0018125761 6.7573316e-09 -8.090607e-06 0.0006667703 -0.00036558392
0.00094125414 2.4685492e-05 -0.0012814438 -4.8678256e-08 0.00035367376 2.1760803e-05 -7.580407e-10 3.1935426e-06
-3.5384826e-05 0.00026733417 -0.00041810758 0.00019148405 2.931648e-06 0.00086901954 -2.0045863e-06 0.0018069987
0.0010511109 5.127194e-05 -2.6285285e-05 9.148592e-06

bn1.running_var f4 [44]
00000000: 31ad 0140 3edb 2240 171a 9338 9be9 b63b
00000010: d5ec 123a a806 8140 4088 963f 7da0 d43b
00000020: e3b8 003a 586b 6732 a539 103c d971 ec3b
00000030: bb4b 2a3b 456d 9338 18b2 a238 8827 6e40
00000040: 4e4f f23f 112f 103c 0ff8 b63c f4d6 4b40
00000050: 03d0 ac2f f8ce 5d3a 81cc b03f 79dd 3240
00000060: 1ff3 8b3e ae5c 1f3c ee60 983f 398b 0734
00000070: be21 9640 7c00 4a3b 8900 082c 6312 bb38
00000080: a00b 2b3c e7c6 8041 a3ed 4b3f 7c53 2840
00000090: 98b8 9b38 2a08 7540 650e 4d3a f6ce bd40
000000a0: 5da9 f83f a144 9b3c 4b38 853b db5b 1e3a
2.0261958 2.5446315 7.014366e-05 0.005582047 0.0005604749 4.0320625 1.176033 0.0064888583
0.0004910363 1.3470377e-08 0.008802806 0.00721572 0.002598508 7.029859e-05 7.7579345e-05 3.7211628
1.8930452 0.008800284 0.02233508 3.1849947 3.143442e-10 0.00084613217 1.381241 2.7947676
0.27333924 0.009726686 1.190458 1.2623504e-07 4.691619 0.0030823043 1.932706e-12 8.92028e-05
0.010439783 16.09712 0.7965948 2.6300955 7.425359e-05 3.8286233 0.00078222743 5.931514
1.9426686 0.018953623 0.0040655485 0.0006040909

conv2.weight f4 [20, 44, 1, 12]
00000000: ca46 6f3e f207 f43d 24da 7cbc 0a92 99bd
00000010: da34 293e e19b ae3e 63d1 093e 6e1e b0bd
00000020: ce1d 863d d64c 493e a6d6 953e 4ee8 ac3e
00000030: b1f4 053f 5718 b93e f6d5 49bd 2058 82be
00000040: 6774 9ebe 7d04 2cbe 9324 41be afc4 38be
00000050: 4d7a dc3b 71f3 253e 76c6 883e 8b0e 473e
00000060: eaf4 8e3a 8ea8 123a 1105 ef38 9a9e 3a38
00000070: aef9 85b9 f144 0b39 7a29 91b8 00d0 4a38
00000080: 8b4c a839 f301 fb39 2242 363a 30fa 883a
00000090: d6ac 8b3b 845c 593a ba62 99ba 9eaf d2ba
000000a0: 73f6 c6ba 7dc2 96ba 4a0a abb9 65b1 cab8
000000b0: a5c0 0dba 44e8 58ba b866 103a 8221 a93a
000000c0: f00e 0b3b eb94 ee3a aefe fc3a 0c66 0e3b
000000d0: 14d6 c43a 5884 d53a d88e a33a b549 873a
000000e0: 4d6c 3d3a 6795 783a 47e3 4c3a be26 e839
000000f0: 76e7 383e e2a7 d23e 3347 98bd 5ae8 dfbe
00000100: f1eb 65be 1094 bf3e 0cf3 113f 95a9 983e
00000110: a3b6 4fbe 3f43 e4be a12c c2be 1588 10bd
00000120: 6d4c 583e d9bd b23d 41c4 b33d 6831 2e3d
00000130: 548f 04be 65b5 b0be 5fec 8ebe aba7 ba3d
00000140: c888 143e 59a6 1d3e 42e8 813e 0379 a03e
00000150: 8926 aaba ffcf 1fba e443 5b3a 0b12 07ba
00000160: c288 f33a 0c08 743a 8770 4c3b 6947 0d3b
00000170: d010 a439 18d2 99ba 7b2a 38bb 3187 7fbb
00000180: 6930 9539 2900 63ba 1d60 1eba 986e 2bba
00000190: 347a 32ba 0737 eeb9 a3ff dab9 962b 8439
000001a0: 33a5 853a 2849 713a bf97 3a3a 3147 15b9
000001b0: f8fd 0f3a bfc7 fe39 e298 d439 abd5 a939
000001c0: 8809 7339 22a5 9139 32c2 a139 5010 8139
000001d0: 9f78 0539 5e09 f038 68c0 0939 bdf3 db38
000001e0: a42d 18ba 11a5 07bb 0917 473a 396f b3ba
000001f0: 8220 0039 9240 89ba 9de0 0c3a 1357 9d3a
00000200: d71a c93a 77db 873a 43de 9239 b4c7 f3ba
00000210: 44d4 a23b fd73 033a c362 8dba 1cf9 59ba
00000220: 89da fbba 14e0 d4ba ef8f 31b9 e0ee 88ba
00000230: b8b2 feba 9f27 e4b9 28cf 363b 147f 103b
00000240: a098 013a 8377 feba f0bb a3ba d27c 52ba
00000250: 54ab 93ba c2f2 57ba c25c d5ba e7fa d6ba
00000260: b98d daba 6775 c13a 5da8 d73a eb53 023b
00000270: 9247 8db9 f56d a0b9 3b02 b4b9 773a db38
00000280: a6ac 3fb9 0fe4 23b9 51b3 b8b9 e149 78b9
00000290: 1b97 79b9 d514 0bb7 7fa8 aa39 65a2 bb38
000002a0: 753b 8cba 998e 88ba d857 a1ba 4f1b 70ba
000002b0: 316c 58ba 318a 8dba 2d9f c0ba e7bd 83ba
000002c0: 086f c8b9 6ec7 bab9 817f bab8 a8e9 ca39
000002d0: 0890 1b3e 0f34 5c3d d722 1d3e 1d36 163e
000002e0: 0bbd c8bd 1c26 bebe 63e0 a9be 49f6 9d3d
000002f0: dd8a c23e 62a9 193e 2d4a 6bbe cafc 4a3e
00000300: 1aa8 a9be 1ec0 6cbe 5b12 fbbd 9491 4cbe
00000310: 1f24 34be d802 debd a8e3 8a3d be3d 7b3e
00000320: f6e2 cf3d ed8c 7cbe 7f0e 90be 495f 2dbe
00000330: b881 b4b8 a987 1bbb 97b7 47ba 90ea 0fbb
00000340: 9f60 3ebb 7db5 28bb f521 42ba 3e10 24b9
00000350: 92d5 9cba f82c b5b9 bdc4 80ba 9f94 0cbb
00000360: 6b21 cbbb 0ccd fcbb fa59 42ba e6c0 40bb
00000370: 8527 d439 16b0 1bba b245 de3a 7884 a73a
00000380: c1d7 223a 67d8 783a 0b7e 2ebb 1859 d3bb
00000390: 156d 9b3e 472e bc3d 9823 1f3e ad3b b83e
000003a0: 7b4b 883e 164f a8bc 775c cabe c667 8ebe
000003b0: bc33 29bd 35f6 793e 45ae 503e 9e8c 8f3e
000003c0: 45f7 4939 21ca 4a39 a104 3839 f6f7 0b39
000003d0: e1ae d338 eb72 f038 f1b3 0739 95aa e438
000003e0: 965a ab38 0255 9538 e7d3 9d38 c5df 8138
000003f0: 1b13 8638 a52a a8b9 b1aa a9ba 6933 3bb9
0.23366848 0.11915578 -0.015432868 -0.07498558 0.16524068 0.341033 0.13458781 -0.08599554
0.065486535 0.19658217 0.29265326 0.33770984 0.52326494 0.36151382 -0.049276315 -0.2545786
-0.30948183 -0.16798587 -0.18861608 -0.18043779 0.0067284466 0.16206147 0.26713914 0.19439141
0.001090673 0.00055945746 0.00011397352 4.4493565e-05 -0.00025553763 0.00013281756 -6.9218644e-05 4.8354268e-05
0.00032100486 0.00047875903 0.00069526036 0.0010450538 0.004262547 0.0008291679 -0.0011702396 -0.0016074067
-0.0015179649 -0.0011502054 -0.00032623328 -9.665153e-05 -0.00054074294 -0.00082743564 0.00055084703 0.0012903663
0.002121862 0.001820234 0.0019301975 0.0021728305 0.0015017414 0.0016290052 0.0012478484 0.0010321649
0.0007225916 0.0009482712 0.00078158494 0.00044279353 0.18057045 0.4114371 -0.07435455 -0.43731958
-0.22453286 0.3741765 0.57011485 0.2981688 -0.20284514 -0.44582555 -0.37924674 -0.035286028
0.21122904 0.08727617 0.08777667 0.042527586 -0.129453 -0.34513393 -0.27914712 0.091140114
0.14505303 0.15395488 0.2537251 0.31342325 -0.0012981455 -0.00060963625 0.00083643035 -0.000515253
0.0018580186 0.00093090604 0.0031195001 0.0021557456 0.00031293044 -0.0011735586 -0.0028101492 -0.0038990492
0.00028455563 -0.00086593867 -0.00060415437 -0.0006539612 -0.0006808371 -0.00045435896 -0.00041770664 0.00025209476
0.0010196328 0.00092043215 0.0007117949 -0.00014236268 0.00054928614 0.00048595478 0.00040549698 0.00032393387
0.00023177837 0.0002777959 0.00030853 0.0002461695 0.00012728803 0.000114458366 0.00013137015 0.000104881336
-0.0005805141 -0.0020697752 0.000759468 -0.0013689763 0.00012219141 -0.0010471514 0.0005374046 0.00120041
0.0015343082 0.0010365088 0.00028012888 -0.0018598945 0.0049691517 0.0005014537 -0.001078688 -0.0008315013
-0.0019214909 -0.0016241097 -0.00016933655 -0.0010447167 -0.0019431924 -0.0004351707 0.002789447 0.00220484
0.00049437024 -0.0019414279 -0.0012491923 -0.0008029464 -0.001126627 -0.0008237773 -0.0016278254 -0.0016401679
-0.0016674317 0.001475972 0.0016453374 0.0019886445 -0.0002694694 -0.00030599502 -0.00034333937 0.00010453624
-0.00018279496 -0.0001562985 -0.00035228816 -0.00023678645 -0.00023802782 -8.289896e-06 0.00032550466 8.947103e-05
-0.0010698872 -0.0010418474 -0.0012309505 -0.0009159343 -0.0008255868 -0.001079863 -0.0014695876 -0.0010051102
-0.00038229697 -0.0003562527 -8.8929206e-05 0.0003870253 0.15191662 0.053760584 0.15345322 0.1466908
-0.09801682 -0.3713845 -0.33179006 0.07712991 0.3799657 0.1500602 -0.22977515 0.19822994
-0.33136064 -0.23120162 -0.122593604 -0.19977409 -0.17591904 -0.10840386 0.06781703 0.24535272
0.10150711 -0.24663134 -0.2813606 -0.1693088 -8.607231e-05 -0.0023731983 -0.00076186046 -0.0021959879
-0.002904929 -0.002574294 -0.00074055727 -0.0001564631 -0.0011965504 -0.00034556515 -0.0009824258 -0.002145089
-0.006199052 -0.007714873 -0.000741392 -0.0029411851 0.00040465235 -0.00059390196 0.0016958027 0.0012780568
0.00062119594 0.00094926957 -0.002662542 -0.00644983 0.3035666 0.09188514 0.15540922 0.3598303
0.26620087 -0.020545524 -0.3952367 -0.27813548 -0.041309103 0.24410327 0.20378979 0.2803697
0.00019260969 0.0001933952 0.00017549332 0.00013348446 0.00010093838 0.00011465497 0.00012941637 0.000109036606
8.170788e-05 7.1207076e-05 7.525813e-05 6.19288e-05 6.3931766e-05 -0.0003207523 -0.0012944547 -0.00017852861

conv2.bias f4 [20]
00000000: e60b 25b7 1006 a6b7 cddb a1b7 bcc5 c1b6
00000010: c47d 4538 0ad0 fe36 102c 2837 ea82 04b7
00000020: c128 acb6 0a8d 11b7 3c8c 8d37 0e98 2c37
00000030: 17f9 47b7 a5dc f7b7 9206 b0b7 273f 02b6
00000040: 2d80 6bb7 b5e4 85b7 fb87 01b7 25e8 dab7
-9.837537e-06 -1.9791565e-05 -1.9295048e-05 -5.7748675e-06 4.708559e-05 7.594009e-06 1.0023839e-05 -7.898294e-06
-5.130744e-06 -8.675512e-06 1.6873812e-05 1.0287402e-05 -1.191932e-05 -2.954744e-05 -2.0983895e-05 -1.940827e-06
-1.4036935e-05 -1.5961336e-05 -7.72066e-06 -2.6095726e-05

bn2.weight f4 [20]
00000000: 1fe8 c73e 5f36 bc3e 5bd5 c03e 7558 b83e
00000010: 84ec bc3e e3ab d63e 6453 cd3e c124 be3e
00000020: c61b b53e d7ce bf3e b2b1 bb3e 3629 bd3e
00000030: 5966 bf3e 4f39 ca3e bb9f dc3e ead5 c33e
00000040: 8bd2 bd3e f169 bc3e 4a15 bf3e 48bb d23e
0.39044282 0.36760232 0.37662777 0.36004987 0.36899197 0.41928014 0.40102684 0.37137416
0.35372752 0.37462494 0.36659008 0.36945504 0.37382773 0.39496848 0.43090615 0.3824914
0.37074694 0.36799577 0.3732093 0.4115851

bn2.bias f4 [20]
00000000: 9c25 e33c 8aec 6a3d 10fa 96b9 35c3 cebc
00000010: f8f0 813d d69a 9cbb e7f6 a23c 14e1 cebc
00000020: 191f 5a3c 9fec aa3c a5f3 8bbd b9bd 713c
00000030: 8e94 82bb 274b 2cbd 28b2 f73a d1ef 743a
00000040: 2c52 40bc 4e2f 09bb 8727 3bbd 2efe 20bd
0.027727894 0.057354487 -0.0002879654 -0.025239566 0.06344789 -0.0047792 0.019893123 -0.02525381
0.013313078 0.020864783 -0.06833581 0.014754706 -0.0039849943 -0.04206386 0.0018897699 0.0009343597
-0.011738341 -0.0020932737 -0.045691993 -0.039304905

bn2.running_mean f4 [20]
00000000: 34a2 3dbe 4caa 1bbf b856 903c 34bf 2d3d
00000010: e631 0fbf dbf9 e43c 2373 30be a000 9b3e
00000020: 28ef 11bc 02ae 80be 8584 133f e3e8 12bd
00000030: 9cc4 5e3d 8acc cb3e bc31 b0bc 35eb 213c
00000040: 6dfc e73d b833 4cbd b270 843e d991 a43e
-0.18518907 -0.6080673 0.017619476 0.042418674 -0.55935514 0.027951172 -0.17231421 0.30273914
-0.008907117 -0.25132757 0.57624084 -0.03586663 0.05438672 0.39804488 -0.02150809 0.009882738
0.11327443 -0.04985401 0.2586723 0.32142523

bn2.running_var f4 [20]
00000000: c5ce 4441 825f 1641 eea2 1541 7ec9 2e41
00000010: 8929 0041 4b2e 8441 f751 7741 6c0f 2b41
00000020: d568 2641 75b8 3941 2e16 2241 abe9 4941
00000030: 8f68 4141 4fa5 2541 4485 b741 84d3 9141
00000040: 415d f840 fe62 2241 efca 2941 33c5 5841
12.300481 9.398317 9.352278 10.924192 8.01014 16.522604 15.457511 10.691265
10.400594 11.607533 10.130415 12.619548 12.088027 10.352859 22.940071 18.22828
7.7613835 10.149168 10.612044 13.548144

fc.weight f4 [4, 640]
00000000: 68a4 903a f318 ecba 7e98 7fba e017 5038
00000010: b6a1 a83e 45f9 673f a9cb 693f ff32 d73e
00000020: 356f 103e 15c9 8d3e 8351 80be 2837 c23d
00000030: 257e 633d 12fb 143e 7b14 72be 1e7a 4d3e
00000040: 3f22 603d 590f cdbd e12d 7abc 36df 803c
00000050: db69 85bd 37c6 b2bc 9b8a ccbc db88 23bd
00000060: d4d2 323d b78c 083e 2fe9 21bf f0a4 81be
00000070: 7e3c 47b9 9f8c 86ba e3e5 c73a 6b8a a83a
00000080: bfd2 c83b 4f6b 323b 04cc 1b3b 88c7 f73b
00000090: a1d5 fa3b cabc 0a3f 9bdf 9f3d 907c b3be
000000a0: 3258 64be cef5 4fbe 7a45 acbe d732 d8bd
000000b0: 77ae ddbd df6b f2bd 80a0 203e 7d0f 183e
000000c0: 90f9 ecbd 77e5 1d3e a50c f33e 5345 743e
000000d0: 77f2 36bd 6cdf 0f3e f071 753e 5bc4 333e
000000e0: 65f7 b2bd 5147 973e 5124 90bc 6b80 5dbe
000000f0: d8f8 9e3c 7e6b 933c abdd 963c b573 f53b
00000100: 15b3 8db9 e06a a4b9 31bc a7b9 bbf4 b8b9
00000110: b2f0 9dbd 1148 67bc 51f0 c73d 4bb4 6d3e
00000120: 0ed6 da3e 4a76 503e 181f ac3e d19a bc3e
00000130: b8d8 643e e943 9a3d eeb5 b73e 97fb 003f
00000140: 2c91 bd3e 7b8c 0d3f a3e1 ab3d e4db 333e
00000150: 9471 133e 9da0 5d3e 36c0 9abb 7c8a 0e3f
00000160: 3d0d 163f 9834 f03d 3511 febe 099e 21be
00000170: bdde b4b9 9461 9cb9 8ba7 b9b9 f738 c7b9
00000180: 4ca1 a73b 563d 913b 0b70 a43b 1c0a 9a3b
00000190: cf2c 0f3e 0a99 57be eb80 7cbf 63ee 18bf
000001a0: df0b b4be 4b6d f6be cf25 ddbe adcb a2be
000001b0: 178d 10bf 884e 51bf a4cc f5be 40d7 bbbe
000001c0: cdd0 aabe 54f4 35be 5b47 cdbd b88a 27be
000001d0: a577 4abe 3e82 5ebd 8572 00bd 81e2 0cbe
000001e0: 4289 c2bd 45f7 55be f73f 08be 1524 273d
000001f0: d1c8 893b 769e 813b c094 a73b 2acb a63b
00000200: 7b5a 58bc a677 f1bb 54fd 8ab9 60b6 6bbb
00000210: 4e3f a43e 4467 893e 7417 8f3e dfdb 4a3e
00000220: 7236 8b3e 7191 e63d bc3a 953d 3fdd 403e
00000230: dce7 9a3d a21b a03d 5f03 ac3e c3de a73e
00000240: c805 aa3c a8a9 6a3e 5ce0 293e 22c3 96bc
00000250: 11da 913d 2803 803e d99e 4c3e 1070 703e
00000260: 819a a73d b3b8 e0bc fcef 16bd 35d3 a1bd
00000270: f6d7 823b 887e eb3a 04b9 903b 7b84 693b
00000280: 870e 30b9 925d f6b8 6cbb 86b8 46cf 35b8
00000290: 45af 673e 8934 4a3e 23aa 36bf 455b b2bf
000002a0: a487 89bf 7280 28bf 51b4 75be c62a d23d
000002b0: 40b1 e63d 7156 b7bd d040 82be bb3d 8cbe
000002c0: b5df 0ebf efe0 19be ffe2 343e dea0 403e
000002d0: e0cd 98be 342e 42be 587a 2ebd b7f8 3ebd
000002e0: de80 d7bd 5ade e23d 3dde b33e 97a8 f73c
000002f0: 021f a438 2aba 14b8 18d0 14b9 35bf f9b8
00000300: e8d0 613b a763 713b 3183 6a3b d025 903b
00000310: 1ee4 ae3e c3e0 5f3f 4d66 5d3f b307 43be
00000320: 7c72 39bd d2f9 133e 6149 c83c 4f50 a23d
00000330: 3fa2 443e 9cbf 4b3e 9062 103d 2b26 4a3e
00000340: ef01 7cbe 682d 71bc 8aed 9b3d fcf7 473e
00000350: 9bc7 f6bd fa9c 71bd 3fe7 a33c e914 4e3e
00000360: ec52 953d 8c3b 8bba 4a78 a9bd f0b7 973d
00000370: 9d65 5539 f8d6 863a 6aab aa3a 5191 fe3a
00000380: bfac 723b fe50 fd3b 7349 313c 8c75 5e3c
00000390: 975d fabc 4385 5d3d 7977 8b3e 2457 443e
000003a0: 7284 53be 9d6a 0ebe 45d0 1dbd 7167 a6bd
000003b0: 03cc 0abe 32fb b7bd f775 42bd 00e8 96bd
000003c0: 2f15 85bb 79a3 163e 594a 043d c3dc 173e
000003d0: c9b6 78be 1df9 d8bd e6aa cbbe 7a07 2fbe
000003e0: 8bd6 c6bd 877e 903e e9dd 18be 0660 49be
000003f0: 16ba 04bb 3cbc a3b8 3fdc e3ba 35a0 c439
0.0011035325 -0.0018012807 -0.0009750201 4.96133e-05 0.32935876 0.9061473 0.91326386 0.42031094
0.14104922 0.27692476 -0.25062189 0.094831765 0.055540223 0.145489 -0.23640625 0.20066115
0.05472016 -0.10012693 -0.015269727 0.015731435 -0.06514331 -0.021823032 -0.024968436 -0.039925437
0.043658093 0.13334928 -0.63246435 -0.2532115 -0.00019000654 -0.0010265297 0.0015251007 0.0012858635
0.0061286385 0.0027224605 0.0023772726 0.007561628 0.007654861 0.5419432 0.07806321 -0.3505597
-0.22299269 -0.20308611 -0.33646756 -0.10556572 -0.10824292 -0.11836981 0.15686226 0.14849658
-0.11571038 0.15419565 0.47470585 0.2385457 -0.044664826 0.14050072 0.23969245 0.17555372
-0.08738593 0.29546598 -0.017595442 -0.21631019 0.019405767 0.017995592 0.018416246 0.0074906
-0.00027027042 -0.00031360146 -0.00031992936 -0.00035277553 -0.077119246 -0.014116303 0.097626336 0.23213308
0.42741436 0.20357624 0.33617473 0.36836866 0.22348297 0.07532484 0.3588099 0.50383896
0.3702482 0.5529248 0.08392646 0.1756435 0.14398795 0.216433 -0.0047226204 0.5568006
0.5861395 0.117287815 -0.49622503 -0.15782942 -0.00034498228 -0.0002982734 -0.0003541078 -0.0003799868
0.0051156636 0.0044323606 0.0050182394 0.004700912 0.13981937 -0.21054474 -0.98634213 -0.5973875
-0.35165307 -0.4813026 -0.43192908 -0.31796017 -0.56465286 -0.81760454 -0.4800769 -0.3668766
-0.33362427 -0.17768985 -0.100233756 -0.16361511 -0.19772203 -0.054323427 -0.031359214 -0.1375828
-0.09498836 -0.20895107 -0.1330565 0.040805895 0.0042048474 0.0039556576 0.005114168 0.005090137
-0.013205166 -0.0073689995 -0.00026510155 -0.0035966858 0.32079548 0.26836598 0.2794758 0.19810437
0.27189976 0.112582095 0.07286593 0.18834399 0.07563755 0.078177705 0.33596322 0.3278714
0.02075471 0.22916281 0.16589493 -0.018403593 0.07121671 0.25002408 0.1998247 0.23480248
0.08183766 -0.027431821 -0.03684996 -0.07901613 0.0039930297 0.0017966786 0.004416587 0.0035631943
-0.0001679008 -0.00011747623 -6.424528e-05 -4.33468e-05 0.22625454 0.19746603 -0.7135336 -1.3934103
-1.0744519 -0.6582099 -0.23994567 0.10262065 0.112642765 -0.08952034 -0.25440073 -0.27390847
-0.558101 -0.15027212 0.17664717 0.18811366 -0.2984457 -0.18962938 -0.042597145 -0.04662391
-0.10522626 0.110775664 0.35130492 0.030231757 7.825905e-05 -3.545933e-05 -0.00014191901 -0.0001190886
0.0034456793 0.003683308 0.0035783763 0.004399039 0.34158415 0.87452334 0.86484224 -0.19045906
-0.045275196 0.14450768 0.024449052 0.07925474 0.19202517 0.19897312 0.035250247 0.19741122
-0.24610113 -0.014720298 0.07613666 0.19528192 -0.120497905 -0.058987595 0.020007728 0.20125164
0.07291207 -0.0010622605 -0.082748964 0.0740813 0.00020351117 0.0010287454 0.0013021056 0.001942197
0.0037029234 0.0077306023 0.010820734 0.01357783 -0.030562205 0.054082166 0.27239588 0.19173867
-0.20655993 -0.13907857 -0.0385287 -0.08125199 -0.13554387 -0.089834586 -0.04747578 -0.07368469
-0.004061363 0.14710797 0.032297466 0.14830308 -0.24288477 -0.105943896 -0.39778823 -0.17092696
-0.097088896 0.28221533 -0.14928402 -0.19665536 -0.0020252517 -7.807507e-05 -0.0017384364 0.00037503397

fc.bias f4 [4]
00000000: 05a0 1b3e 57b7 3f3d 2c34 023e bd41 a4be
0.15197761 0.046805706 0.12715214 -0.32081404
